examples/samples/2.pt (torch_old, 731568 bytes, 15 tensors)

w f4 [512]
000000 4a c8 7f be 71 fc 67 bf bb e2 80 3d 6f 9f e2 3e
       -0.24978748 -0.9061957 0.062932454 0.44262263
000010 63 ec 41 be 9d 87 8d be 26 38 64 3e d6 69 20 bf
       -0.1893783 -0.27642527 0.22287044 -0.6266149
000020 53 ea 06 be 8c 01 7f be 51 92 10 3e 56 ba be be
       -0.13175325 -0.24902934 0.14118315 -0.37251538
000030 9c f6 17 3f 53 1f 56 3d a2 c8 df 3e 9a 26 db bd
       0.5936067 0.052275967 0.43707758 -0.10700722
000040 ef 46 24 3f da fa 4f ba ec b0 06 3f 64 83 3a 3f
       0.64170736 -0.0007933803 0.5261371 0.72856736
000050 cc 59 b4 3e 95 89 4f be c1 04 80 3e 1a 45 42 3f
       0.3522476 -0.20267327 0.25003627 0.7588669
000060 52 30 72 3f 01 3c 10 3e 0b 32 a7 3e bc 8b 89 3e
       0.9460498 0.1408539 0.32655367 0.2686442
000070 e0 6b 8b 3e eb d3 80 be ef 5c fc 3e 75 79 ac 3e
       0.2723074 -0.2516168 0.49289653 0.33686414
000080 36 41 2d 3f 1f 45 10 3d 7f b1 3f 3e 96 9b b7 be
       0.6767763 0.03522217 0.18720053 -0.3586089
000090 ca 39 a4 3e 36 5b 5b 3f 5a b6 19 be dd 73 04 bf
       0.3207534 0.8568605 -0.15010968 -0.51739293
0000a0 bd ea ea be 7f 90 f1 bd a9 5b b5 3e 55 ae ce 3d
       -0.45882216 -0.117951386 0.35421494 0.10091845
0000b0 2c 9d a0 3c b5 53 d3 3d 65 16 49 3f 7d 33 87 3e
       0.019606195 0.103187 0.78549796 0.2640647
0000c0 ab 57 08 3e f7 1c a8 3e 78 b0 82 3d d9 d5 80 be
       0.13314693 0.32834598 0.06381315 -0.25163153
0000d0 29 02 1e 3e e2 ab 94 3f a4 23 05 3f f3 10 3f 3e
       0.15430512 1.1614954 0.5200751 0.1865881
0000e0 66 40 78 3d aa 73 02 3f 6e e1 c2 3e a2 c3 18 3f
       0.06060829 0.5095774 0.38062614 0.5967351
0000f0 2e 75 62 3e 6e 60 04 3d c3 f7 90 bc 2b 69 3b 3f
       0.22115013 0.032318525 -0.017696267 0.7320735
000100 86 c9 4d 3c f8 ea 20 3f b4 d5 30 3f 6b f5 88 3e
       0.012560254 0.62858534 0.69076085 0.2674974
000110 2b bf f4 3e a3 f4 42 3f 98 f5 d8 3e ca f8 56 3c
       0.478021 0.76154536 0.42374873 0.013120839
000120 c6 f3 e9 3e d3 ff c7 3e 03 18 bb bd f1 69 82 3e
       0.45693797 0.39062366 -0.09135439 0.25471452
000130 70 13 6b be 09 63 62 3f 51 79 72 bc f5 d0 36 3f
       -0.22956634 0.88432366 -0.014799432 0.71412593
000140 04 e1 87 3f ad e2 82 3e 13 06 c4 3e e2 7a 12 3f
       1.0615544 0.25563565 0.38285884 0.57218754
000150 03 36 b7 3e 2e 32 a6 3e 73 ab 94 bd 12 0d 83 3f
       0.35783395 0.3246016 -0.07259264 1.0238364
000160 92 fc f5 bd c8 62 8c be 47 92 2c 3e 58 c4 38 3e
       -0.120110646 -0.27419114 0.16852675 0.18043649
000170 84 b8 93 3d d3 03 99 be 03 9a 0e be 3d 44 80 3e
       0.07212928 -0.2988573 -0.13925938 0.25052062
000180 dc e6 3e 3e ba e9 1a 3d c0 37 8c 3e 7b b0 47 3f
       0.18642753 0.037820555 0.27386284 0.7800366
000190 f6 8b 84 3e 5d 38 1e 3f ae 48 d3 3d af 7b 1e 3f
       0.25888032 0.61804754 0.10316597 0.61907476
0001a0 dd 1e cd 3e 31 6c 3d be d1 f9 6d bd 43 54 63 3f
       0.4006261 -0.18498303 -0.05809957 0.8880045
0001b0 08 9a 0d be 7c 74 67 bc 86 a3 78 bd 3b 75 f2 3e
       -0.1382829 -0.014126893 -0.060702823 0.47355065
0001c0 70 98 8a 3e c9 1c 5c 3f 87 7d ac 3d 9a 69 85 bd
       0.27069426 0.8598142 0.0842238 -0.065142825
0001d0 7e 1c 60 ba 27 7f 8a bb d0 14 a0 3e 49 af f0 bc
       -0.00085491675 -0.0042265835 0.3126588 -0.029380457
0001e0 c1 4d 9c be c3 64 61 3f 0d 4e 3d be 1f c0 6d bd
       -0.30528072 0.88044375 -0.18486805 -0.05804455
0001f0 75 8a f5 3e 51 b0 21 3b 36 4a 91 be f7 da 8a 3e
       0.47957197 0.0024671743 -0.2837693 0.27120182
000200 a2 bf 82 be 36 a2 25 3e 5e 3c 95 3e 5b 43 e1 be
       -0.2553683 0.1617516 0.2914762 -0.439967
000210 89 5f 86 3e 63 71 ec 3e cf cf 35 3d fb 9e 7c 3f
       0.26244763 0.46180257 0.044387635 0.98680085
000220 54 8d 34 be 0b 81 76 3f b9 bc 03 3f 8f 09 62 bd
       -0.17632037 0.96290654 0.5145984 -0.055184897
000230 ae 4a f1 bd 85 16 d3 3e 85 5f 35 3e b2 2b 24 3e
       -0.11781822 0.4122812 0.17712219 0.16032293
000240 c4 80 6e be 4d 5a 01 3e c2 43 65 3e e6 d4 f7 3d
       -0.23291308 0.12632103 0.22389129 0.12101154
000250 f4 f7 76 3e c4 8e 40 3f c4 9f 30 3f 13 8d 94 3e
       0.24118024 0.75217843 0.68993783 0.2901388
000260 08 51 c0 3e 60 35 14 3f de bb fc bd f0 d1 ee 3e
       0.37561822 0.57893944 -0.1234052 0.46644545
000270 9e 28 ac 3e 6c 0a 33 be 7d 3e 83 bb ae 06 1b 3e
       0.33624738 -0.17484444 -0.004005252 0.15139267
000280 90 66 f1 3d 97 ef d8 3c b6 42 4f 3e c5 84 fb 3d
       0.1178714 0.026481433 0.20240292 0.12281183
000290 81 09 f6 3e cb 4e 7d 3e 83 ea 59 bd 8d 33 b3 3c
       0.48054126 0.24737088 -0.053202163 0.021875167
0002a0 98 49 66 be 2b a2 6e be b9 96 1e 3e f5 67 23 3f
       -0.22489011 -0.2330405 0.15487184 0.638305
0002b0 b2 49 bd 3e 6e 1b d3 bd 26 81 24 be b9 79 e5 3e
       0.36970288 -0.10307966 -0.16064891 0.4481943
0002c0 af a2 16 3e 1a c1 fc 3d c3 d4 ce 3d 71 c2 55 3f
       0.14710496 0.12341519 0.10099175 0.8349982
0002d0 a5 cc 21 bf b4 b6 ba 3f d9 0b 2b 3e 6d 0b ab 3e
       -0.6320289 1.4587007 0.16703738 0.33407155
0002e0 a5 cf 78 3e 44 cc 47 3f ce d4 74 be de d1 23 be
       0.2429796 0.7804606 -0.23909304 -0.15998027
0002f0 a7 9a 9d be 09 81 d0 3e 3b b8 18 3e 17 83 d2 3e
       -0.30782053 0.40723446 0.14914028 0.4111564
000300 69 3c 6e 3f b0 03 0a be 91 5e 82 be 7f 5e 9f be
       0.9306093 -0.13477969 -0.25462773 -0.31126782
000310 f2 7b 64 3f 62 e8 1a 3f 50 6e da be bc 33 52 be
       0.89251626 0.6051084 -0.42662287 -0.20527548
000320 f2 d7 1e be cf fd ca be a0 d3 8d be a8 21 87 3f
       -0.15512064 -0.39646766 -0.2770052 1.0557146
000330 3d ad 35 3f aa 98 b3 3b 4d f6 08 bf 2e 04 92 be
       0.70967466 0.0054808455 -0.53500825 -0.28518814
000340 1a de 3a 3c 10 59 0e 3b ff f6 13 3f 9c 25 e2 3c
       0.011405492 0.0021720566 0.5779876 0.027605824
000350 ca eb 56 be b5 1e 40 3f 6a a8 9e 3e ba 49 37 3d
       -0.20988384 0.75046855 0.30987865 0.044748046
000360 19 be dd 3e e9 01 06 3f 9f df 6d be bc 69 ab 3e
       0.43309096 0.52346665 -0.23229836 0.33479106
000370 22 d1 84 be d5 11 a5 3d 0f 5b 05 bf 80 e3 2d 3f
       -0.25940806 0.08060042 -0.5209207 0.6792526
000380 b2 66 da 3e 20 e7 a2 3e b8 af a7 be 56 e1 06 3c
       0.42656475 0.3181696 -0.3275125 0.008232435
000390 f8 00 4b 3f 30 d6 2e 3f e9 da 0b 3e 82 8a 98 be
       0.79298353 0.68295574 0.13657726 -0.29793173
0003a0 0e db 3a 3f 5f 2a ab 3e 68 d1 80 bc b1 67 63 be
       0.729905 0.33430764 -0.015724853 -0.22207524
0003b0 25 2f e2 3e 05 23 0f 3e 24 92 1d be 6b 1d ef 3e
       0.44176593 0.13978203 -0.1538778 0.46702132
0003c0 6a 85 6d 3f 01 0c 13 bf 5b 42 ca be 72 27 39 3f
       0.927817 -0.5744019 -0.3950375 0.72325814
0003d0 19 9b 8f 3e 7d 15 5b 3f 7f 07 aa 3e 52 0c 4d be
       0.28048018 0.85579664 0.33208844 -0.20024231
0003e0 66 c4 ef 3e 2b 20 ac bd 8a aa bb 3d 2f d8 07 3f
       0.46829528 -0.08404573 0.09163387 0.53064245
0003f0 ce 89 4b 3e 0b c1 99 bd de a5 ac 3c 9e 8d 8f be
       0.19876787 -0.07507523 0.021075185 -0.28037733

wp f4 [14, 512]
000000 a8 a0 3e bd ea cf 4b bf a3 b7 1f 3d 5a 39 11 3f
       -0.046539932 -0.79614127 0.03899349 0.56728137
000010 c4 52 94 3c a4 88 a1 bd 7e 3c bd 3e 45 fc 01 bf
       0.018105872 -0.0788739 0.36960214 -0.5077556
000020 e6 c8 4f 3f ec 60 05 bf 53 11 9c 3f 7b c7 d6 3e
       0.8116592 -0.52101016 1.2192787 0.41949067
000030 01 72 e9 3e d2 a1 43 bc 45 21 af 3f 49 b6 06 3e
       0.4559479 -0.011940436 1.3682028 0.13155474
000040 3b ce f3 3e 24 86 06 be a7 b4 ff 3e 0c 54 bf 3e
       0.4761828 -0.13137108 0.49942514 0.3736881
000050 5c 6e f6 3e af be b1 3e c7 b6 10 3f d4 d5 45 3f
       0.48131073 0.34715793 0.56528896 0.772794
000060 c2 9b 96 3f 19 7e 1d 3e 08 97 a6 3e 04 0c 44 3f
       1.1766284 0.15380134 0.32537103 0.76580834
000070 aa 4e e7 3c 2b 55 59 bf 2b d1 5e 3e 6d 50 09 3e
       0.028235752 -0.8489558 0.21759479 0.13409586
000080 e3 90 6a 3f c4 84 43 3f 1c 92 36 3f bd b8 c6 3a
       0.9162733 0.7637446 0.71316695 0.0015161257
000090 6e 96 a9 bc 26 16 8e 3f 15 4c b1 be b4 d9 91 bf
       -0.020701613 1.1100509 -0.34628358 -1.1394563
0000a0 9d 11 28 bf 6b d1 b5 bd 98 21 35 3f f0 fa 6e 3d
       -0.65651876 -0.08877834 0.70754385 0.05834478
0000b0 bc 81 ac 3c fc ca b3 3c 80 3e 33 3f ff 2d 96 bc
       0.021057956 0.021947376 0.7001724 -0.01833248
0000c0 e3 10 bb 3e 57 4d cc 3e 9f e5 50 3f 47 b4 98 be
       0.3653632 0.39902756 0.81600374 -0.2982504
0000d0 48 36 01 be 49 1e 98 3f bb 32 9d 3b ff c8 20 3f
       -0.12618363 1.1884242 0.0047973073 0.62806696
0000e0 0d 5e 5a bf e1 86 64 bf 89 6b 06 3f d3 cc c5 3e
       -0.8529976 -0.8926831 0.52507836 0.3863283
0000f0 a1 dc 01 bf 23 8f 7d bc 6b 20 8a 3d 4c d9 84 3e
       -0.5072728 -0.015476021 0.067444645 0.25947034
000100 44 64 53 3e 0c e9 ed 3e 4d 90 da 3e 24 48 be 3e
       0.20643717 0.46466863 0.42688218 0.37164414
000110 36 cf 4c be ac c2 8c 3f 06 b0 cf bd d1 b9 fe bd
       -0.2000092 1.0996909 -0.10140996 -0.124377854
000120 54 15 7e 3e b0 ef 8b 3e 02 bc ce bd 46 7f c9 3e
       0.24812824 0.27331305 -0.100944534 0.39354914
000130 d3 5b 0e bf aa 33 54 3f 14 f2 d0 3d b9 fd 9a 3f
       -0.5560886 0.82891333 0.10202423 1.210868
000140 57 17 86 3f b6 ca 0a 3f 5b 9b 03 3f 68 23 1e 3e
       1.0475873 0.5421556 0.5140893 0.15443194
000150 5c f1 05 3f 27 4b 04 3d 67 60 35 be f3 b6 6a 3f
       0.5232141 0.032298233 -0.17712556 0.9168541
000160 74 a0 13 be ea 0f 7c be 62 99 80 3e 0b 46 40 bf
       -0.14416677 -0.24615446 0.25117022 -0.7510688
000170 9b bd e2 3e ef 26 8f bf b7 6a 63 bf 23 8e 6e 3e
       0.44285282 -1.1183757 -0.8883471 0.23296408
000180 08 54 aa 3d e7 bd 69 3e 51 04 5a 3e 82 33 df 3e
       0.08316809 0.22826348 0.21290709 0.43593985
000190 fd c3 8a 3e 39 5b ef 3e 7d 9e 83 3e 3f 82 6f 3f
       0.27102652 0.46749285 0.25706854 0.93558115
0001a0 dc 1f 06 3e 95 9e 21 be 4c 9b 85 be 0a 5a 52 3f
       0.13098091 -0.1578315 -0.26095045 0.8216864
0001b0 e8 19 6c 3d 40 67 a6 3f 2e 17 a5 be 9a d5 51 bf
       0.057641894 1.3000259 -0.32244247 -0.81966555
0001c0 79 c1 52 bf 56 d3 80 3f bc 64 a6 3d 65 b7 69 be
       -0.82326466 1.0064495 0.08124682 -0.22823866
0001d0 75 aa 82 3e d7 90 bd 3e 76 49 08 3f 13 61 24 be
       0.25520673 0.37024567 0.5323709 -0.16052656
0001e0 df ce 37 be d4 4c 6f 3f a3 d5 f0 bb 43 25 09 bf
       -0.17950009 0.93476605 -0.007349686 -0.5357248
0001f0 6b 5f 76 3e 38 9b 11 3e 70 b1 34 bf 20 d9 af be
       0.24059837 0.14219368 -0.7058325 -0.3434534
000200 bd 4a 43 3f 63 12 a2 3e f3 51 40 3e 59 d2 11 be
       0.76285917 0.31654653 0.18781261 -0.14240398
000210 d4 70 88 be cc e9 30 3f 01 ed c6 3d f5 1b 4c 3f
       -0.2664858 0.69106746 0.09713174 0.7973016
000220 32 34 53 3d c9 81 87 3f 52 02 34 be dd 00 ad 3e
       0.05156345 1.0586482 -0.1757901 0.3378972
000230 0d 17 ed 3e a0 00 e9 3e 70 93 33 3e 59 7f b0 3e
       0.4630665 0.4550829 0.17536712 0.3447216
000240 e5 37 5a bf 3b 38 27 3d f9 91 7e 3e 92 2d 4b 3d
       -0.8524154 0.04082511 0.24860372 0.049604006
000250 e5 53 2a be 77 74 63 3f a8 63 3e 3f de b3 d0 3e
       -0.16633566 0.88849586 0.74370813 0.40762228
000260 74 c5 09 3e 24 b8 58 3f de b9 12 bf 0c dc 2c 3f
       0.13454229 0.84655976 -0.5731486 0.67523265
000270 49 09 3c 3e ea a5 56 be 22 95 9c 3e d8 d0 ae bd
       0.18362917 -0.20961729 0.3058253 -0.085359275
000280 2b af 54 3d fc 78 0d 3e f7 31 6c 3f f1 ed 5a 3f
       0.051924866 0.13815683 0.9226374 0.8551932
000290 f2 94 00 3f 1e f4 ae 3e e9 f8 a0 be a1 39 c9 be
       0.5022727 0.34170622 -0.31439903 -0.3930178
0002a0 49 11 65 bf 46 20 3f bc 6a 5c 8f 3e fa 11 51 3d
       -0.894795 -0.011665409 0.28000194 0.051042534
0002b0 a1 ee b4 3e 8a 1d 89 3d 7b 97 3a be 74 72 db 3c
       0.3533831 0.06695087 -0.18221848 0.026787974
0002c0 3e 9c 1e 3f 03 9f 5b 3f b5 fd d7 3d 74 46 47 3f
       0.61957157 0.8578951 0.10546438 0.7784188
0002d0 6a 0b af bf e5 68 94 3f 68 82 28 3e 99 86 ea 3e
       -1.3675358 1.1594511 0.16455996 0.45805815
0002e0 6a 16 8e 3e 8b 2b 77 3f 41 0e 9a 3e ec e5 af be
       0.27751476 0.96550816 0.30089 -0.34355104
0002f0 0a e0 e0 3d 5b 6c a1 3e 9f 7b 14 3f 12 79 8c 3e
       0.10980232 0.3152798 0.5800113 0.2743612
000300 02 21 37 3f a7 8e d1 be 02 d9 80 be 76 6d 96 be
       0.7153474 -0.40929148 -0.25165564 -0.29380387
000310 c9 a1 78 3f db e3 13 3f f4 83 04 bf 9a da 06 bf
       0.97121865 0.57769555 -0.51763844 -0.5267731
000320 78 20 2a 3d 90 c4 14 bf ce 4c 27 bf 9f 5d fd 3e
       0.04153487 -0.5811243 -0.6535157 0.4948549
000330 39 94 13 3f ce 4f e0 3e f5 1a c7 be 0e 14 bb be
       0.57648045 0.43810886 -0.38887754 -0.36538738
000340 5d 30 83 3e f3 f9 bb 3c 71 b9 32 3f 57 28 84 be
       0.25622836 0.022946334 0.6981421 -0.25812027
000350 3b 30 fb 3d f5 94 62 3f b8 94 69 3e 5b dd a8 3d
       0.122650586 0.8850854 0.22810638 0.08245345
000360 6b 67 40 3f 65 c9 93 bb 83 fd a2 be 06 1b ac bd
       0.75157803 -0.004510092 -0.3183404 -0.08403592
000370 2a bc 0f be a8 d9 93 3d ec 40 25 bf f5 c6 83 3f
       -0.14036623 0.07219249 -0.6455219 1.0295092
000380 d8 2d 3b 3f 43 06 24 3f f1 86 00 bf 87 0e 98 3e
       0.73116827 0.64072055 -0.50205904 0.29698583
000390 e0 ba 73 3f 6e 22 8a 3f df 0e 3f 3e 61 25 04 bf
       0.95207024 1.0791757 0.18658017 -0.51619536
0003a0 8e 80 4f bf 03 bc d4 3d ff c5 b3 be 0e b4 8c 3e
       -0.81055534 0.10387423 -0.35111997 0.2748112
0003b0 14 48 07 3f ea b5 95 be 82 4e eb be 37 af 0a 3f
       0.5284436 -0.29240352 -0.45958334 0.54173607
0003c0 d7 02 71 3f 29 9c c9 bd 24 8b 67 3e 21 c3 f3 3e
       0.9414496 -0.09844238 0.22611672 0.4760981
0003d0 90 79 b5 3e b7 9c 14 3f 9a fb 61 3f ad 2b 44 bd
       0.35444307 0.5805163 0.8827454 -0.047893215
0003e0 7b e5 60 3e 27 77 e5 bc 43 53 ec 3d 21 a3 5a 3e
       0.2196254 -0.028010918 0.115393184 0.21351291
0003f0 3c a8 9c 3e 31 60 f0 be e3 ad 61 3e 62 30 1a bf
       0.30597103 -0.46948388 0.22038989 -0.60230076

noise f4 [1, 1, 4, 4]
000000 9d 2b 14 3f d9 29 b7 3f 6a c4 d7 3e 1c 48 7a 3d
       0.5787905 1.4309646 0.4214204 0.061103925
000010 1b 64 da bc 64 9b cc 3f 43 6f 5e bf 4a 69 3d 3e
       -0.026659062 1.5984921 -0.8688852 0.18497196
000020 fd 77 a2 bf 55 f1 60 bf 26 d1 cc be df fb 02 40
       -1.2692868 -0.87868243 -0.40003318 2.046623
000030 d9 88 81 bf ba be 5d bf 20 36 97 be dd 8e 34 bf
       -1.0119888 -0.8661915 -0.29533482 -0.7053049

noise f4 [1, 1, 8, 8]
000000 55 fd 81 be eb 91 7f 3f 77 98 d4 3f 58 0d 6f be
       -0.2538859 0.9983203 1.6609029 -0.23344934
000010 32 5b 11 3f cc d0 51 bf d0 a5 ca bf aa 1a a0 bf
       0.5677978 -0.81959224 -1.5831852 -1.2508137
000020 22 2d cf bf 0d 54 21 bf 3a 02 1c 3f b8 73 5f bf
       -1.6185648 -0.63018876 0.609409 -0.8728595
000030 ad 94 85 bf b0 e0 f2 bf d8 1b 80 3d dc 75 fb 3e
       -1.0435997 -1.8974819 0.06255311 0.49113357
000040 3e 7a 3f bf f0 d2 bb bf c5 d3 e7 3d 80 28 f7 3c
       -0.747959 -1.4673748 0.11319689 0.03017068
000050 a0 ba c7 3e b0 dc 8a bf db 96 a0 3e 78 42 05 40
       0.3900957 -1.0848598 0.31365094 2.082182
000060 f3 5b ba 3f a4 27 a6 3d 10 46 e9 bf b1 7e 00 bf
       1.4559311 0.081130296 -1.8224506 -0.50193316
000070 d1 33 83 3f 01 86 27 3f 5a 83 4f 3f 84 7d a7 bf
       1.0250188 0.6543885 0.810598 -1.3085179
000080 0b 8b 97 bf 70 36 30 3f 6c 06 0d bf e6 74 98 3e
       -1.1839308 0.68833065 -0.55087924 0.29776686
000090 cf ac ea be 83 86 74 3f 47 5d c9 3f 16 5e 36 3e
       -0.45834967 0.9551775 1.5731591 0.17809328
0000a0 d8 6a 6e bf 0d a2 02 3f 84 df 21 bf 74 ed 82 3e
       -0.9313178 0.5102852 -0.6323168 0.25571787
0000b0 fb c5 a1 3f b6 20 04 bf 10 22 29 3e 79 58 9b 3f
       1.2638544 -0.5161241 0.165169 1.2136375
0000c0 70 a0 d0 bf ac 38 0a be 9e a1 42 3e 9a 0e 1c 3f
       -1.6298962 -0.13498181 0.19006965 0.6095978
0000d0 a4 c9 2c 3f c5 1b 0f bf 2b 45 e5 3e 9b ca 9f 3f
       0.6749518 -0.5590175 0.44779333 1.2483705
0000e0 9a b4 b8 3f c3 c7 65 3f 3e 21 7a be 14 3d c4 bd
       1.4430115 0.8975794 -0.24426743 -0.09581962
0000f0 a8 6a fb bf 68 2f 2b 3f 0e 17 e1 3f 20 67 b2 be
       -1.9641924 0.6686921 1.7585161 -0.34844303

noise f4 [1, 1, 8, 8]
000000 32 d0 8b 3f ca fe 56 3e b5 7b c0 3e f0 d9 64 be
       1.0922911 0.20995632 0.3759438 -0.22348762
000010 7f 0d 1b 3f 13 bb d6 3f cd e9 ae 3f 9a a3 f0 3e
       0.6056747 1.677584 1.36651 0.46999818
000020 f4 6d ca 3e 3a f9 82 bf 9d 31 74 bf b8 6c c9 bf
       0.39537013 -1.0232308 -0.95388204 -1.5736303
000030 63 1d d3 bf 3a 75 cb 3d b7 85 92 bf 9c 79 d7 bd
       -1.6493343 0.099344686 -1.1447057 -0.10521242
000040 86 6b 95 3f ec 27 62 bf 49 4e b4 be bc 98 0b 3f
       1.1673439 -0.88342166 -0.35215977 0.5452993
000050 38 f4 f8 3e ed 86 ac be 9d 9f 54 bc a4 64 6e bf
       0.48623824 -0.3369669 -0.012977508 -0.93122315
000060 ee 37 c2 3f de da 80 3f 1c 56 52 bf 30 2b 03 bf
       1.5173318 1.0066793 -0.8216264 -0.51237774
000070 b3 dd 83 bf 71 3a 81 3e 5e d4 1c 40 47 75 e6 bf
       -1.0302032 0.252399 2.4504619 -1.800454
000080 66 b8 e2 be e2 d4 eb bf 70 ff 59 3d 6c 2d e2 be
       -0.4428131 -1.8424342 0.05322212 -0.4417528
000090 75 44 39 bf fc d7 e4 be 5e 80 df 3d b9 05 26 3f
       -0.7237008 -0.44696033 0.10913156 0.6485248
0000a0 10 6b 81 3f 9e ab 83 bf 2a 10 81 bf 49 ab a2 3f
       1.0110798 -1.0286748 -1.0083058 1.2708522
0000b0 da 4d a4 bd 9f a5 e9 3f ca 28 c1 3d 84 bd 8b 3f
       -0.080226615 1.8253669 0.09431608 1.091721
0000c0 ba ca 2b 3f 3b 73 14 3e 08 a8 00 bd 79 f4 c8 bf
       0.6710621 0.14497082 -0.031410247 -1.5699607
0000d0 bd fc 6b bf 2f 46 04 40 c3 70 69 3f db 7c 9f bf
       -0.92182523 2.0667837 0.91187686 -1.2459978
0000e0 4b c4 2d 3f 6b 4e 69 bf 59 85 ab be 55 e8 9a 3f
       0.67877644 -0.9113528 -0.33500174 1.2102152
0000f0 7e fe d8 be aa a1 93 3d 14 9b d2 3e ae 1e 97 bf
       -0.42381662 0.07208569 0.4113394 -1.1806238

noise f4 [1, 1, 16, 16]
000000 8e f1 94 3c ef 05 8a 3f d4 aa 12 3f bb bc 9d be
       0.018181589 1.0783061 0.57291913 -0.30808052
000010 ca 01 b9 be 97 23 15 c0 3d a1 3f bf 1b 98 6e 3f
       -0.36134177 -2.3302972 -0.74855405 0.93200845
000020 ce 93 45 bf eb f9 44 bf 22 cf ef bd f7 4d a1 3f
       -0.7717866 -0.76943845 -0.11709429 1.2601918
000030 2a d7 93 bd 3e af d4 be 2a 7d ab 3e 18 77 a5 bf
       -0.07218774 -0.4153995 0.3349393 -1.292697
000040 fa 17 81 be 94 8c 67 3f 2a 74 c8 bb d7 92 90 bf
       -0.25213605 0.9044888 -0.0061173635 -1.1294812
000050 db d5 38 be 09 e8 48 bf 4d 12 34 3e 41 e8 7f bf
       -0.1805033 -0.7847906 0.17585106 -0.99963766
000060 e6 69 0f 40 af 87 cf bf da b5 4e 3e ef 12 f3 be
       2.2408385 -1.6213282 0.20186558 -0.47475383
000070 d4 03 14 3f bf f7 91 3e 3e a8 80 3f 94 c7 b1 bf
       0.5781834 0.28509328 1.0051343 -1.3889031
000080 8f e1 7e 3f e9 0f 22 bf 48 ad 98 be ba a6 2a 3f
       0.99562925 -0.63305527 -0.29819703 0.66660655
000090 22 bd b6 bf 26 fa 81 b9 51 a7 0e 40 e6 67 3a bf
       -1.4276469 -0.00024791172 2.2289622 -0.72814786
0000a0 bb 9f 4a bf 80 33 e7 3d ba 29 83 bf 33 3e 4c bf
       -0.7914998 0.1128912 -1.0247109 -0.7978241
0000b0 1c 37 78 3f 6c ef df 3f 06 56 4c 3e 59 f2 b1 bf
       0.9695909 1.7494941 0.1995469 -1.3902084
0000c0 85 c9 99 3f 0a 48 d4 3e 38 58 55 3f b8 a3 2a 3f
       1.2014624 0.4146121 0.83337736 0.66656065
0000d0 b7 3f e4 bd f1 a2 bb 3f 10 bf 67 3f 9a 9b 99 bf
       -0.11144965 1.4659101 0.90525913 -1.2000611
0000e0 9f 0a 2e 40 cb f8 9c 3f 77 84 6f bf 63 92 8d bd
       2.7193983 1.2263426 -0.935615 -0.06912687
0000f0 d0 6a b1 bf 46 0b 52 bf 06 7e 2f 3f f2 8a 67 bd
       -1.3860722 -0.8204845 0.6855167 -0.056528993
000100 f6 22 08 be 99 74 8c 3e 65 cf fa 3f 68 bd 1e bf
       -0.13294587 0.27432707 1.9594542 -0.6200776
000110 96 f5 2d 3f 3a 02 9d 3f f2 84 9b be 0a 30 a0 3f
       0.6795286 1.2266304 -0.30374867 1.251466
000120 6b 20 07 3f 90 bf 81 3f 4a 34 02 3c 1b ff 8b be
       0.5278384 1.0136585 0.007947037 -0.27343068
000130 1a 9a 43 3f 11 c4 61 3f ad 9e e0 3e 17 91 1a 3f
       0.76407015 0.881898 0.4387106 0.6037764
000140 3a 53 bf 3e 36 34 ca 3f 08 77 73 bf 4a 6a 4e be
       0.37368184 1.5797184 -0.951035 -0.20157734
000150 4d d8 f5 be 97 da 8f 3f 93 f9 48 3f 88 8a 85 3f
       -0.48016587 1.1238583 0.7850582 1.0432901
000160 ff 6f bf bf f0 bd 72 3e 03 ee de bf a1 1b 91 3f
       -1.4956053 0.23705268 -1.7416385 1.1336557
000170 6a 5e 8e bf 51 f7 dc 3d b4 24 b1 bf ae a1 45 3e
       -1.1122563 0.10789359 -1.3839326 0.19299957
000180 a7 b3 57 bf a5 2e 6d be 58 76 38 bf 84 b5 74 3f
       -0.842585 -0.23162325 -0.7205558 0.9558947
000190 7c 06 1d 3f 7f 46 7c 3f 40 5d eb 3d b5 8f ff 3e
       0.6133802 0.9854507 0.114923954 0.49914327
0001a0 ea f7 4b bd af 70 14 bf 2d a1 92 bf 5c 6e 28 3f
       -0.049796976 -0.5798444 -1.1455437 0.65793395
0001b0 db d5 b6 3f 94 8e 4e 3d 1c cd 18 40 84 48 81 bd
       1.4284014 0.05042894 2.387519 -0.063126594
0001c0 98 ba 14 3f 0e 1c bb be d4 19 56 bf 6c b6 13 c0
       0.5809722 -0.36544842 -0.8363316 -2.3080091
0001d0 c6 af 5f 3f e3 99 fb be 6d 4a 0c bd e4 76 6d bf
       0.87377584 -0.49140844 -0.034250665 -0.9275954
0001e0 ca 36 0b be e1 20 d8 bd d2 bd 1e 3f da 5e 8f be
       -0.13595119 -0.10553146 0.6200839 -0.28002053
0001f0 cf b8 50 bf 69 76 3d 3f 15 ee 8c bf 06 d5 14 3f
       -0.81531996 0.74008805 -1.1010157 0.5813755
000200 61 03 9b bf 1b 2e b2 be 26 43 16 3f 51 e6 c2 be
       -1.2110406 -0.348008 0.5869621 -0.38066342
000210 16 4b 9f 3d 1b c6 91 bf 3f 76 f8 bd 8d 05 8f 3f
       0.077779934 -1.1388582 -0.12131929 1.1173569
000220 f1 be 02 40 94 48 eb 3d ca 86 a7 3f 2a aa f8 bf
       2.0429041 0.114884526 1.3088009 -1.942693
000230 e4 67 af 3f 71 ee 3f bf 68 79 6c bf 19 5f 6f bf
       1.370358 -0.7497321 -0.9237275 -0.9350448
000240 ba 93 7a bf 3c 94 44 be f3 44 48 bf f3 9d bf bd
       -0.9788166 -0.19197172 -0.7823021 -0.09356298
000250 0e 51 84 3e 83 b9 c4 bf 63 61 d2 bf 2f ba 2c 3e
       0.2584309 -1.5369114 -1.643597 0.16867898
000260 dc b5 e3 3c cb 4e 36 be 3e f2 c9 3d 1f b9 93 bf
       0.027796678 -0.17803495 0.09860657 -1.154087
000270 fd c2 19 bf de 99 ee 3e 35 4e bd 3f ac 0e 0b 3f
       -0.60063154 0.46601766 1.4789492 0.5431926
000280 02 6e 19 bf 68 8b 45 bf 02 63 ab bf a8 92 a9 3f
       -0.59933484 -0.7716584 -1.338959 1.3247881
000290 3d 62 10 bf d4 27 bf bf fe 45 a7 3e 90 1c 5c be
       -0.563999 -1.493403 0.32670587 -0.2149527
0002a0 f6 99 2f 3f 49 bc 03 c0 2b 90 e2 3f f3 36 11 40
       0.685943 -2.058367 1.7700247 2.2689788
0002b0 4c da 4a bd c9 e4 14 bf 1c de 38 3f a9 5e e8 bf
       -0.04952459 -0.581616 0.7221391 -1.8153888
0002c0 85 60 82 3f 1f e0 f3 be 05 57 a5 3f 35 a2 13 3f
       1.0185705 -0.47631928 1.2917181 0.57669383
0002d0 89 e4 94 3f 6a 3a 12 bf d2 17 de bf ff 47 0c 3f
       1.1632243 -0.5712038 -1.7351019 0.5479736
0002e0 ce 12 27 3f fc 42 56 bf 03 b9 d2 3f 6d 21 e5 be
       0.6526307 -0.8369596 1.6462711 -0.44752064
0002f0 b6 b1 5b 3f 63 98 71 bf 89 6f d2 be 7e c3 54 3e
       0.8581804 -0.9437315 -0.4110072 0.207777
000300 c7 ac a9 bf 50 e1 37 bf 17 ca ec be b6 32 af 3f
       -1.3255852 -0.71828175 -0.46247932 1.3687351
000310 11 9c 16 3e 88 0b ad 3f d2 b9 ff 3f 31 3f fe 3e
       0.14707972 1.3519144 1.9978583 0.49657586
000320 c9 56 cc 3e 03 90 fe 3e e7 5e a8 bf 3c 94 33 bf
       0.39909962 0.49719247 -1.3153962 -0.7014806
000330 dc 7a ce bf 1f 9a 55 bf 56 1f f0 3d 68 ab 93 3e
       -1.6131244 -0.83438295 0.11724727 0.2884171
000340 c1 99 e0 3e 55 06 98 be 12 c2 f4 bd 84 cf 01 3f
       0.43867305 -0.2969233 -0.119510785 0.5070727
000350 f3 67 a2 3d b9 04 f4 3e 63 60 e4 3e 10 f4 18 c0
       0.07929983 0.47659853 0.44604787 -2.3898964
000360 10 76 0b c0 dc b2 a5 bf 97 14 8a 3e fe 59 22 3f
       -2.179081 -1.2945209 0.26968834 0.6341857
000370 48 9d 05 3e 58 16 0a bf 27 de da 3f fd 89 a0 be
       0.1304828 -0.53940344 1.7099046 -0.31355277
000380 d6 25 7e 3f 04 31 9a bf 01 13 c4 3f 00 0b 21 bf
       0.99276483 -1.2046208 1.53183 -0.6290741
000390 dd 51 44 be 68 4d b1 3f 26 e7 d2 3f 9a b1 82 be
       -0.19171853 1.3851748 1.6476791 -0.25526124
0003a0 d2 ac 84 bf 3b 1a 2f 3f 1b 74 72 3f bf a6 b5 bf
       -1.036524 0.683994 0.9470841 -1.4191512
0003b0 ca b1 a5 3e a6 85 e0 bf 8b f8 d9 bf 7a bb a5 bf
       0.32362205 -1.7540786 -1.7028974 -1.2947838
0003c0 ac 05 66 be c0 be 14 bf 91 dc 3d 3f 8b 16 18 40
       -0.22463101 -0.5810356 0.7416468 2.376376
0003d0 4f 02 22 be b2 ec 72 be 16 1c aa be ae e7 fe 3d
       -0.15821193 -0.23723105 -0.33224553 0.12446533
0003e0 c4 cf 53 be 94 b8 a0 3f 22 d0 b8 3e 9b 76 3b 3e
       -0.20684725 1.2556329 0.36096293 0.18306963
0003f0 dc 2a 13 3f 2e f6 24 bf f0 b3 cd bf 6a 5c 9b be
       0.57487273 -0.6443814 -1.6070538 -0.30343944

noise f4 [1, 1, 16, 16]
000000 89 72 0e bf 5e 7d 85 3f 7f c1 3d 3f a4 9b 3a 3e
       -0.55643517 1.0428884 0.74123377 0.18223435
000010 3f d6 95 3f 70 57 0c bc 74 87 34 bd 08 5b 9a be
       1.1706008 -0.008565769 -0.04407449 -0.30147576
000020 fb 16 32 3f 07 85 03 40 a2 3f b6 3f 6e 46 c8 3e
       0.69566315 2.0549943 1.4238169 0.39116234
000030 54 97 54 be 6c d2 19 40 84 2f b8 3e d1 1d 54 bf
       -0.20760852 2.4034681 0.35973752 -0.82857996
000040 b1 50 5b 3f 0e 2c 1f 3e fb d2 44 bf 6b bc de bf
       0.8567 0.1554415 -0.7688443 -1.7401251
000050 df cd cc 3f fe 14 ac 3e 06 f2 7b bf 2b 8c 50 bf
       1.6000327 0.33609766 -0.98416173 -0.8146388
000060 e1 eb 2b bf d0 20 22 bf b0 45 1e 3e 8c 25 ab bf
       -0.671568 -0.6333132 0.15456271 -1.3370833
000070 c1 bc 9b 3f 3f e5 5c bf 0c e0 c4 be 7a c4 78 3f
       1.2166978 -0.862873 -0.38452184 0.971748
000080 8f d7 da 3f d8 35 60 3e ac f1 43 be 25 fc 2d 3f
       1.7097033 0.2189554 -0.19135159 0.6796287
000090 f0 fd 30 be 20 e7 20 3e 97 6c a6 bf 33 4c 57 3f
       -0.1728437 0.15713167 -1.3001889 0.84100646
0000a0 64 8e 3e be eb 8f 23 3f 22 3d 65 3f a4 01 9b be
       -0.18609005 0.63891476 0.89546406 -0.3027469
0000b0 ce 20 19 3d 92 42 d0 bf 53 df ee 3f 26 1a f3 3e
       0.0373848 -1.6270316 1.8661903 0.47480887
0000c0 ac c1 92 bf d8 cf 1b 3e 9a 45 93 bf 11 d0 8a bf
       -1.1465354 0.15216005 -1.1505616 -1.0844747
0000d0 88 64 17 3f 70 28 86 3f 02 41 0e 3f 5f 45 fb 3d
       0.59137774 1.048109 0.55567944 0.12269091
0000e0 b5 e4 70 3f 2a a1 bf be d3 41 3e bf 4f 28 a0 bf
       0.9409898 -0.37427646 -0.7431919 -1.2512301
0000f0 33 8a 3a bf 1a 7d 9c bf 46 b3 33 be 06 c2 7d bf
       -0.72867125 -1.2225678 -0.17548856 -0.9912418
000100 b2 c6 26 bd 44 aa 6f be 59 cc 30 3f ee 11 12 3f
       -0.040716834 -0.23404795 0.6906181 0.5705861
000110 4d 6d 20 3f 3d b6 4e bf e4 b6 2a 3f 68 83 43 3f
       0.6266678 -0.80746824 0.6668532 0.76372385
000120 95 41 65 3f 79 c0 27 c0 15 85 e5 3f c6 e1 8f 3f
       0.89553195 -2.6211226 1.7931238 1.1240776
000130 46 0b 63 be 0f 2c 2d bf fe c8 58 3f 7c a3 4f 3f
       -0.22172269 -0.67645353 0.8468169 0.8110883
000140 63 20 0b 3f 76 40 8d 3f 4b 80 ec 3f 68 d0 d7 be
       0.54346293 1.1035297 1.8476652 -0.4215119
000150 2e 32 a0 bf 60 95 8b 3e 73 4a 5f 3f fa b1 a2 3e
       -1.2515314 0.27262402 0.87222975 0.3177641
000160 73 61 09 40 4a e1 25 3f 15 e5 8a 3d 65 7c ed bf
       2.1465728 0.6479689 0.06781975 -1.8553587
000170 87 84 27 bf 0c 7e c2 3f 3b 2a 9b 3f 10 3e 4f be
       -0.65436596 1.5194716 1.2122263 -0.20238519
000180 e0 9b 04 c0 f5 a1 9b 3f 06 60 78 be 29 62 fc 3d
       -2.0720139 1.21588 -0.2425538 0.1232341
000190 6a fb a0 3e 0c a5 46 bf c4 6b 0b 3f 7c 12 d1 3e
       0.31441814 -0.7759559 0.5446131 0.40834415
0001a0 ea 99 a5 be e2 94 03 3f 2a 5e db bf be b6 d4 3f
       -0.3234399 0.5139905 -1.7138112 1.6618268
0001b0 84 b0 9d 3f 72 ee 9c be c1 33 91 3e 97 35 f0 bf
       1.2319493 -0.3065067 0.28359798 -1.8766354
0001c0 f4 77 e7 3e ef f1 ad 3f 12 20 89 3f 68 eb 05 be
       0.45208704 1.3589457 1.0712912 -0.13078082
0001d0 95 f1 24 c0 b1 22 4a 3f 42 38 c5 3e 3b 5b 89 bf
       -2.577245 0.78959185 0.38519484 -1.0730966
0001e0 f2 92 80 3d e6 9d 89 be 78 60 ad be f7 08 ec 3f
       0.062780276 -0.2687828 -0.33862662 1.8440236
0001f0 70 16 03 3f d2 a5 91 be c8 2c cd 3e 70 fb 16 3e
       0.5120611 -0.28446823 0.40073228 0.14744353
000200 fc 54 fd 3e 72 69 47 bf 7a ed 4e 3f 53 cc 51 3f
       0.494789 -0.7789527 0.8083111 0.819524
000210 99 f0 05 c0 a2 30 ac be 7c 66 1e 3e 90 e7 6b bf
       -2.09281 -0.33630854 0.15468782 -0.9215021
000220 37 e7 a6 3f 43 4a fd bf 1b 52 83 bf 2e bc 48 bf
       1.3039311 -1.9788288 -1.0259432 -0.7841214
000230 d0 19 5b 3f 34 a8 22 bf e2 a0 ea bc 64 7a 1a 3f
       0.8558626 -0.6353791 -0.028641168 0.60343003
000240 7e a0 f9 bf b4 f4 2f 3e d0 fb 65 3e 1d 97 a5 bf
       -1.9502103 0.1718319 0.2245934 -1.2936741
000250 84 4e 28 bf 18 e8 09 c0 81 8b 90 bf 48 76 b8 3e
       -0.65744805 -2.1547909 -1.1292573 0.3602774
000260 a0 80 6a be 70 e9 56 bf d5 8b 96 bf 24 e7 64 be
       -0.22900629 -0.8394995 -1.1761423 -0.22353798
000270 f7 73 2a 3f 86 7b 89 be 8e 96 cd be a5 d6 f9 bd
       0.665832 -0.26852053 -0.40153927 -0.12199143
000280 1e 03 57 be 90 83 5e be d7 09 6d bf 4b a0 96 3f
       -0.20997283 -0.21729875 -0.9259314 1.1767668
000290 74 02 17 be e8 3f 71 3e 02 91 01 3f 12 42 fa 3e
       -0.1474703 0.23559535 0.5061189 0.48878533
0002a0 1f ab 0a 3f 6c 58 d2 3e c7 70 81 3f 95 75 99 3d
       0.5416736 0.41083086 1.0112542 0.0749313
0002b0 72 d6 98 3e 1f 31 63 3f 88 20 b5 bd ba e9 41 bf
       0.2985111 0.8874683 -0.088440955 -0.75747263
0002c0 de fc 2e c0 3f 51 d6 3d 09 fc 8e bf 89 3d 91 bf
       -2.7341838 0.10464715 -1.1170665 -1.1346904
0002d0 97 be 28 bf f2 c6 c9 3e b7 9d 47 3f f3 f7 bb bf
       -0.6591582 0.39409596 0.7797503 -1.4685043
0002e0 44 e5 1d 3f 88 3d a0 bf 58 09 74 3e 76 93 8a 3e
       0.61677957 -1.2518778 0.2383169 0.2706563
0002f0 67 80 89 3f 20 ee 36 c0 88 b0 a5 be 79 37 84 bf
       1.074231 -2.858284 -0.32361245 -1.0329429
000300 98 e4 28 3f 9c c2 0a 40 31 5d 40 bf 0a 31 59 be
       0.65973806 2.168128 -0.751422 -0.21210113
000310 d1 84 14 bf d4 7a 92 3e 73 3e 71 bf 53 27 96 3f
       -0.5801516 0.28609335 -0.94235915 1.1730751
000320 94 41 e3 bf 37 4f 08 40 c8 3f c0 bf 2c 5c f0 be
       -1.7754388 2.129835 -1.5019464 -0.46945322
000330 3d 67 91 3f fe 96 68 3f cd b8 9c bf 75 f1 8c bf
       1.1359631 0.90855396 -1.2243897 -1.1011187
000340 5e 4e ed 3e 18 38 00 3e b4 9e 91 be 80 27 9c 3f
       0.46348852 0.12521398 -0.28441393 1.2199554
000350 75 ac cf bf 2c e9 25 3e e9 60 93 bf 15 6a 3a 3f
       -1.6224505 0.1620223 -1.151395 0.7281812
000360 f6 5d a2 be 19 37 17 40 0f e3 ae bf 3e d4 21 bf
       -0.31712312 2.362738 -1.3663043 -0.6321448
000370 00 96 9b bf f0 e2 19 3f 94 08 1e be e2 09 01 bf
       -1.2155151 0.60111904 -0.1543296 -0.50405705
000380 d8 f9 13 3f 9e 3d 68 3e df 19 aa 3f e6 8e 21 3f
       0.57803106 0.22679755 1.3289145 0.6310867
000390 d1 81 a4 3f 18 ae f8 be fd 87 f3 3f 9a 4d e5 3f
       1.2852117 -0.48570323 1.9025875 1.7914307
0003a0 c5 7e 5f 3f 04 eb d3 3e f1 6a c9 bf e6 97 d2 3d
       0.8730281 0.4139024 -1.5735761 0.102828786
0003b0 01 45 bc bf bc 2a 1c be 54 ad f9 be 2e 7b 03 be
       -1.4708558 -0.15250677 -0.4876505 -0.12839958
0003c0 fa ce 27 bf d7 7f ed 3c 80 0b c8 be ed c2 89 3f
       -0.65550196 0.028991623 -0.39071274 1.0762612
0003d0 5c 07 63 3f 1a bb a2 3f e2 b6 14 bf 91 ae 83 3d
       0.88683105 1.2713349 -0.5809156 0.0642978
0003e0 b0 d7 1d bf 2f f6 4f bf 53 69 03 bf 49 9a ab bd
       -0.6165724 -0.8123502 -0.51332587 -0.08379037
0003f0 9c 9f e8 3e f4 65 bb 3e f4 e0 d1 be 25 fa e2 be
       0.45434272 0.36601222 -0.40991938 -0.4433147

noise f4 [1, 1, 32, 32]
000000 08 27 34 bf 23 ce 8d 3e 73 26 07 3f b5 b8 9e bf
       -0.70372057 0.27696332 0.52793044 -1.2400118
000010 14 23 8f bf c3 99 ae bf b2 84 b3 bf 8f 7f 2f c0
       -1.118258 -1.3640674 -1.402487 -2.7421606
000020 f9 07 c6 3d 3e e7 09 be b4 06 a3 3f 8c 82 9e be
       0.096694894 -0.13467118 1.2736421 -0.30958974
000030 10 c2 a0 bf b0 e3 76 3f 2e 7e b6 3f d8 03 d6 be
       -1.2559223 0.96441174 1.4257257 -0.41799808
000040 7f 39 b3 bf 4c cc b9 3f 4b 68 06 3f ba dc 9f 3e
       -1.4001921 1.4515471 0.5250289 0.31223089
000050 10 df 47 bf cd 33 01 bf 84 c1 bf bf d2 a2 1e 3f
       -0.7807474 -0.50469667 -1.4980931 0.61967194
000060 12 e8 c2 3f 64 ef 41 3f 42 c4 3b bf 21 e6 f6 3f
       1.5227072 0.75755906 -0.7334634 1.928898
000070 be 19 53 3f b3 24 d0 be fa 28 d5 bf a5 48 1c 3f
       0.82461154 -0.40653 -1.665313 0.61048347
000080 d4 af 97 be 8e be 82 3f 4a fe 02 bf 62 81 cf 3e
       -0.29626334 1.0214403 -0.51169264 0.405284
000090 65 56 bc 3e 81 9b 84 bd f8 ae ca 3e 0e c1 e4 be
       0.36784664 -0.064749725 0.39586616 -0.4467854
0000a0 80 0f 65 bf 08 22 9e bf d1 6c b7 be 44 e6 df be
       -0.89476776 -1.2354136 -0.35825208 -0.43730366
0000b0 73 90 a6 3f d9 6c 37 3f 2e 86 de 3f 1d 7f 46 bf
       1.3012832 0.71650463 1.7384698 -0.7753771
0000c0 75 a6 cc be 31 bd 88 bf 45 0e 79 bf 85 7f 93 3f
       -0.39970747 -1.0682737 -0.972874 1.1523291
0000d0 87 93 21 c0 13 45 9e be b8 14 25 3e 51 e0 39 3f
       -2.5246294 -0.30912074 0.16121185 0.72607905
0000e0 cd 14 8e 3e 27 00 cb 3f 5d 76 15 3f 11 6d 1b 3f
       0.27750245 1.5859421 0.58383733 0.607133
0000f0 93 b3 18 bf 38 bf 5a 3d 0a 90 c3 3f d2 a2 37 3f
       -0.5964901 0.053405017 1.5278332 0.7173282
000100 4b c1 89 bf 40 18 e1 bf e2 50 2d bf 96 4c 35 3f
       -1.0762113 -1.7585526 -0.6770154 0.70819986
000110 61 bb bd 3f 3d 04 42 3e 2f 36 c8 bd 8a aa 4d 3f
       1.4822809 0.1894693 -0.0977596 0.80338347
000120 74 16 cf bf ec cc 04 3e 7d e6 03 40 e8 78 49 bf
       -1.6178727 0.12968796 2.060943 -0.78700113
000130 8b 68 be be f4 03 41 bf 52 04 68 3f a9 d0 8d bf
       -0.37189135 -0.75396657 0.9063159 -1.1079303
000140 b7 6a 04 3e cc b4 03 3f 3a b3 5b 3f 44 5b 24 bf
       0.12931333 0.5144775 0.85820353 -0.6420176
000150 16 0e 16 3f 83 ae db 3d 60 89 84 3f 94 7d 7d 3f
       0.58615243 0.10726645 1.0354424 0.9901974
000160 4d 68 af bf 39 4a bc bd 34 ac 68 bc a4 af 36 3d
       -1.3703705 -0.09193844 -0.014201213 0.044601098
000170 cc fe 7d 3e b6 d3 30 bf 2f d4 43 3e 1e 96 7c 3f
       0.24804229 -0.69073045 0.1912391 0.9866656
000180 ed 5c c0 3f 81 d5 09 bf f9 3d 96 3f 61 f7 85 bf
       1.5028359 -0.53841406 1.1737663 -1.0466119
000190 48 62 9b bf 4d b2 81 bf b2 de 7a be 0c a7 a8 3f
       -1.2139368 -1.0132538 -0.24499014 1.3175979
0001a0 78 a7 b2 3e 82 4e ea be d0 f4 06 c0 83 03 0f bf
       0.34893394 -0.45763022 -2.1086922 -0.55864733
0001b0 9e bc 31 3e d3 15 df 3f e0 7e 3c 40 f3 73 9a 3f
       0.17357108 1.7428535 2.9452438 1.2066635
0001c0 68 c1 b4 bf 37 a7 db 3f 8e b7 38 bc f6 2e 81 bf
       -1.4121523 1.7160405 -0.011274232 -1.0092456
0001d0 c7 45 a4 bf 32 09 d5 3f 18 fc 19 3f ef 16 b5 3e
       -1.2833794 1.6643431 0.6015029 0.3536906
0001e0 f6 d8 95 be 48 3e 4b bf 79 d8 10 40 5c 52 b5 3f
       -0.2926709 -0.7939191 2.2632124 1.4165759
0001f0 25 51 89 bf 31 8e 93 3f 6b af 20 be b8 27 1a c0
       -1.0727888 1.1527768 -0.15691917 -2.4086742
000200 ad e3 09 c0 d9 cf 2f be a6 42 ba 3f 3b 9d aa 3f
       -2.1545212 -0.17169131 1.455159 1.3329233
000210 d4 42 be 3f 2f c5 a3 3f a1 ba 19 3e f1 50 c3 3f
       1.4864144 1.2794551 0.150126 1.5259076
000220 9a f6 ae bb a1 1f c2 bf 77 d5 f8 3e 76 98 6c 3d
       -0.005339456 -1.5165902 0.4860036 0.057762586
000230 1f 04 e8 3e c2 ed 64 bf 74 38 cf bf be 40 c3 bf
       0.45315644 -0.8942529 -1.6189103 -1.5254133
000240 19 93 73 bf 50 40 f5 be 43 71 83 3f 46 06 21 3f
       -0.9514633 -0.4790063 1.026894 0.629002
000250 c3 36 51 bc d2 61 df bf b3 72 ca bf b6 46 8e 3e
       -0.012769404 -1.7451727 -1.5816253 0.27788323
000260 b5 5b e5 3f 99 61 03 3f 25 91 8d 3d 92 17 27 bf
       1.7918612 0.513208 0.0691245 -0.6527034
000270 e3 c9 8e 3e f4 df 1e bd 9a e2 a9 3e f5 b9 94 bf
       0.27888402 -0.038787797 0.33180696 -1.161925
000280 03 4a 8b bf c9 94 c8 3e e1 c7 07 3e 3c 18 a7 3f
       -1.0881962 0.39176014 0.13259842 1.3054271
000290 d2 91 2c 3f 9b 66 59 bf d8 89 05 3e 58 dc 21 40
       0.67410004 -0.8492219 0.13040864 2.5290737
0002a0 75 9f d1 bf b8 14 38 3f 26 65 b8 be 19 6d c6 3f
       -1.6376787 0.71906614 -0.3601467 1.5502044
0002b0 bf c1 05 bf 6e 18 4d bf d7 c2 61 3f 4b 3e c3 3f
       -0.5224876 -0.801154 0.88187927 1.5253385
0002c0 2c 29 0c bf a3 da d7 be 8a 81 14 3e 85 58 48 3f
       -0.54750323 -0.42158994 0.1450254 0.7826007
0002d0 3d 1f d4 be 58 36 76 3f d6 b5 2e 3e b8 0f 5e bf
       -0.41430083 0.9617667 0.17061552 -0.86742735
0002e0 3a 94 de bf 61 29 b2 bf 84 59 e7 be 8d 6f 1c 3e
       -1.7388985 -1.3918878 -0.45185483 0.15276928
0002f0 f2 d8 35 bf 82 0e 1c 3f 13 bb a4 bf c3 78 ba 3f
       -0.7103416 0.6095964 -1.286959 1.4568104
000300 f5 cd 03 3f 79 89 3c 3f bb 7d 23 bf fb 8b f2 bf
       0.5148614 0.73647267 -0.63863724 -1.8948969
000310 0d 44 e8 bf dc 62 08 bf 2c 99 ae 3f 04 98 4e be
       -1.8145767 -0.5327585 1.3640494 -0.20175177
000320 b2 6f 92 bf 01 3f 81 3f f0 be 79 3f 0c cc c1 3e
       -1.1440337 1.0097352 0.9755697 0.37850988
000330 b3 a2 79 3f 2b 76 b3 3f 06 50 b8 be ad 8c 29 bf
       0.97513884 1.4020437 -0.35998553 -0.6623028
000340 9c d5 3a 3d 4d e4 f0 3f 33 d1 92 bf 00 5c 45 40
       0.04561387 1.8819672 -1.1470093 3.0837402
000350 85 5b 12 3e d7 d0 08 3f 66 b6 b3 3f d5 23 1a be
       0.14292724 0.53443664 1.4040039 -0.15052731
000360 c6 15 9d 3f 24 c9 31 bd e7 84 8e 3d 12 20 3f bf
       1.227227 -0.043404713 0.06958943 -0.7465831
000370 bd 1d 5b c0 9e f3 84 3f 3e 46 9e bf e1 a8 ec 3e
       -3.42369 1.0386846 -1.2365186 0.46222594
000380 e5 74 d8 be f9 dc 10 3f 46 24 a3 3e 27 4a a5 be
       -0.42276683 0.5658718 0.31863612 -0.32283136
000390 a5 be cd 3e 83 b3 78 bf 4f 69 95 bf f0 d9 10 40
       0.40184513 -0.97148913 -1.1672763 2.2633018
0003a0 4a 85 53 bf 88 82 2c bf 83 eb 39 bf eb ea 85 bd
       -0.8262526 -0.67386675 -0.7262499 -0.06538948
0003b0 c6 92 07 bf cc ab 9b bf d6 d2 da be 7f b6 38 bf
       -0.52958333 -1.2161803 -0.4273898 -0.72153467
0003c0 3e c2 33 3f 18 ca c4 bf 23 d7 05 c0 2f 29 c3 bf
       0.70218265 -1.5374174 -2.091256 -1.5246943
0003d0 92 1b 91 3e 96 22 77 3d 6c 74 91 3e 8c f5 22 c0
       0.28341347 0.060335718 0.28409135 -2.546237
0003e0 8a 87 0b 3d 92 a7 8c 3f 71 64 99 be c9 99 81 be
       0.034064807 1.0988638 -0.29959443 -0.2531264
0003f0 e2 93 f3 3f 77 e6 a7 be 44 bf 1f be 48 fa 10 3d
       1.9029505 -0.32793018 -0.15600306 0.035394937

noise f4 [1, 1, 32, 32]
000000 8c 7b 0d bf 0d 7f d7 3f f4 3f 41 3f 81 fe 64 bf
       -0.5526664 1.6835648 0.7548821 -0.8945084
000010 f6 ee b1 3e 73 08 92 3f 11 55 cb bc 04 af 44 3f
       0.34752625 1.1408828 -0.024820836 0.7682955
000020 52 ce a1 3e 1e 90 9c 3f 6d 99 d5 be 3f 90 9c 3e
       0.31602722 1.2231481 -0.41718617 0.305788
000030 15 47 87 3e 8a da 5c bf 4f cc 1e 40 94 9d 58 bf
       0.2642142 -0.86270964 2.48122 -0.84615445
000040 99 5a 7b 3f b0 1b 4a 3f aa 4b a6 bd bc 1c c8 3e
       0.98185116 0.789485 -0.081199005 0.39084423
000050 06 79 a3 3f eb aa 87 3e 41 4b 83 3e c0 dc e4 bf
       1.2771308 0.26497588 0.25643352 -1.7879868
000060 fb 39 0e bf 09 9c 1e bf 00 d7 b3 bf 7e c3 df bd
       -0.5555722 -0.6195684 -1.4049988 -0.10925959
000070 13 49 5d be f2 e7 17 bf 5a 1f b4 bf 31 e9 35 c0
       -0.21609907 -0.59338295 -1.4072068 -2.8423579
000080 d9 64 e9 3e 4e 7c d9 bf 33 7a 7f bd a4 df c2 3e
       0.45584753 -1.699106 -0.062372398 0.3806125
000090 4b b6 c3 bc 8b 78 3d be 6d dc 84 3e 7c fa 30 3f
       -0.023890635 -0.18503015 0.25949422 0.6913221
0000a0 f6 3b 1d bf fc ab be bf c0 89 29 3f 29 0e 08 bc
       -0.6141962 -1.4896235 0.66225815 -0.008304157
0000b0 1b 26 89 3f 74 26 c8 3f b9 24 86 bf a2 07 bc bd
       1.0714754 1.5636735 -1.0479957 -0.09181143
0000c0 81 48 22 bf 18 b1 ea bd fb 1d c9 3e b7 f2 fe be
       -0.6339188 -0.11459559 0.39280686 -0.49794552
0000d0 d2 53 09 c0 60 9e aa 3e 9d 3f 1b bf 13 29 83 3e
       -2.145741 0.33323956 -0.6064394 0.25617275
0000e0 f8 ba 23 3f 56 13 6e bf 04 6d ac bf 80 02 85 bf
       0.63957167 -0.92998254 -1.3470769 -1.0391388
0000f0 cf bd ce 3f d5 98 12 3f 71 a1 38 3f 8c 7c cf be
       1.6151675 0.57264453 0.7212134 -0.4052471
000100 78 c5 ce 3e cf 23 2c 3e ee 82 90 3e 11 dc 8f bf
       0.40385032 0.16810535 0.2822489 -1.1239034
000110 5a 1b 9d 3f a7 53 6b bf 87 cb 72 3e ac 34 82 3f
       1.2273972 -0.9192452 0.23710452 1.0172324
000120 8b 02 0d 40 9a 74 e9 3e 64 be ca bd 00 d1 ad 3f
       2.2032802 0.45596772 -0.098995954 1.3579407
000130 f7 36 a4 3e 81 4e 75 3f c7 22 87 3f 85 8d d3 bc
       0.32073185 0.9582291 1.0557488 -0.025824318
000140 39 c1 f7 3d e9 79 2a bf fa d2 d0 3e d1 ae ea 3f
       0.12097401 -0.6659227 0.40785962 1.83346
000150 db 32 e7 bf de fa 8a 3f 63 0c 7e bf 66 e4 5c be
       -1.8062395 1.0857809 -0.9923765 -0.21571502
000160 b4 23 ba 3d 5c 9f c6 bd af a8 25 be d0 2b a9 be
       0.09088841 -0.09698364 -0.16177629 -0.3304124
000170 34 18 6e bf 57 00 7f 3f 1f 2d 86 3f df 6d 20 3f
       -0.9300568 0.99609894 1.048252 0.6266765
000180 88 ab 49 3f 4c 3f 19 bf ee b7 a4 be 62 d0 19 bc
       0.7877736 -0.5986221 -0.32171577 -0.009388061
000190 ac 76 35 3f 57 e1 9f 3f b6 b5 c4 bf 93 ce f4 3e
       0.70884204 1.2490643 -1.5367954 0.47813854
0001a0 00 e5 75 be b5 ba de 3c 7d d4 4e be 9a 35 78 3f
       -0.24013138 0.027188638 -0.20198245 0.9695679
0001b0 ec 9a 18 c0 ec 94 96 3f 7d 7c 22 bf be 38 d3 be
       -2.3844557 1.1764197 -0.63471204 -0.41254228
0001c0 6f 87 6c 3d 05 e5 dc bf 2b 0d 21 bf c5 25 38 bd
       0.057746347 -1.7257391 -0.6291072 -0.044957895
0001d0 9d 03 14 3f 49 fb 8d 3f ab 2d e6 3d ae 5f 0d 3f
       0.57818013 1.1092311 0.11239179 0.5522412
0001e0 74 1e db 3f 42 1d 49 bf 76 d7 6a 3f 3c e8 f3 3f
       1.7118669 -0.7856027 0.9173502 1.9055247
0001f0 37 ad 12 bf 83 f9 f1 3e f3 7f 8d 3f 5d 70 8d be
       -0.57295555 0.47260675 1.1054672 -0.2762479
000200 80 3c 62 bd bb dc 9b 3e 44 75 92 bd f8 62 78 bf
       -0.05523348 0.3044184 -0.07151273 -0.97026014
000210 12 f5 62 3f 4c f9 20 c0 7b 26 0d bf 88 f0 76 be
       0.886552 -2.5152159 -0.5513684 -0.24115193
000220 c0 70 60 be 05 6a 1d bf c2 4f 99 3e b7 08 86 3f
       -0.2191801 -0.614899 0.29943663 1.047141
000230 c0 b5 8b 3d dd e0 73 3e c1 01 41 3e 86 4b 7c bf
       0.068217754 0.23816247 0.18848325 -0.9855274
000240 38 c5 7d bf b2 81 df bf 34 76 88 bf 77 a7 a8 3f
       -0.99129057 -1.7461455 -1.0661073 1.3176106
000250 cb 83 05 bf 58 8a 49 3e 88 11 7a 3f 66 01 84 3f
       -0.52154225 0.1968168 0.97683 1.0312927
000260 c5 02 69 bf 76 bb 8f be f5 72 b1 3d 7b 59 64 3d
       -0.9101985 -0.2807271 0.086645044 0.055749398
000270 db 2c 44 3f 89 12 41 be 34 08 2c be 2d da 77 3f
       0.76630944 -0.18854727 -0.16800004 0.96817285
000280 a6 14 10 c0 d6 c6 d5 bf 53 f2 8a 3d 69 0e e6 bf
       -2.2512603 -1.6701305 0.06784501 -1.7973148
000290 ed 94 b6 bf fe f5 21 bf c8 66 a2 bf f1 34 3d bf
       -1.4264199 -0.6326598 -1.2687616 -0.7390891
0002a0 82 ac 8e 3e 36 05 85 bd 72 7d fd be b0 d3 a5 be
       0.27865988 -0.064951345 -0.4950977 -0.32388067
0002b0 59 4a f8 bf 6a d0 6b bf 48 83 6e 3f 00 70 c0 be
       -1.9397689 -0.9211489 0.9316907 -0.3758545
0002c0 85 e0 ee be 55 44 51 bf 58 09 3d 3e c8 20 fd bc
       -0.4665567 -0.8174489 0.18460596 -0.03089942
0002d0 57 d2 1d 3f 9e c7 1f be 40 17 97 3f 68 c2 20 3e
       0.6164908 -0.15603492 1.180397 0.1569916
0002e0 9c 9b cc 3f f7 b6 e4 3f 9f 2b 9e bf 42 a6 5d bf
       1.5984988 1.7868336 -1.2357062 -0.86581814
0002f0 d0 a9 0c 3e 69 6e 94 3e 32 c6 3a 3e 0a d1 55 3f
       0.13736653 0.28990486 0.18239668 0.83522093
000300 80 a2 69 bf 2b bb e6 be a5 ef 97 bf d8 25 d7 bf
       -0.9126358 -0.45064673 -1.1870009 -1.6808424
000310 b5 5d c5 bc a3 6d ee 3e f0 ec 80 3f d9 15 16 bf
       -0.024092535 0.4656802 1.0072308 -0.58627087
000320 fb ae cb bf 9e 18 b1 be e2 c0 31 bf 8b cc 9d 3e
       -1.5912775 -0.34589094 -0.6943494 0.30820116
000330 97 d0 91 bf 60 81 3c 3e 74 ba 35 3f 79 c9 da be
       -1.1391782 0.18408728 0.7098763 -0.42731836
000340 83 8d fb 3e 57 5b 43 3f 4d bb a9 bf 4e 4b 79 3e
       0.49131402 0.7631125 -1.3260285 0.24345133
000350 a0 16 b3 bf 88 f5 b4 3f 12 dc 8a 3e 5c 80 09 3f
       -1.399128 1.413743 0.27121025 0.53711486
000360 25 bd e6 3c 8d c9 90 3f 9c d0 84 be e3 1c 47 3f
       0.028166363 1.1311508 -0.25940406 0.7777845
000370 ba 9b 0e 3d d6 b4 2f bf 3c 9a e8 3e 1a 78 ba 3d
       0.03481648 -0.6863531 0.4543017 0.09104939
000380 f0 f2 bd bf 72 3d cb 3f cc 61 0a bf 21 2f c4 be
       -1.4839764 1.5878127 -0.54055476 -0.38317207
000390 8d ac 24 bc 9a 08 bc be 45 b7 92 3e 5f 3b 3f be
       -0.010050905 -0.36725312 0.2865545 -0.18674992
0003a0 36 f3 90 bf 0c 8a 83 3f fd e7 b6 3f 36 d3 2c bf
       -1.1324222 1.0276504 1.4289547 -0.6750978
0003b0 72 6e 48 bf 83 e7 02 3f 2b a5 45 3f 01 ad 62 3f
       -0.78293526 0.5113451 0.7720515 0.88545233
0003c0 fe f3 6b 3f 67 7e 67 3f 8a 5a 4d be bb 94 2d bf
       0.9216918 0.9042725 -0.20054069 -0.6780507
0003d0 19 6f 90 3f a6 65 11 bf d1 dc b2 3f 55 6f 90 be
       1.1283904 -0.5679573 1.3973638 -0.2820994
0003e0 a1 1a 70 3d 7f 6a fa be 9a 4c 96 bf 6c 4f 5a 3f
       0.058619145 -0.48909375 -1.1742127 0.8527744
0003f0 01 c0 fa 3e a3 0c 0d 3f 1d 30 0b 3f 13 da e1 bf
       0.48974612 0.5509741 0.5437029 -1.7644676
