examples/samples/4.pt (torch_old, 731568 bytes, 15 tensors)

w f4 [512]
-0.4508212 -0.8468072 0.20398313 0.6037081 0.3839962 -0.10644251 -0.145672 -0.8487626
0.10151481 -0.37674332 0.025389576 -0.47535136 0.6171038 -0.09305464 -0.1518595 -0.06825895
0.60111195 -0.29136255 0.8272801 0.48148558 0.54705155 -0.36755875 0.17613576 0.67813
1.048376 0.63631445 -0.095625676 0.059241995 0.37963152 -0.2263065 0.6576385 0.122654684
0.60123134 0.5314947 -0.18507783 -0.01775248 0.20374541 1.1712661 0.17477179 -0.43114796
-0.25107783 -0.24844454 0.16063143 0.25274897 0.08093511 -0.1588403 0.6629199 0.03340368
-0.07822305 0.25771347 -0.06641327 -0.46571898 0.37231767 1.4695444 0.27343485 -0.094251804
0.23627366 0.5435641 0.6901091 0.78058237 -0.26529026 0.032581195 0.22493629 0.25535706
0.44305396 0.89506245 0.5224155 -0.30264533 0.5618981 0.848081 0.1259956 -0.10622751
0.39483625 0.4965717 0.14266816 0.3309083 -0.054954477 0.59666425 0.18379508 0.7809285
1.0601008 0.08004651 0.78206795 0.11911805 0.3691242 0.44026282 -0.28413007 0.96029466
-0.32052907 -0.6473341 -0.24089915 -0.23080537 0.0021229172 -0.028563207 0.21568114 0.18580192
0.36098754 -0.26459637 0.18055557 1.1170067 0.74330634 0.30792007 0.06334264 0.6827057
0.23377512 0.25488123 -0.361889 0.896737 0.18581362 0.09008799 0.3839698 0.5704706
-0.0008911547 0.967041 -0.37740564 -0.06662318 0.5111111 0.08849536 -0.31614718 -0.095890686
-0.15600406 0.7444635 0.03756974 -0.27876398 0.68020445 -0.40762225 0.27355933 -0.03668602
0.10935487 0.12556484 0.16625632 -0.05667885 0.14461967 0.31089595 0.07879951 0.9442426
-0.10258189 0.9750093 0.5896701 0.15119214 -0.13948996 0.5380543 0.15357234 0.30267113
0.027170718 0.35687602 0.55397975 0.30117396 0.105422884 0.59477764 0.7603628 0.8683323
0.060287304 0.3672287 -0.16036315 0.6825193 0.45658836 -0.09062267 -0.17214502 0.5000071
0.20837684 0.009068867 0.32798225 0.4389814 0.58961123 0.4746519 -0.42488575 -0.11641205
0.19972862 0.33612055 0.47461167 0.9210857 0.4542052 -0.021412788 -0.009722424 0.5748283
0.4179927 -0.032590978 0.16724998 1.1210907 -0.732589 1.5738596 0.21017472 0.40460035
0.084048726 0.930151 -0.060192324 0.049017966 -0.2778228 0.5571683 0.3432448 0.5669466
0.64385766 -0.41100532 -0.17822824 -0.43870753 0.57349086 0.32034892 0.083531514 -0.16051762
0.01631947 -0.2870222 -0.36665255 1.1270435 0.21538296 -0.20554692 -0.54082215 -0.6420229
-0.04270171 -0.2072634 0.85479987 0.12218891 -0.17136273 0.53009045 0.49155816 0.24249929
0.21776874 0.23278545 0.06556136 0.4231029 -0.12798372 0.58397007 -0.6164087 0.82901824
0.6058043 0.6410977 -0.012605389 -0.11933997 0.7002857 -0.021857487 -0.28551814 -0.15399957
0.69877636 0.57482076 0.2313685 -0.01910796 0.9145119 -0.28721225 0.19021979 0.78737265
0.31196254 -0.47719738 -0.2584551 0.28108996 0.16715047 0.9821303 0.23416257 0.10249814
0.7239981 0.037998773 -0.18743964 0.50564176 0.14083087 -0.4089641 -0.06908874 -0.011736366
00000000: 09d2 e6be 5bc8 58bf f4e0 503e 9d8c 1a3f
00000010: 269b c43e 88fe d9bd 0a2b 15be 8148 59bf
00000020: ffe6 cf3d 80e4 c0be cdfd cf3c 4161 f3be
00000030: 84fa 1d3f 6e93 bebd 0f81 1bbe 59cb 8bbd
00000040: 79e2 193f 792d 95be a1c8 533f 4785 f63e
00000050: 920b 0c3f a930 bcbe ef5c 343e ed99 2d3f
00000060: 2f31 863f 81e5 223f 65d7 c3bd bca7 723d
00000070: 105f c23e e4bc 67be ff5a 283f 6132 fb3d
00000080: 4cea 193f 0910 083f 0b85 3dbe a66d 91bc
00000090: a3a2 503e 0cec 953f 60f7 323e 6dbf dcbe
000000a0: 468d 80be 3f68 7ebe 917c 243e 5068 813e
000000b0: 4fc1 a53d 08a7 22be 1eb5 293f 4cd2 083d
000000c0: 6833 a0bd 05f3 833e ae03 88bd b872 eebe
000000d0: 6ca0 be3e 081a bc3f a7ff 8b3e 1707 c1bd
000000e0: b9f1 713e 0427 0b3f fdaa 303f 3fd4 473f
000000f0: 20d4 87be dc73 053d b355 663e 29be 823e
00000100: f8d7 e23e d022 653f 06bd 053f 54f4 9abe
00000110: 8ed8 0f3f d61b 593f fe04 013e cf8d d9bd
00000120: fa27 ca3e a53e fe3e 9a17 123e d06c a93e
00000130: f217 61bd fdbe 183f c734 3c3e eeea 473f
00000140: 62b1 873f 6def a33d 9b35 483f 2af4 f33d
00000150: d9fd bc3e 216a e13e 7f79 91be dfd5 753f
00000160: 631c a4be b0b7 25bf 44ae 76be 3e58 6cbe
00000170: a420 0b3b 63fd e9bc 84db 5c3e dc42 3e3e
00000180: 5cd3 b83e 2d79 87be 8fe3 383e 13fa 8e3f
00000190: 5349 3e3f b3a7 9d3e c9b9 813d cdc5 2e3f
000001a0: bf62 6f3e cb7f 823e 8449 b9be 8e90 653f
000001b0: ed45 3e3e 0d80 b83d b197 c43e 5c0a 123f
000001c0: 619c 69ba 0090 773f 503b c1be bc71 88bd
000001d0: 2dd8 023f 0e3d b53d 0bde a1be 5662 c4bd
000001e0: 87bf 1fbe 2995 3e3f bae2 193d 27ba 8ebe
000001f0: e121 2e3f ddb3 d0be f80f 8c3e 1544 16bd
00000200: 72f5 df3d 1294 003e 193f 2a3e 1528 68bd
00000210: 2e17 143e c12d 9f3e a361 a13d e2b9 713f
00000220: 7416 d2bd 369a 793f 9ff4 163f 1dd2 1a3e
00000230: 75d6 0ebe edbd 093f 1142 1d3e b6f7 9a3e
00000240: 2095 de3c 74b8 b63e 9ed1 0d3f 7933 9a3e
00000250: f4e7 d73d 5943 183f 23a7 423f 074b 5e3f
00000260: d2ef 763d 6605 bc3e 3d36 24be 96b9 2e3f
00000270: f3c5 e93e 6198 b9bd c946 30be 7700 003f
00000280: bd60 553e 9695 143c 4aed a73e 2cc2 e03e
00000290: c3f0 163f 9305 f33e a08a d9be 7169 eebd
000002a0: a985 4c3e fe17 ac3e 4d00 f33e 46cc 6b3f
000002b0: 958d e83e df69 afbc cd4a 1fbc f327 133f
000002c0: 2403 d63e 1e7e 05bd 9443 2b3e e67f 8f3f
000002d0: f48a 3bbf 3b74 c93f 0b38 573e c727 cf3e
000002e0: bd21 ac3d 601e 6e3f 3a8c 76bd 10c7 483d
000002f0: ca3e 8ebe 95a2 0e3f c8bd af3e 6a23 113f
00000300: dbd3 243f 4a6f d2be 7781 36be 469e e0be
00000310: 4cd0 123f c604 a43e 9212 ab3d bb5e 24be
00000320: 69b0 853c 93f4 92be e2b9 bbbe f642 903f
00000330: 5a8d 5c3e e47a 52be 5273 0abf 9d5b 24bf
00000340: fde7 2ebd db3c 54be 2ad4 5a3f 2e3e fa3d
00000350: b679 2fbe 02b4 073f 83ad fb3e bc51 783e
00000360: c5fe 5e3e 4f5f 6e3e 0945 863d f1a0 d83e
00000370: 2a0e 03be 107f 153f f6cc 1dbf 8a3a 543f
00000380: fe15 1b3f fb1e 243f d586 4ebc 8468 f4bd
00000390: ec45 333f 790e b3bc 6f2f 92be 10b2 1dbe
000003a0: 02e3 323f 7427 133f ddeb 6c3e 4c88 9cbc
000003b0: 741d 6a3f 7c0d 93be fac8 423e 4191 493f
000003c0: 8eb9 9f3e 3753 f4be 3a54 84be 06eb 8f3e
000003d0: 7e29 2b3e e46c 7b3f 50c8 6f3e 8bea d13d
000003e0: f157 393f 9aa4 1b3d 2df0 3fbe bd71 013f
000003f0: f835 103e be63 d1be 667e 8dbd e349 40bc

wp f4 [14, 512]
-0.56363344 -0.41848838 -0.28222644 0.9059579 0.38116288 -0.124073155 0.22081214 0.0071099848
-0.05105803 -0.47551742 0.10476291 -0.17925657 0.5859709 0.103194974 -0.18556704 0.5768364
0.7842569 -0.001532091 0.61433405 0.06907572 0.3790943 -0.31325153 0.61867833 0.87591946
0.80707777 0.7233059 -0.28934562 0.019454718 0.74047804 -0.46029785 -0.20995091 -0.5822898
0.25391582 0.7223599 0.2336233 0.123201095 0.4161042 1.1934499 0.42182386 -0.99061716
-0.5783202 0.5658805 -0.09524359 0.00910321 -0.09342938 -0.49004078 1.0118189 -0.1384942
-0.14565851 -0.25019667 -0.39349243 -0.46478713 0.69937724 1.100699 0.40231076 0.013335716
-0.15676394 0.68365645 0.595011 0.94983715 -0.33176732 -0.21905506 0.3448517 0.0605271
0.90197414 0.9988014 0.5482797 -0.36899492 -0.32917115 0.6522044 -0.13528295 0.038027525
0.11916132 0.8328027 0.21709281 -0.25124952 0.039454624 0.6311756 -0.2949445 0.8367532
1.0626404 0.5329378 0.6133988 -0.47957012 -0.24728693 0.34334004 -1.0693415 0.77294815
-0.17795774 -0.971314 -0.4729755 -0.54605937 -0.29195252 0.44706616 0.12666446 0.13132273
-0.1594309 -0.25591874 0.107616186 1.1697212 0.8453756 0.28028962 0.09142757 1.0761586
0.47004765 0.16167961 -0.25479466 0.47407758 0.3219191 1.1289796 0.15960707 0.18992375
0.25360838 1.1932358 -0.24570695 0.22215326 0.76711816 -0.10558046 -0.29106686 0.004254524
-0.2619767 0.82630557 -0.27521428 -0.3516281 0.49674016 -0.5000498 0.084211044 -0.12121094
0.41424212 0.6338246 0.16106424 1.0027978 0.25109538 0.01313967 0.45674735 0.92831093
0.33359167 1.2314318 0.54080296 0.29399166 0.10144028 0.33190006 0.15861322 0.53665274
-0.04473281 0.18975599 0.25282583 -0.37515077 0.7089116 0.9181927 0.8011745 1.163161
0.07720957 0.10316207 -0.46608415 0.9701905 0.5929436 -0.2797155 -0.12898417 0.9555873
0.22749965 0.0067816484 0.8320686 0.664603 0.42103556 0.9022103 0.0050795763 -0.57959515
0.14813748 0.8960265 0.7495809 0.8882127 0.37809613 0.73025817 -0.22450933 0.26494446
0.28185275 0.5196093 0.009414675 0.9800504 -1.1679417 1.33039 0.5862071 0.58462375
-0.119709834 0.9261967 0.6779078 0.16323976 -0.14207707 0.43278316 0.91801023 0.3203799
0.63779086 -0.85734016 -0.81256235 -0.41885525 0.977729 0.25700736 0.70780116 -0.31960222
0.437849 -0.30941224 -0.13909125 1.0509984 0.36248264 -0.09952397 -0.45900396 -0.031184291
0.5239167 -0.68746036 0.9318866 -0.17626898 -0.5663928 0.75853497 0.588812 0.011044783
0.50223327 0.047615692 0.36964375 0.42764735 0.14961047 0.63853663 -1.5323262 0.72464025
0.7874402 0.59567827 -0.38497028 -0.12177216 0.55822074 0.15824 -0.3310543 -0.6346693
-0.1271267 0.33156365 0.1653089 0.13447148 0.8951773 -0.39558282 -0.28012902 0.3699247
0.18809956 0.40975899 0.0013602109 0.8935278 -0.38438222 0.67512894 -0.00032008995 0.20860212
0.9908511 0.36911958 -0.23230436 -0.29488727 -0.23264681 -0.37546316 0.36081272 -0.084594354
00000000: 484a 10bf 1c44 d6be fc7f 90be dbec 673f
00000010: c827 c33e 111a febd 941c 623e e0fa e83b
00000020: 3a22 51bd 0577 f3be f08d d63d 098f 37be
00000030: 3002 163f e357 d33d 4905 3ebe 8dab 133f
00000040: 0fc5 483f 71d0 c8ba ff44 1d3f 9277 8d3d
00000050: a618 c23e 8162 a0be b461 1e3f 423c 603f
00000060: a69c 4e3f 932a 393f 1c25 94be 805f 9f3c
00000070: f88f 3d3f 29ac ebbe 5ffd 56be f210 15bf
00000080: 4101 823e 94ec 383f f23a 6f3e db50 fc3d
00000090: 9c0b d53e f7c2 983f 4cf9 d73e 1699 7dbf
000000a0: cb0c 14bf 8bdd 103f 120f c3bd a125 153c
000000b0: e757 bfbd a0e6 fabe 4883 813f 6cd1 0dbe
000000c0: 8127 15be c719 80be d777 c9be 94f8 edbe
000000d0: 630a 333f b4e3 8c3f adfb cd3e 0c7e 5a3c
000000e0: ba86 20be 1c04 2f3f a452 183f 8728 733f
000000f0: 68dd a9be f84f 60be 6790 b03e 44eb 773d
00000100: c7e7 663f 73b1 7f3f 0f5c 0c3f e7ec bcbe
00000110: 1f89 a8be def6 263f 9d87 0abe c0c2 1b3d
00000120: da0a f43d 8f32 553f 944d 5e3e c7a3 80be
00000130: 2c9b 213d b994 213f f702 97be 7535 563f
00000140: 9a04 883f 9d6e 083f b407 1d3f 378a f5be
00000150: c938 7dbe 44ca af3e 2fe0 88bf eedf 453f
00000160: 8e3a 36be 09a8 78bf d829 f2be 8cca 0bbf
00000170: cd7a 95be dbe5 e43e 54b4 013e 7779 063e
00000180: db41 23be c807 83be e065 dc3d 6db9 953f
00000190: 896a 583f 1f82 8f3e 613e bb3d 91bf 893f
000001a0: 16aa f03e 578f 253e 7274 82be 4cba f23e
000001b0: 95d2 a43e 6782 903f 0970 233e 5f7b 423e
000001c0: f5d8 813e f3bb 983f 9a9a 7bbe 257c 633e
000001d0: db61 443f 913a d8bd b706 95be 8969 8b3b
000001e0: cf21 86be c388 533f e3e8 8cbe 9908 b4be
000001f0: ba54 fe3e 4403 00bf d776 ac3d 713d f8bd
00000200: 8b17 d43e 5442 223f 06ee 243e ae5b 803f
00000210: 938f 803e c547 573c cada e93e c9a5 6d3f
00000220: 87cc aa3e 8f9f 9d3f 1072 0a3f 1386 963e
00000230: ecbf cf3d ceee a93e 816b 223e 1362 093f
00000240: c039 37bd 654f 423e 6372 813e c313 c0be
00000250: 3b7b 353f ad0e 6b3f c619 4d3f 76e2 943f
00000260: 0d20 9e3d a346 d33d 95a2 eebe 685e 783f
00000270: 27cb 173f df36 8fbe 6d14 04be 5fa1 743f
00000280: abf5 683e 9738 de3b 7302 553f 6c23 2a3f
00000290: f991 d73e 41f7 663f 9372 a63b 5960 14bf
000002a0: 5ab1 173e fe61 653f 89e4 3f3f e861 633f
000002b0: d195 c13e 33f2 3a3f c6e5 65be cda6 873e
000002c0: 014f 903e 1d05 053f 0240 1a3c 95e4 7a3f
000002d0: 1d7f 95bf 384a aa3f ab11 163f e7a9 153f
000002e0: 6e2a f5bd 3a1b 6d3f 5e8b 2d3f 5328 273e
000002f0: a77c 11be c195 dd3e b802 6b3f d608 a43e
00000300: 4346 233f a57a 5bbf 1604 50bf 3274 d6be
00000310: 734c 7a3f 7896 833e 7532 353f e7a2 a3be
00000320: be2d e03e 486b 9ebe f06d 0ebe 1e87 863f
00000330: 5397 b93e 39d3 cbbd 9102 ebbe 3376 ffbc
00000340: 681f 063f 67fd 2fbf 1f90 6e3f db7f 34be
00000350: 1eff 10bf 592f 423f 62bc 163f 2df5 343c
00000360: 5c92 003f ac08 433d f241 bd3e 98f4 da3e
00000370: 7d33 193e 2377 233f 4423 c4bf 0682 393f
00000380: ae95 493f 5f7e 183f d31a c5be af63 f9bd
00000390: 8ee7 0e3f ab09 223e f37f a9be b079 22bf
000003a0: 802d 02be b6c2 a93e bc46 293e e4b2 093e
000003b0: 572a 653f d589 cabe 126d 8fbe c566 bd3e
000003c0: 2c9d 403e eecb d13e 1b49 b23a 3dbe 643f
000003d0: bfcd c4be 40d5 2c3f bfd1 a7b9 cb9b 553e
000003e0: 6ba8 7d3f 3efd bc3e 32e1 6dbe 77fb 96be
000003f0: f73a 6ebe b53c c0be 72bc b83e ce3f adbd

noise f4 [1, 1, 4, 4]
-0.3239247 0.5631927 0.83114433 -0.25027072 0.84453255 -0.72026014 2.980161 0.15874416
-0.35281476 -1.002109 -0.8890927 0.0693095 -0.12781748 -0.7155409 -1.1097634 0.044509415
00000000: 75d9 a5be 662d 103f e0c5 543f 7c23 80be
00000010: 4933 583f f862 38bf f5ba 3e40 d48d 223e
00000020: 23a4 b4be 1c45 80bf 949b 63bf 24f2 8d3d
00000030: 96e2 02be b02d 37bf ba0c 8ebf 814f 363d

noise f4 [1, 1, 8, 8]
2.2009344 -0.071053065 1.4284117 -0.07722294 -1.2590172 0.36944267 0.38685963 -0.1296184
-0.31580642 -0.58038306 1.0763484 0.05514878 0.67677 0.5982812 0.89062375 -1.9881569
0.05341896 -1.6850195 -1.5753509 -1.9120036 1.467543 -0.15004888 -0.3659883 0.12618257
0.74309677 -1.0046166 0.2211174 -2.2852893 1.3057222 0.28924116 0.08057461 -1.0468972
0.34619293 0.29875106 -0.6291729 -0.28530362 0.44469693 -1.035376 0.20026773 1.451211
1.6427362 -0.6118767 -0.8421317 -0.42131427 -1.9464447 -0.9114929 0.033648953 -0.9400824
0.10030774 1.3003392 -0.48226473 2.0929933 1.9312108 0.46651003 0.13981095 0.8548231
0.1688157 -0.19674113 0.0070940703 -0.18484068 0.72522974 -0.7187619 0.029268064 -0.5513487
00000000: 1cdc 0c40 4584 91bd 32d6 b63f 1027 9ebd
00000010: 7a27 a1bf 9727 bd3e 7712 c63e b0ba 04be
00000020: 61b1 a1be fc93 14bf c9c5 893f b0e3 613d
00000030: cc40 2d3f f528 193f ebff 633f ed7b febf
00000040: d7cd 5a3d b8ae d7bf 19a5 c9bf 89bc f4bf
00000050: 73d8 bb3f 6aa6 19be d262 bbbe 0136 013e
00000060: 973b 3e3f 4797 80bf 9a6c 623e 2e42 12c0
00000070: e821 a73f 6b17 943e 4d04 a53d ba00 86bf
00000080: 3340 b13e e6f5 983e 7a11 21bf 5113 92be
00000090: 51af e33e 3387 84bf fc12 4d3e 48c1 b93f
000000a0: 2e45 d23f f4a3 1cbf f195 57bf 81b6 d7be
000000b0: 1a25 f9bf 9957 69bf 7cd3 093d 3da9 70bf
000000c0: 256e cd3d 8471 a63f 67eb f6be 9af3 0540
000000d0: ea31 f73f 67da ee3e 9a2a 0f3e b0d5 5a3f
000000e0: 06de 2c3e 8276 49be 6075 e83b e046 3dbe
000000f0: a8a8 393f c800 38bf 94c3 ef3c 3025 0dbf

noise f4 [1, 1, 8, 8]
-1.2779081 -0.659617 -1.5016718 1.7155671 -1.8423136 -0.38777077 0.33721656 1.1090502
-0.753729 1.1566185 -1.0292482 0.8109926 0.60517067 -1.362262 1.2306823 0.7676939
0.45824325 0.8210436 -0.93763644 0.0039061592 0.18924008 -0.9481756 0.5948592 0.5299794
-1.6731989 -0.32451954 0.45665136 -0.83437645 -0.3300579 -0.0809536 -0.21270795 -1.6459068
0.45385665 -0.058531664 -0.14455247 0.8789673 -1.5905125 -0.03979964 1.8733103 1.5237964
-1.744821 -1.7461288 0.7498119 -0.6121733 -0.6757318 -1.308059 0.46539575 1.2885365
0.027589051 0.5677928 0.6635759 1.0220923 -0.5287878 0.9622853 0.73562574 -0.74848354
0.05011629 0.78546995 1.6072924 1.2019302 0.71799433 -0.8883841 -1.3011625 0.8268276
00000000: 7e92 a3bf a9dc 28bf c836 c0bf b497 db3f
00000010: efd0 ebbf e489 c6be a6a7 ac3e 5bf5 8d3f
00000020: 62f4 40bf 130c 943f 68be 83bf 369d 4f3f
00000030: 77ec 1a3f 9a5e aebf ff86 9d3f 9687 443f
00000040: dc9e ea3e ea2f 523f f108 70bf 7afe 7f3b
00000050: 27c8 413e a3bb 72bf b148 183f bbac 073f
00000060: 622b d6bf 6d27 a6be 35ce e93e b299 55bf
00000070: 59fd a8be 00cb a5bd 1dd0 59be 13ad d2bf
00000080: e65f e83e e6be 6fbd 9005 14be 0004 613f
00000090: ea95 cbbf f304 23bd a2c8 ef3f c30b c33f
000000a0: 4b56 dfbf 2681 dfbf acf3 3f3f 64b7 1cbf
000000b0: c2fc 2cbf 7a6e a7bf 5a48 ee3e c4ee a43f
000000c0: 6f02 e23c de5a 113f 1ce0 293f ecd3 823f
000000d0: a35e 07bf 5458 763f f851 3c3f 9e9c 3fbf
000000e0: bd46 4d3d 8f14 493f c2bb cd3f d9d8 993f
000000f0: 7ace 373f 246d 63bf 7e8c a6bf f9aa 533f

noise f4 [1, 1, 16, 16]
-0.61594105 0.7126918 0.9285476 -0.35002416 -0.007352638 1.8503822 -0.6609895 -0.15798116
1.8103443 0.03594513 -0.42010882 -1.3142323 -1.0233632 -1.1928935 0.49881932 0.36176226
0.5731484 0.6216282 -0.050503347 0.12844737 0.32002044 -0.49939963 -0.77476245 0.68490696
-0.7363769 -0.2118265 -0.9759396 1.1284312 0.08923856 0.029487967 -0.030610817 -0.21413551
2.2901044 1.2753336 -0.31095147 0.7254648 -0.50956345 -0.043537814 0.13354227 -1.2191595
-0.68661416 1.6725597 0.43015382 -0.116006054 -1.6317047 0.083130136 1.1523546 -0.7849273
-0.2984779 -0.69279814 -0.8895532 -0.7314738 0.9092914 -0.67067075 -1.2408799 -0.17307161
-1.5421795 1.3906908 -1.1833556 -1.2034951 -1.1896675 0.21558037 1.216108 -0.03211515
-0.5108019 1.1919191 -0.5066545 0.44656065 0.20745453 1.0054098 1.9968712 1.6683491
0.8655944 -0.82003903 -0.5366459 -0.16724643 -0.06675125 -1.348476 1.7680151 0.81453973
0.5319587 0.105289824 1.1781412 1.3964276 2.7895353 0.3599386 -1.1043017 1.1409541
1.9660604 0.18112269 -0.64792913 0.24823451 -0.7324199 -1.786662 0.6673473 0.53123397
0.14429145 1.302708 -1.2341282 0.72038686 -0.022671526 -0.96671426 1.1106915 -0.60739774
0.11137376 0.18694432 -0.5106701 0.7314896 0.52938926 -0.33018604 -0.3907211 0.08582393
-0.9120802 0.33972186 -0.79738635 -0.8158684 0.3769931 0.0070156883 0.06372339 0.40445954
-1.5656972 0.11203747 -0.08272911 -0.972318 0.90350187 1.8975616 -0.102874994 0.20398858
-0.12980993 -0.4747546 0.25211385 0.4901694 -0.36729783 -0.035374016 -0.46213123 -0.07564212
0.29301322 -0.43027154 -0.6035324 0.9114442 -1.171686 -0.87680006 -0.9153667 1.3908969
-0.6953421 -1.9864713 0.20307735 1.0526737 -1.2436538 1.7381822 1.3008941 2.0078638
0.008141553 1.4362273 0.7746935 0.58120185 0.08137361 -1.6997344 -1.0730069 1.3565642
0.68252844 -0.16836558 -0.76201266 -0.8974954 0.23893265 -0.83833754 0.10232393 -1.3258243
-0.34758574 1.2951031 -1.3966101 0.67702526 -1.9896619 -1.5750271 0.59249336 2.6496398
-1.134713 1.5548655 -0.15467429 -3.388361 1.3696351 -0.5069977 1.2005465 -0.7998196
-0.077776246 0.74482524 -1.0699607 -0.48924822 2.2886832 -0.3905345 -0.39893612 0.28786895
0.25051877 0.59883374 0.35430026 -0.5278144 -1.064797 -0.5542776 -0.15086675 -1.2603428
-0.8267033 0.090887204 -0.87412757 0.5953016 -2.4365885 -0.5692771 0.6689517 -2.1747272
0.3787742 -0.04763139 -1.223415 0.16587414 -0.64006376 -0.48724124 0.6388069 1.1105784
0.47414103 -1.2143942 -0.14852782 -0.59888774 -0.34569013 -1.9200313 1.8433856 2.2628832
0.9155272 -0.6428247 -0.07477746 -0.2505889 -0.06920618 0.65230197 -1.7384089 0.28113836
0.14332202 -0.34680986 1.0298008 0.5238152 -0.24987029 1.6956747 0.6248178 -1.6633091
-0.789894 0.33494413 0.5045344 -1.2880331 0.9315004 -0.2885666 -0.30774415 1.368317
1.1693543 -0.13372152 2.07875 -0.4994603 -1.5365404 -1.5043756 -0.16952604 -0.31331885
00000000: 50ae 1dbf f872 363f 4cb5 6d3f 5e36 b3be
00000010: 66ee f0bb 53d9 ec3f 9c36 29bf d0c5 21be
00000020: 5db9 e73f 333b 133d 8118 d7be c438 a8bf
00000030: 91fd 82bf bcb0 98bf 3f65 ff3e e738 b93e
00000040: dbb9 123f 0723 1f3f 99dc 4ebd b587 033e
00000050: b8d9 a33e 4fb1 ffbe d556 46bf 1056 2f3f
00000060: 3283 3cbf 0ce9 58be 2dd7 79bf 6f70 903f
00000070: b5c2 b63d c090 f13c 89c3 fabc 5746 5bbe
00000080: 1291 1240 223e a33f 0835 9fbe 10b8 393f
00000090: c072 02bf b554 32bd 4ebf 083e 6b0d 9cbf
000000a0: f2c5 2fbf 7016 d63f 1f3d dc3e 9594 edbd
000000b0: b3db d0bf 2240 aa3d 5b80 933f fff0 48bf
000000c0: 18d2 98be 385b 31bf c2b9 63bf de41 3bbf
000000d0: 52c7 683f 14b1 2bbf 27d5 9ebf af39 31be
000000e0: 2366 c5bf 2802 b23f 3278 97bf 210c 9abf
000000f0: 0647 98bf 1ac1 5c3e 6da9 9b3f 2d8b 03bd
00000100: eac3 02bf ce90 983f 1cb4 01bf 99a3 e43e
00000110: f66e 543e 45b1 803f 7a99 ff3f 778c d53f
00000120: 9897 5d3f 14ee 51bf a061 09bf a642 2bbe
00000130: e1b4 88bd dd9a acbf 524e e23f ad85 503f
00000140: 722e 083f 31a2 d73d 55cd 963f 24be b23f
00000150: bf87 3240 df49 b83e c259 8dbf c90a 923f
00000160: dea7 fb3f 3a78 393e afde 25bf 3031 7e3e
00000170: df7f 3bbf 57b1 e4bf 46d7 2a3f f3fe 073f
00000180: 23c1 133e 23bf a63f eaf7 9dbf 466b 383f
00000190: a3b9 b9bc 967a 77bf 242b 8e3f 6b7e 1bbf
000001a0: ed17 e43d 556e 3f3e 47bb 02bf e742 3b3f
000001b0: 0e86 073f 250e a9be 990c c8be 75c4 af3d
000001c0: 177e 69bf 06f0 ad3e 8321 4cbf c0dc 50bf
000001d0: 3d05 c13e dce3 e53b 6981 823d 5215 cf3e
000001e0: c468 c8bf e773 e53d e16d a9bd d5e9 78bf
000001f0: e64b 673f 4ce3 f23f 20b0 d2bd 62e2 503e
00000200: e5ec 04be 0913 f3be 1115 813e 7cf7 fa3e
00000210: 760e bcbe 58e4 10bd 779c ecbe 41ea 9abd
00000220: d405 963e 8d4c dcbe 1981 1abf 6854 693f
00000230: cff9 95bf f875 60bf 7955 6abf e908 b23f
00000240: f101 32bf b144 febf 82f3 4f3e 03be 863f
00000250: 0c30 9fbf c17c de3f b383 a63f d780 0040
00000260: 2664 053c 4cd6 b73f 5052 463f a5c9 143f
00000270: 35a7 a63d e690 d9bf 4a58 89bf e5a3 ad3f
00000280: 2fba 2e3f 0768 2cbe 4313 43bf 42c2 65bf
00000290: c3aa 743e 4a9d 56bf 358f d13d 9cb4 a9bf
000002a0: c2f6 b1be f0c5 a53f 1fc4 b2bf 8751 2d3f
000002b0: 3ead febf 7d9a c9bf a5ad 173f b393 2940
000002c0: 473e 91bf d505 c73f f062 1ebe e8da 58c0
000002d0: 3450 af3f 9aca 01bf 82ab 993f fac0 4cbf
000002e0: 2749 9fbd deac 3e3f 79f4 88bf be7e fabe
000002f0: c979 1240 23f4 c7be 5b41 ccbe 8f63 933e
00000300: ff43 803e 2b4d 193f d866 b53e d81e 07bf
00000310: 454b 88bf 23e5 0dbf d07c 1abe ea52 a1bf
00000320: d4a2 53bf 1223 ba3d d3c6 5fbf b065 183f
00000330: 11f1 1bc0 25bc 11bf 6b40 2b3f bb2e 0bc0
00000340: b1ee c13e 2219 43bd dd98 9cbf e9da 293e
00000350: 38db 23bf af77 f9be d988 233f 6f27 8e3f
00000360: 9dc2 f23e 4571 9bbf ad17 18be b550 19bf
00000370: 4cfe b0be 96c3 f5bf 0ff4 eb3f 14d3 1040
00000380: fe5f 6a3f 2990 24bf ed24 99bd 304d 80be
00000390: f8bb 8dbd 43fd 263f 2f84 debf 5ef1 8f3e
000003a0: 02c3 123e 1091 b1be 83d0 833f c118 063f
000003b0: ffdd 7fbe de0b d93f 0ff4 1f3f 50e7 d4bf
000003c0: 7e36 4abf cc7d ab3e 2b29 013f 45de a4bf
000003d0: cf76 6e3f 00bf 93be a490 9dbe 0325 af3f
000003e0: 67ad 953f 4bee 08be 3d0a 0540 43b9 ffbe
000003f0: 5bad c4bf 618f c0bf 3c98 2dbe 546b a0be

noise f4 [1, 1, 16, 16]
0.391977 -0.38697115 -0.5111527 -0.5292031 0.7221897 -1.0433222 -0.011565637 -1.0582334
-1.5927435 -0.077657536 0.449449 -0.034896657 1.2820224 -1.2806216 -1.8266351 -1.4822234
0.68914133 0.37647942 -2.0034964 0.58345693 -0.89312714 0.53215104 -1.2922282 -0.09470038
-0.4719418 0.06890778 -0.3478231 -0.6561343 1.1276436 0.52868533 -0.25643328 -1.5708082
-1.1895779 0.36793026 -0.2559888 -1.0959736 0.54004186 -0.25287494 -0.7535149 2.344177
0.8866554 0.75621355 -0.24280663 1.4624888 0.18580374 0.72834074 1.1946687 -0.22616088
0.77299833 0.49337518 -1.3119925 -0.21812363 -1.5942426 -1.2106528 -1.4644082 0.030011972
1.4329543 0.32373187 -0.5403583 -0.099068135 0.98803246 0.037850905 0.51704985 -1.3518773
-0.16154721 0.81812614 0.317924 0.94086957 -1.4616297 1.5785125 -1.6674752 1.5069964
-0.103104934 0.35320523 0.493327 0.39222026 1.5639379 -1.2496929 1.1377989 -0.19590253
-0.6085519 -0.117519766 3.5188184 1.1324899 2.1197057 -0.60750717 1.2444075 -0.11954917
0.25108525 0.39943337 0.72125643 -0.24225979 0.8112926 0.512173 0.24258 1.2715244
-1.7296782 -0.4639377 0.3130659 -1.4534501 0.47190222 -0.5530135 -0.583907 -0.45483822
-1.5601001 -0.8819007 -0.20543793 -0.7875827 1.1901114 0.18230784 -0.8681708 0.4358078
0.69580954 -0.12805098 -0.37272313 1.2024527 0.5928512 1.7340747 -0.36836335 0.2536833
0.54867584 -0.77119666 0.16072854 -0.49936604 -0.6270791 -0.05957757 1.1179131 -0.43317834
0.52498645 -0.31836972 0.3283337 1.3743532 -0.28963915 1.041924 -1.3803303 0.42068058
-1.1705106 1.0293264 -0.07101561 0.004250516 -0.89771914 -0.11354728 -1.3996027 -0.6385173
-0.12636723 1.6636392 -0.99131656 -0.7863801 -0.7241292 -0.02013189 0.5499913 1.4448093
-0.7393357 -0.3764935 0.46814013 0.14839374 -0.21626773 -1.7932686 0.9418165 0.33119968
1.3821145 -0.14578065 -0.5898858 -0.77811104 -1.1481241 0.73710424 -0.4589842 -0.42126334
-0.29148784 -1.4759268 -0.1672809 0.10813554 -1.3005897 0.12487388 -0.370185 -0.040200517
0.8597919 -0.47691986 0.54431 -0.13176048 1.5722245 0.6930659 0.05588928 0.81946945
0.7423621 0.69446737 -0.00011337199 1.9326892 0.017285254 -1.1557174 0.7760336 -0.2812139
-0.13702337 0.6092119 0.72756463 1.2675701 0.98469543 0.61341053 0.4162804 -2.7448251
-0.796858 -0.33720165 -0.3381411 -2.9991138 1.2923795 0.5477805 0.89674354 -0.9994147
0.5448525 0.386092 -0.6058877 -0.38152182 -1.6274841 0.1250048 -0.48301336 -0.39532518
-0.6381839 0.24816972 -2.9224226 0.47165808 -0.7125147 0.15155591 2.2018943 0.35140345
-0.4078495 1.3519741 0.14178888 0.094513655 0.39466652 -1.0362449 2.6252904 1.0492868
0.062891304 0.18273754 -1.612929 -2.3285744 1.1998 1.1552832 -0.3041892 -1.5188128
-0.24679911 1.5544671 -0.42487407 -0.22776927 -0.019007262 -1.8263787 -0.92447263 -0.5682418
1.2800592 0.9911551 0.31303522 1.7950798 2.5357084 -1.5516137 -0.52431464 -0.44384462
00000000: 36b1 c83e 1521 c6be e7da 02bf db79 07bf
00000010: 6de1 383f 958b 85bf cc7d 3dbc 3174 87bf
00000020: 05df cbbf ea0a 9fbd 2e1e e63e ccef 0ebd
00000030: 4f19 a43f 69eb a3bf 2ecf e9bf 7fb9 bdbf
00000040: 916b 303f e9c1 c03e 4939 00c0 6f5d 153f
00000050: fba3 64bf 0d3b 083f bc67 a5bf 46f2 c1bd
00000060: 5ba2 f1be 861f 8d3d df15 b2be 6bf8 27bf
00000070: a056 903f ec57 073f 394b 83be 3e10 c9bf
00000080: 1744 98bf 5b61 bc3e f710 83be dd48 8cbf
00000090: 2f40 0a3f d378 81be 5ae6 40bf ff06 1640
000000a0: d9fb 623f 3697 413f 4da2 78be d532 bb3f
000000b0: 5643 3e3e 8a74 3a3f e7ea 983f b896 67be
000000c0: 38e3 453f ac9b fc3e 5fef a7bf cd5b 5fbe
000000d0: 2410 ccbf acf6 9abf ba71 bbbf abdb f53c
000000e0: 0c6b b73f 2fc0 a53e ec54 0abf 3ce4 cabd
000000f0: b2ef 7c3f 8d09 1b3d 615d 043f 510a adbf
00000100: a26c 25be b770 513f efc6 a23e d4dc 703f
00000110: af16 bbbf b30c ca3f d46f d5bf 42e5 c03f
00000120: ae28 d3bd 51d7 b43e 5b95 fc3e 18d1 c83e
00000130: 1e2f c83f f0f5 9fbf 65a3 913f ac9a 48be
00000140: 0fca 1bbf 34ae f0bd 5234 6140 6ef5 903f
00000150: 42a9 0740 9785 1bbf bf48 9f3f 32d6 f4bd
00000160: 3f8e 803e 8882 cc3e 43a4 383f f312 78be
00000170: dfb0 4f3f c51d 033f e466 783e 50c1 a23f
00000180: 1866 ddbf 3e89 edbe 2c4a a03e a70a babf
00000190: 2b9d f13e 4b92 0dbf ee7a 15bf 8ee0 e8be
000001a0: 5cb1 c7bf 3fc4 61bf 525e 52be 059f 49bf
000001b0: 9255 983f e8ae 3a3e 7140 5ebf 3322 df3e
000001c0: 9320 323f cc1f 03be 91d5 bebe f8e9 993f
000001d0: 19c5 173f 29f6 dd3f 1f9a bcbe c7e2 813e
000001e0: 0576 0c3f 256d 45bf 0696 243e e8ac ffbe
000001f0: 4288 20bf 9c07 74bd c717 8f3f 8dc9 ddbe
00000200: 8365 063f 5b01 a3be 5b1b a83e ceea af3f
00000210: 954b 94be c45d 853f aaae b0bf 7263 d73e
00000220: 4bd3 95bf f8c0 833f a270 91bd ea47 8b3b
00000230: ecd0 65bf 7a8b e8bd 2e26 b3bf df75 23bf
00000240: 6966 01be 21f2 d43f ecc6 7dbf 3550 49bf
00000250: 8860 39bf a2eb a4bc 3bcc 0c3f 83ef b83f
00000260: 1b45 3dbf c2c3 c0be 10b0 ef3e 87f4 173e
00000270: 4a75 5dbe d389 e5bf e31a 713f 0193 a93e
00000280: 21e9 b03f 8647 15be c102 17bf 4932 47bf
00000290: bbf5 92bf ddb2 3c3f faff eabe d4af d7be
000002a0: e53d 95be 2beb bcbf af4b 2bbe 2a76 dd3d
000002b0: b979 a6bf e0bd ff3d e388 bdbe 4ca9 24bd
000002c0: 521b 5c3f d72e f4be e657 0b3f 38ec 06be
000002d0: a73e c93f c46c 313f 28ec 643d c0c8 513f
000002e0: 710b 3e3f 9dc8 313f 20c2 edb8 5c62 f73f
000002f0: ce99 8d3c 8cee 93bf 23aa 463f 45fb 8fbe
00000300: db4f 0cbe 50f5 1b3f ad41 3a3f bd3f a23f
00000310: 0015 7c3f 7908 1d3f b422 d53e 37ab 2fc0
00000320: e3fe 4bbf b2a5 acbe d520 adbe 7bf1 3fc0
00000330: b16c a53f 583b 0c3f fc90 653f a4d9 7fbf
00000340: 747b 0b3f daad c53e 751b 1bbf d456 c3be
00000350: 6651 d0bf 4201 003e 874d f7be 1068 cabe
00000360: 0560 23bf 3420 7e3e f908 3bc0 2b7d f13e
00000370: 5d67 36bf 7931 1b3e d6eb 0c40 27eb b33e
00000380: a6d1 d0be 7d0d ad3f 1b31 113e 6090 c13d
00000390: bb11 ca3e aca3 84bf c204 2840 084f 863f
000003a0: 28cd 803d 8d1f 3b3e 7574 cebf 5d07 15c0
000003b0: 0c93 993f 52e0 933f b0be 9bbe 7568 c2bf
000003c0: e8b8 7cbe c7f8 c63f 1889 d9be 593c 69be
000003d0: 1eb5 9bbc c7c6 e9bf 3daa 6cbf 4b78 11bf
000003e0: fbd8 a33f 57bc 7d3f 2746 a03e 2dc5 e53f
000003f0: 0c49 2240 479b c6bf 7c39 06bf 9a3f e3be

noise f4 [1, 1, 32, 32]
0.8350875 -1.7939802 -0.26611882 -2.2974455 -0.8340092 -0.7975316 1.2946966 -0.2708335
-1.8986139 -2.6220083 -1.5844399 -0.7123726 1.3831054 -1.285937 0.18043041 -1.1420137
0.4881251 1.4611989 0.29562736 0.58116513 1.4776518 1.7174665 -0.14403254 0.8740915
-0.17328411 -0.7988432 -0.6225554 -0.6627986 -2.4218276 1.3613726 -1.4619362 1.7987388
-0.67609453 0.54454476 1.2874177 0.67092687 -2.242428 -0.72440195 2.0873818 0.943719
0.46663213 -0.46617734 1.2756516 1.2670571 0.923652 -0.14662775 0.023505433 0.9432256
-0.090701655 -0.13898775 -0.91509753 0.3991637 0.46298778 -0.8571596 -0.49973553 0.5336372
-0.2174905 0.22719914 0.093203925 -0.118552096 0.062251713 0.92044395 -0.8841697 1.8836919
1.0132768 -0.6331383 -0.25020152 1.2929932 1.0347272 -0.6839076 -1.0354742 -1.1447537
1.3341067 -1.4240004 -0.03649256 0.26114953 1.1615039 -0.4161425 -2.0154521 1.1216171
0.9747417 0.49448976 1.0785464 -1.4668424 2.4263597 1.0607688 1.1285546 0.16200227
0.13414204 -0.2969658 -0.5491541 -1.062993 0.006865685 -2.633179 0.82882214 0.8315956
0.27821648 -0.68269974 -0.8380025 1.2471545 -0.21316212 -0.0016825412 1.7267741 -1.1715586
1.8321763 -2.0138655 -0.5741473 0.9978615 0.4504094 -1.093645 -0.46530423 -0.89668006
-0.5142504 -0.19843489 -0.5269569 -0.7476257 1.8750445 0.2162314 -0.3879697 -2.1337113
-1.2231827 -0.5698151 -0.19814765 -1.467513 0.949501 0.043717 -0.86322165 -3.1319394
0.5025999 -2.3029346 -0.9950807 -0.2337097 0.19446209 -0.5313792 1.2624557 0.92857146
0.8352261 0.5775253 0.4279862 -1.4697454 1.0140566 0.7698045 -1.1877924 -1.2877014
-0.08638339 -0.5045894 -1.1431317 -0.11158179 -1.24462 -0.79818296 -0.034013823 0.48305672
0.84081703 0.7527885 0.6040336 -0.57179254 -2.5852487 -0.9359322 0.21372902 -0.44590002
-0.8083524 -0.45033988 0.9346242 1.008042 1.1231904 -0.96591395 1.3334378 1.2940879
-2.0145357 -1.026765 0.9387052 -0.817379 -0.15412614 -1.7210939 -0.70373774 0.6459188
-0.904936 0.111123286 0.20232606 -0.13732797 -0.16659784 -0.06312169 -1.3392076 -0.5477205
0.1251708 -1.1885381 -1.1048037 0.33494014 -0.29548487 1.1943321 -1.3151524 -0.5079686
0.08826132 1.1215438 1.8753735 0.06090093 0.98175055 0.544699 0.5982051 -0.066961884
0.098590285 1.1915886 -0.5882691 1.9109828 1.7095246 -0.72660166 0.013037368 -1.2139833
-0.88512444 -0.54585356 0.6609125 0.068751484 -0.34122515 2.4807844 -0.27275872 -2.048026
-1.2497224 -1.4143643 -0.6325276 -0.58447057 -1.5207924 0.44011194 -1.0655757 1.0287446
-0.64456576 0.39502582 -0.0058122505 0.8833405 0.034770098 0.5766832 0.5134483 2.7656832
-0.2553611 -1.4843177 0.30310816 0.61134285 -1.3240806 -0.98039544 0.5455691 0.8882967
2.0544796 -1.3009238 0.24516144 -1.6923277 -0.6633316 -0.25160384 0.80523384 0.78492236
-0.4565473 -0.10919796 0.45825076 0.76219064 0.31051332 -0.88818145 -1.1917654 2.037593
00000000: 4bc8 553f 25a1 e5bf ba40 88be 5909 13c0
00000010: a081 55bf 082b 4cbf 9eb8 a53f b0aa 8abe
00000020: c805 f3bf fcce 27c0 edce cabf 0d5e 36bf
00000030: 9909 b13f 9599 a4bf c0c2 383e 812d 92bf
00000040: 88eb f93e 9108 bb3f 785c 973e 3dc7 143f
00000050: b223 bd3f f1d5 db3f 447d 13be 76c4 5f3f
00000060: 6471 31be fd80 4cbf ca5f 1fbf 2bad 29bf
00000070: 39ff 1ac0 7541 ae3f ba20 bbbf 133d e63f
00000080: 8814 2dbf 4967 0b3f 1aca a43f ddc1 2b3f
00000090: f183 0fc0 6872 39bf aa97 0540 9297 713f
000000a0: 68ea ee3e ccae eebe 8d48 a33f ed2e a23f
000000b0: 7574 6c3f 9625 16be 778e c03c 3c77 713f
000000c0: cac1 b9bd ce52 0ebe d543 6abf 2f5f cc3e
000000d0: bc0c ed3e d06e 5bbf 56dd ffbe 739c 083f
000000e0: d4b5 5ebe e4a6 683e b3e1 be3d 71cb f2bd
000000f0: a7fb 7e3d 37a2 6b3f f258 62bf d11c f13f
00000100: 0eb3 813f 5a15 22bf 6a1a 80be cd80 a53f
00000110: f171 843f 9214 2fbf 6b8a 84bf 4a87 92bf
00000120: 02c4 aa3f a545 b6bf 3979 15bd 64b5 853e
00000130: 29ac 943f a110 d5be 2bfd 00c0 2691 8f3f
00000140: ac88 793f c32d fd3e cf0d 8a3f 7ec1 bbbf
00000150: 7a49 1b40 46c7 873f 7a74 903f ece3 253e
00000160: 885c 093e e70b 98be 5d95 0cbf 2810 88bf
00000170: 8af9 e03b 0186 28c0 b02d 543f 73e3 543f
00000180: 6472 8e3e 69c5 2ebf 5587 56bf c2a2 9f3f
00000190: 2c47 5abe b788 dcba ef06 dd3f a2f5 95bf
000001a0: c184 ea3f 2ce3 00c0 51fb 12bf da73 7f3f
000001b0: 109c e63e 8ffc 8bbf 5b3c eebe d38c 65bf
000001c0: eaa5 03bf 8432 4bbe a6e6 06bf 6664 3fbf
000001d0: 7501 f03f c46b 5d3e f7a3 c6be ba8e 08c0
000001e0: 4091 9cbf 67df 11bf 38e7 4abe 77d7 bbbf
000001f0: 7f12 733f 9910 333d 18fc 5cbf b271 48c0
00000200: 63aa 003f 4863 13c0 9cbd 7ebf 9851 6fbe
00000210: 1221 473e 7808 08bf 2698 a13f dcb6 6d3f
00000220: 61d1 553f b3d8 133f 0221 db3e 9e20 bcbf
00000230: 9bcc 813f e811 453f 9509 98bf 66d3 a4bf
00000240: c6e9 b0bd c52c 01bf 2452 92bf fe84 e4bd
00000250: b54f 9fbf b855 4cbf 1452 0bbd 3653 f73e
00000260: c93f 573f bfb6 403f f2a1 1a3f ff60 12bf
00000270: b774 25c0 4199 6fbf c8db 5a3e 024d e4be
00000280: 2ff0 4ebf f392 e6be 8843 6f3f 8507 813f
00000290: b4c4 8f3f 2346 77bf 17ae aa3f aca4 a53f
000002a0: 27ee 00c0 096d 83bf fc4e 703f c03f 51bf
000002b0: 3ed3 1dbe ce4c dcbf 2828 34bf ef5a 253f
000002c0: e3a9 67bf 9b94 e33d 902e 4f3e b49f 0cbe
000002d0: a098 2abe f245 81bd 286b abbf 6937 0cbf
000002e0: c62c 003e 0422 98bf 356a 8dbf 467d ab3e
000002f0: cb49 97be e0df 983f ea56 a8bf 3b0a 02bf
00000300: 5ac2 b43d bf8e 8f3f 3d0c f03f 4173 793d
00000310: 0154 7b3f 6571 0b3f f823 193f 5023 89bd
00000320: b4e9 c93d fa85 983f ce98 16bf 169b f43f
00000330: b4d1 da3f 9102 3abf af9a 553c ce63 9bbf
00000340: 8497 62bf 0fbd 0bbf 9031 293f 94cd 8c3d
00000350: 10b5 aebe 2cc5 1e40 08a7 8bbe dc12 03c0
00000360: e7f6 9fbf e409 b5bf 54ed 21bf dd9f 15bf
00000370: 53a9 c2bf 5a56 e13e c964 88bf e7ad 833f
00000380: 4302 25bf d340 ca3e b174 bebb 9a22 623f
00000390: 176b 0e3d 83a1 133f 5971 033f f400 3140
000003a0: b1be 82be 1ffe bdbf fe30 9b3e f780 1c3f
000003b0: 797b a9bf 32fb 7abf 6baa 0b3f 6a67 633f
000003c0: 987c 0340 ac84 a6bf 9a0b 7b3e 329e d8bf
000003d0: 1ad0 29bf 38d2 80be ce23 4e3f acf0 483f
000003e0: 91c0 e9be 2ea3 dfbd d89f ea3e ed1e 433f
000003f0: 9afb 9e3e dc5f 63bf c58b 98bf ec67 0240

noise f4 [1, 1, 32, 32]
-0.64380413 0.7970034 -1.4417423 -1.3155019 1.3383715 0.74632627 -0.44228438 -0.53001523
-0.2630159 -0.5651264 -0.18410677 0.47873035 -0.52213955 0.7544084 -0.82487154 0.37721846
0.95041955 -0.39084622 -0.36453095 -1.935028 2.358859 -0.6352737 -0.9713971 1.0047696
-0.7506885 0.1861747 -0.22784407 1.900081 1.5265696 -0.18921566 -1.5401704 1.1816295
0.19514668 -1.0139744 0.21102048 1.1297278 0.12258118 -0.75039464 1.7620102 1.0241488
-0.2914165 0.09200658 0.0825956 0.51486117 -0.045863666 -0.9028784 2.5903718 -0.7355284
-0.5171238 -0.98875564 -0.7482683 1.3978299 0.6681043 0.30205306 0.0904905 -1.0816442
1.6079696 -0.6617573 -0.34820417 -0.14075607 0.30699754 0.13786837 -1.4694444 0.28750336
1.6231635 0.7879077 2.8608646 -0.55254304 0.6407727 1.0027257 0.19277012 -1.064949
-1.0887414 0.5362596 1.194201 0.2420215 -1.1247922 -0.073723 0.52824694 -0.04177692
-0.30714157 -1.2310605 1.942856 -0.32613227 0.37061778 0.44393837 0.5131719 -0.50032693
0.045899145 0.8379132 -1.2448169 1.0527822 -1.2874987 1.8004959 -0.23094326 0.29282278
0.3592988 0.8344607 1.2880867 0.27120808 0.23686104 -0.8061578 1.4909934 0.5811209
-1.1210867 -0.97028965 -0.4081353 -0.43456575 -0.07457256 -1.2385815 -0.13739486 0.40312174
-0.21252476 -0.030669548 -0.104685605 0.26839498 -1.620985 1.4168152 -0.9920711 -2.4590037
-2.4161737 -0.6986902 -1.1117373 -2.4950635 1.4373077 -1.030651 0.42795435 -0.37567782
0.21132767 -0.5490798 -2.429761 0.334886 -0.4269141 0.11252671 0.44982228 0.448645
-1.0131898 1.8171955 0.7852701 -1.0152235 0.30994952 -1.1493279 0.8286783 0.56256175
-0.8647748 -1.5530429 0.8670733 1.0868844 -0.38713804 -0.9055461 -0.6858029 0.30731934
1.6996661 0.69682175 1.1267843 -0.016342716 -0.62294084 -2.3133936 1.1692077 0.6737683
0.0630373 0.57569605 -1.8214693 -1.0307224 1.1182013 1.5439411 -0.18479829 -0.95552784
1.1679099 -0.16176476 -0.96273196 0.15154965 1.2571002 0.0034581097 0.41464773 -0.07315211
-0.020984178 -0.13808255 -0.23224816 -0.51130664 -0.18495578 1.4390899 0.38027596 -0.82233447
0.7975381 0.34085822 0.5833489 0.357148 -0.65895545 1.3642906 -0.7301569 -0.074537344
0.36323848 0.7884634 -0.8434966 -1.0722193 -0.2197944 -1.2447828 1.2692597 -2.5767636
-1.936823 -0.56018555 -0.6774442 -1.1004875 1.3668389 1.9149456 -0.07181706 -0.32277137
0.01685618 -0.9285486 1.105447 0.67014605 -0.13508688 0.03626853 -0.66716194 2.187988
-1.4952785 -0.88099813 -0.6023544 -1.0313929 -0.9957667 0.013896174 3.0696404 -1.0159453
-0.045683276 -0.2334009 -1.6658698 -0.4403582 -1.4046565 0.5567969 0.58363295 -0.42502812
0.3103152 0.17742583 -0.44849968 -0.38560468 0.031110406 0.98525524 1.1571068 0.2917115
0.054316945 -0.17745313 -1.7672327 -0.46063927 -1.7133578 -0.13491632 -0.95616704 2.7618923
0.28847644 0.44557488 -0.23611125 -1.0831338 -0.44294545 -0.7483456 2.0331159 0.71896374
00000000: 59d0 24bf 6a08 4c3f 038b b8bf 5e62 a8bf
00000010: c24f ab3f 3d0f 3f3f 1973 e2be 14af 07bf
00000020: 05aa 86be 20ac 10bf 7c86 3cbe 251c f53e
00000030: f0aa 05bf e920 413f c82a 53bf c722 c13e
00000040: b24e 733f ff1c c8be cda3 babe ffae f7bf
00000050: 8cf7 1640 4ca1 22bf 7bad 78bf 4a9c 803f
00000060: 1f2d 40bf 95a4 3e3e f54f 69be db35 f33f
00000070: a266 c33f c0c1 41be 4e24 c5bf a33f 973f
00000080: 88d4 473e eac9 81bf c115 583e ec9a 903f
00000090: d70b fb3d dd19 40bf 8d89 e13f 4f17 833f
000000a0: 8b34 95be f26d bc3d e227 a93d f1cd 033f
000000b0: 8adb 3bbd 0a23 67bf a7c8 2540 974b 3cbf
000000c0: 3a62 04bf 171f 7dbf 838e 3fbf 17ec b23f
000000d0: e208 2b3f b3a6 9a3e 1553 b93d 5173 8abf
000000e0: f3d1 cd3f ed68 29bf d147 b2be 5c22 10be
000000f0: c82e 9d3e 5e2d 0d3e c116 bcbf a433 933e
00000100: d2c3 cf3f 52b4 493f 6818 3740 7673 0dbf
00000110: ae09 243f 5159 803f 8865 453e 4050 88bf
00000120: e15b 8bbf 4f48 093f 94db 983f 7cd4 773e
00000130: 31f9 8fbf 16fc 96bd 313b 073f 471e 2bbd
00000140: a941 9dbe 6493 9dbf 81af f83f cffa a6be
00000150: 9dc1 bd3e e44b e33e 3c5f 033f 6d15 00bf
00000160: be00 3c3d 7b81 563f 2956 9fbf 91c1 863f
00000170: c2cc a4bf a676 e63f 647c 6cbe deec 953e
00000180: 03f6 b73e 379f 553f 06e0 a43f c9db 8a3e
00000190: b38b 723e 5c60 4ebf dfd8 be3f 57c4 143f
000001a0: c57f 8fbf e764 78bf 1cf7 d0be 677f debe
000001b0: 80b9 98bd d789 9ebf 3db1 0cbe f965 ce3e
000001c0: 17a0 59be b43e fbbc 6865 d6bd 116b 893e
000001d0: 707c cfbf 335a b53f 5ff8 7dbf 5160 1dc0
000001e0: 97a2 1ac0 5cdd 32bf 684d 8ebf 1faf 1fc0
000001f0: b3f9 b73f 5fec 83bf d51c db3e d858 c0be
00000200: 4866 583e 7e90 0cbf 3481 1bc0 2e76 ab3e
00000210: 7c94 dabe 6774 e63d 1b4f e63e ccb4 e53e
00000220: 34b0 81bf dd99 e83f 7607 493f d8f2 81bf
00000230: b4b1 9e3e 2d1d 93bf 4324 543f 0c04 103f
00000240: e261 5dbf 1cca c6bf 84f8 5d3f 071f 8b3f
00000250: f536 c6be dfd1 67bf c790 2fbf f658 9d3e
00000260: a98e d93f e962 323f 783a 903f 29e1 85bc
00000270: 0d79 1fbf a40e 14c0 99a8 953f 147c 2c3f
00000280: b319 813d d160 133f e825 e9bf b6ee 83bf
00000290: 3821 8f3f dd9f c53f c33b 3dbe 799d 74bf
000002a0: 127e 953f a9a5 25be 9a75 76bf d52f 1b3e
000002b0: a9e8 a03f 74a1 623b b54c d43e c6d0 95bd
000002c0: 03e7 abbc 8365 0dbe 76d2 6dbe fee4 02bf
000002d0: 0c65 3dbe 1934 b83f 88b3 c23e 8384 52bf
000002e0: 752b 4c3f f884 ae3e 5a56 153f 1adc b63e
000002f0: 4eb1 28bf 13a1 ae3f 90eb 3abf 09a7 98bd
00000300: 65fa b93e bdd8 493f 65ef 57bf 7b3e 89bf
00000310: c811 61be 0b55 9fbf 1a77 a23f b2e9 24c0
00000320: d1e9 f7bf 5268 0fbf fc6c 2dbf c6dc 8cbf
00000330: 94f4 ae3f f01c f53f d314 93bd 4a42 a5be
00000340: f915 8a3c 5cb5 6dbf 4a7f 8d3f b18e 2b3f
00000350: 3754 0abe 4f8e 143d 20cb 2abf ff07 0c40
00000360: 4965 bfbf 1889 61bf e633 1abf af04 84bf
00000370: 91ea 7ebf c7ac 633c fd74 4440 7f0a 82bf
00000380: 631e 3bbd a500 6fbe 393b d5bf a176 e1be
00000390: c9cb b3bf 3e8a 0e3f f868 153f 499d d9be
000003a0: a2e1 9e3e 1eaf 353e c0a1 e5be fa6d c5be
000003b0: 40db fe3c b039 7c3f 131c 943f 365b 953e
000003c0: 727b 5e3d 46b6 35be ae34 e2bf e9d8 ebbe
000003d0: 4f4f dbbf 8127 0abe 5dc7 74bf d8c2 3040
000003e0: 2fb3 933e 6422 e43e 26c7 71be 21a4 8abf
000003f0: bfc9 e2be 9493 3fbf 921e 0240 020e 383f

noise f4 [1, 1, 64, 64]
0.69520473 -0.28736782 -1.1310214 -1.2473047 0.23582116 0.31635338 -1.285052 1.5322437
-0.24640214 -0.7116487 -0.55485773 2.068598 1.0345201 -0.18136145 -0.10626997 -0.92051977
-0.7618808 0.19205193 0.16651225 0.09180806 -0.9230372 -0.9802573 -0.15329427 -0.19844273
-0.4071117 0.7886528 1.3502761 0.5135875 2.8290217 -1.5790683 -0.29607174 0.9853783
-0.16353433 0.17400102 0.46534127 2.0616903 0.52625716 0.7472736 -0.7059282 -0.47687683
0.88961214 0.7681437 0.21501455 -0.901565 -0.6207527 -0.16060506 -0.03812625 0.8654128
-0.20106317 0.6155727 -1.056827 -0.81593984 -0.82562816 -0.06546519 -1.3262056 2.5201957
-1.304368 1.431794 -2.3628027 -0.20501941 1.936999 0.7941922 1.6751912 -1.4114655
0.57764935 1.0313971 0.8838963 -1.4451071 1.8967792 -1.5285149 -0.1808515 0.27891997
0.20223653 0.91637 -0.4666389 0.61370814 -0.55813855 -0.84833103 0.07546765 -0.01024005
0.77394974 -0.7477467 -2.3767889 -1.3183073 -0.5934748 -2.2243218 0.41038457 -0.07991101
-0.6180036 -0.30152863 1.6890167 -0.43891382 -0.4842419 0.40025973 -0.36694396 -1.9548954
-2.1044283 0.32970822 1.4460691 -0.072332256 0.02303243 -0.7397175 -0.94603866 0.5955335
-0.6176704 0.2074136 1.2259504 -0.35985267 -1.230253 -0.65331674 -1.2132881 -1.2199255
1.8128716 -1.657325 2.1905963 0.15174246 0.5396406 -0.37229416 -0.21591508 0.32735544
0.052479226 -0.92855024 -1.8677347 -0.71513486 1.5404449 0.64099085 0.22255749 0.38269356
-0.14791165 -0.35022622 -0.14730373 -1.662538 0.04031956 2.1414354 0.65135944 -0.7445562
0.08630688 0.0067611886 1.3634133 -0.025225706 -0.6558136 0.78727853 0.9232879 -0.44630978
2.054131 -1.0240532 -0.009813789 -1.87988 -0.63254064 -0.038272988 -0.3624074 1.4175041
-0.4505448 -0.14511894 1.369953 1.0171566 -0.37451074 -0.1791018 0.15725188 0.3758761
-0.049634606 -0.84527034 0.28350586 -0.46118805 -0.8812011 -1.2121974 -0.28271475 1.0811228
1.6149355 -0.1934206 -0.24525064 0.6131816 0.31606287 0.11677031 -2.3676527 0.18801631
-1.1796142 0.15331158 -0.95913315 -0.24986841 -1.4335835 0.29844823 0.013027079 0.41975617
0.18387955 0.4395219 -1.2252102 -0.17577244 -1.0319324 0.0990003 0.22097059 -1.4538093
-0.15963076 -0.19107234 0.051659003 1.2201327 0.69696206 -0.9155599 0.580768 -1.016727
0.63692844 -1.0839357 -0.5247411 -2.6585102 -0.9468001 1.1366177 0.19148776 -0.56628746
-0.06141735 -0.9595923 0.7526311 1.5495713 -3.035911 -0.11717057 -0.20162177 -0.1236318
-0.4846154 0.11364011 0.09085234 -0.45273203 1.3768166 0.21824458 -0.7942956 0.19574673
-0.5823646 -0.7024092 -0.06916601 -0.07145752 -0.20892234 -1.8256541 -1.0111272 -0.022351922
-0.56710494 -1.2459017 0.11018182 0.18214089 -1.7038386 -0.0036261107 0.90209174 -0.5058855
2.1229715 2.1790466 -0.33522773 -1.6947452 0.02327075 0.6762821 1.2214266 -0.64522547
-0.028170321 -0.75416875 -0.35031652 -0.3585379 -0.011490826 1.6463522 1.1053768 -0.08796244
00000000: f0f8 313f e021 93be 4fc5 90bf aea7 9fbf
00000010: 1a7b 713e 12f9 a13e 957c a4bf 9020 c43f
00000020: d850 7cbe 9c2e 36bf 280b 0ebf e963 0440
00000030: 286b 843f d1b6 39be 12a4 d9bd 2fa7 6bbf
00000040: 9f0a 43bf 43a9 443e 3082 2a3e dd05 bc3d
00000050: 2a4c 6cbf 24f2 7abf 2cf9 1cbe 9234 4bbe
00000060: f270 d0be 26e5 493f d9d5 ac3f 787a 033f
00000070: b10e 3540 e91e cabf b796 97be c141 7c3f
00000080: 8b75 27be 532d 323e 3641 ee3e bcf2 0340
00000090: cab8 063f 534d 3f3f b6b7 34bf 3329 f4be
000000a0: 9fbd 633f 11a5 443f c62c 5c3e f7cc 66bf
000000b0: a6e9 1ebf a775 24be 452a 1cbd b18b 5d3f
000000c0: 81e3 4dbe 2c96 1d3f 1b46 87bf 6fe1 50bf
000000d0: 5e5c 53bf 9d12 86bd 1bc1 a9bf e34a 2140
000000e0: 88f5 a6bf 0745 b73f 2938 17c0 9cf0 51be
000000f0: 95ef f73f 2e50 4b3f aa6c d63f e7aa b4bf
00000100: d4e0 133f d204 843f 0747 623f 45f9 b8bf
00000110: a9c9 f23f 60a6 c3bf 2331 39be 99ce 8e3e
00000120: 1817 4f3e 3997 6a3f 4beb eebe fa1b 1d3f
00000130: 2be2 0ebf 392c 59bf c98e 9a3d e2c5 27bc
00000140: 9221 463f 546c 3fbf 4f1d 18c0 4bbe a8bf
00000150: f7ed 17bf 4a5b 0ec0 ed1d d23e 62a8 a3bd
00000160: 7c35 1ebf f661 9abe b331 d83f 50b9 e0be
00000170: 8eee f7be d8ee cc3e 14e0 bbbe 033a fabf
00000180: f4ae 06c0 84cf a83e cb18 b93f ef22 94bd
00000190: 82ae bc3c 205e 3dbf 972f 72bf e274 183f
000001a0: a61f 1ebf 3b64 543e f1eb 9c3f 9c3e b8be
000001b0: ee78 9dbf c43f 27bf 064d 9bbf 8526 9cbf
000001c0: 2d0c e83f 3a23 d4bf bb32 0c40 6062 1b3e
000001d0: e325 0a3f 579d bebe d818 5dbe 229b a73e
000001e0: 75f4 563d 78b5 6dbf ee11 efbf 1413 37bf
000001f0: 4c2d c53f fa17 243f 1ce6 633e 69f0 c33e
00000200: 2776 17be da50 b3be cad6 16be 0cce d4bf
00000210: 1f26 253d 470d 0940 7ebf 263f 3c9b 3ebf
00000220: a9c1 b03d f68c dd3b 5484 ae3f 24a6 cebc
00000230: 66e3 27bf 168b 493f 995c 6c3f b782 e4be
00000240: e276 0340 2d14 83bf 04ca 20bc e89f f0bf
00000250: 2fee 21bf 23c4 1cbd 768d b9be c670 b53f
00000260: cfad e6be 0f9a 14be 9f5a af3f 3032 823f
00000270: dfbf bfbe 7666 37be a306 213e d572 c03e
00000280: a84d 4bbd a363 58bf ae27 913e d720 ecbe
00000290: 6596 61bf 4929 9bbf fdbf 90be 3b62 8a3f
000002a0: 35b6 ce3f 0d10 46be fc22 7bbe 78f9 1c3f
000002b0: fed2 a13e 4625 ef3d 9f87 17c0 5987 403e
000002c0: 99fd 96bf b6fd 1c3e c089 75bf 81dd 7fbe
000002d0: aa7f b7bf 35ce 983e 886f 553c 48ea d63e
000002e0: ec4a 3c3e 0409 e13e b0d3 9cbf b1fd 33be
000002f0: 5c16 84bf abc0 ca3d 1d46 623e 6c16 babf
00000300: 3f76 23be 78a8 43be 6498 533d 4f2d 9c3f
00000310: 1b6c 323f 2262 6abf 36ad 143f 1c24 82bf
00000320: be0d 233f 68be 8abf 6f55 06bf 0825 2ac0
00000330: 7e61 72bf b07c 913f 5e15 443e 37f8 10bf
00000340: c290 7bbd d7a7 75bf 6fac 403f 5a58 c63f
00000350: 5e4c 42c0 20f7 efbd f075 4ebe ab32 fdbd
00000360: 821f f8be 25bc e83d cb10 ba3d 7ecc e7be
00000370: 873b b03f 827b 5f3e f556 4bbf d571 483e
00000380: d915 15bf 17d1 33bf e9a6 8dbd 5258 92bd
00000390: bdef 55be 09af e9bf 9e6c 81bf 611b b7bc
000003a0: ca2d 11bf b579 9fbf 02a7 e13d 2483 3a3e
000003b0: 6217 dabf 0ba4 6dbb 7cef 663f b681 01bf
000003c0: c4de 0740 8075 0b40 f8a2 abbe 69ed d8bf
000003d0: 4da2 be3c d320 2d3f b557 9c3f 7f2d 25bf
000003e0: 72c5 e6bc 3411 41bf b05c b3be 4892 b7be
000003f0: 0444 3cbc abbb d23f fd7c 8d3f a725 b4bd
