examples/samples/5.pt (torch_old, 731568 bytes, 15 tensors)

w f4 [512]
0	0x3d6cfb12	0.057856627
1	0xbf69fb1b	-0.9139878
2	0xbe691bee	-0.2276456
3	0x3ea0c0d0	0.31397104
4	0x3e5fa594	0.21840507
5	0xbdd1129f	-0.1020863
6	0x3e2d473d	0.16921706
7	0xbf3ebe8f	-0.7450952
8	0x3e2c06a8	0.16799414
9	0xbcb756f2	-0.022380326
10	0xbe936be3	-0.2879325
11	0xbf02ee37	-0.51144737
12	0x3f339af0	0.7015829
13	0xbe71802e	-0.23584053
14	0x3efefd6e	0.49802727
15	0xbedd5cb3	-0.43234786
16	0x3f3866fd	0.7203215
17	0xbec97290	-0.39345217
18	0x3ec936d2	0.39299637
19	0x3f5d217a	0.86379206
20	0x3f165135	0.5871766
21	0xbe198da1	-0.14995433
22	0x3f1f7790	0.6229181
23	0x3f6a5ed1	0.9155093
24	0x3f85542a	1.041631
25	0x3f50ec9b	0.8161103
26	0x3eaba7f7	0.33526585
27	0x3eabc589	0.33549145
28	0x3eb9f1f7	0.36317417
29	0x3e284f41	0.16436483
30	0x3ed67f16	0.41893834
31	0x3d191d44	0.037381425
32	0x3ed517c8	0.41619706
33	0x3e6d0371	0.23145844
34	0xbeb19430	-0.3468337
35	0xbed03327	-0.40664026
36	0x3f0e66c3	0.5562555
37	0x3f8a2433	1.0792297
38	0xbc2d5674	-0.010579694
39	0xbf132667	-0.5748047
40	0xbee22639	-0.44169787
41	0xbf0dfeed	-0.5546711
42	0x3e2c774a	0.1684238
43	0x3e8291e4	0.2550193
44	0xbdccdcf6	-0.100030825
45	0xbe6c7a3b	-0.23093502
46	0x3f2d10fd	0.6760405
47	0x3dcfe3c7	0.10150867
48	0x3ee0ed64	0.43931115
49	0x3ee8cf76	0.4547078
50	0x3dab23bc	0.08356425
51	0xbe1352e9	-0.14387096
52	0x3ed16f66	0.40905303
53	0x3fac8da3	1.3480724
54	0x3e42109b	0.18951647
55	0x3ec3158f	0.38102385
56	0xbd560f54	-0.05226071
57	0x3f3939a9	0.7235361
58	0x3f2185a9	0.63094574
59	0x3f57735c	0.841604
60	0xbe565d27	-0.20933972
61	0x3dbd5981	0.09245587
62	0x3eae5e85	0.34056488
63	0x3eff783e	0.49896425
64	0xbccc46a9	-0.024936037
65	0x3f8b0658	1.0861311
66	0x3f1deeb0	0.61692333
67	0xbec9790f	-0.39350173
68	0x3ed1042b	0.40823492
69	0x3f1f3f36	0.6220583
70	0x3f04f3b9	0.5193439
71	0xbcbcd1de	-0.023049291
72	0x3edc4c52	0.43026978
73	0x3eafd658	0.3434322
74	0x3e073cef	0.13206838
75	0x3e1124ed	0.14174242
76	0xbe38c2d4	-0.18043071
77	0x3f4bbd60	0.7958584
78	0x3e0dd7fc	0.13851923
79	0x3f5cc8ac	0.862437
80	0x3f9c9029	1.2231494
81	0x3d9aa297	0.07550543
82	0x3f0fae26	0.56125104
83	0x3df244d5	0.11829535
84	0x3ef886fb	0.48540482
85	0x3ea2a3f4	0.3176571
86	0x3e1fdac1	0.15610792
87	0x3f5eeeee	0.8708333
88	0xbea68455	-0.32522836
89	0xbef43c71	-0.47702363
90	0xbe9f9756	-0.31170148
91	0xbd8f2509	-0.06989486
92	0xbec35a91	-0.38155034
93	0xbee8053d	-0.45316496
94	0x3e399848	0.18124497
95	0x3f017428	0.50567865
96	0x3e2f3ade	0.171123
97	0xbd631e15	-0.05544861
98	0x3eb28715	0.34868684
99	0x3f76b3d6	0.9636816
100	0x3f260390	0.64849186
101	0x3e8a1b5e	0.26974005
102	0x3e345fdd	0.17614694
103	0x3f023311	0.5085917
104	0x3ef81278	0.4845159
105	0x3e540481	0.20704843
106	0xbe8ea475	-0.27859846
107	0x3f557a3e	0.8338965
108	0x3da9e432	0.08295478
109	0xbd8ddca1	-0.06926847
110	0xbe0d5ee6	-0.13805732
111	0x3f34055c	0.7032068
112	0xbd56761f	-0.052358743
113	0x3f17bc30	0.59271526
114	0xbe4c578f	-0.19955276
115	0x3e6b0f6f	0.22955106
116	0xbe48d524	-0.19612557
117	0xbd85bace	-0.06529771
118	0xbe0e992c	-0.13925618
119	0xbbf7ff79	-0.0075682965
120	0x3e245fb4	0.16052133
121	0x3f419292	0.75614274
122	0xbe99cd79	-0.30039576
123	0xbe68a4c3	-0.22719102
124	0x3f3d5212	0.73953354
125	0xbea37185	-0.31922546
126	0xbe8ad060	-0.27112103
127	0x3e77589e	0.24154899
128	0xbe31934f	-0.1734135
129	0x3d5a2f0b	0.05326752
130	0x3e96836e	0.29397148
131	0xbf27d03a	-0.65552104
132	0x3e82c091	0.25537542
133	0x3ebd43a5	0.3696567
134	0x3ead54a6	0.33853644
135	0x3f4c4960	0.7979946
136	0x3ee96b3a	0.4558962
137	0x3f5d491b	0.86439675
138	0x3ef9e648	0.48808503
139	0x3ee50a39	0.44734362
140	0xbd92b4b4	-0.07163373
141	0x3ed326ac	0.41240442
142	0x3ed1ceac	0.4097799
143	0xbdd753f8	-0.10514063
144	0xbe6d1a7e	-0.23154637
145	0x3d7bfb04	0.061518684
146	0x3eedb8d8	0.46430087
147	0x3ed90182	0.42383963
148	0x3ed98e6e	0.42491478
149	0x3e935d01	0.28781894
150	0x3f466841	0.7750283
151	0x3f87a895	1.0598322
152	0x3d3a5611	0.045492236
153	0x3ebd2ab4	0.36946642
154	0xbd2896d3	-0.041159462
155	0x3f2d7faa	0.67772925
156	0x3e8703ca	0.26370078
157	0xbe3be1df	-0.18347882
158	0xbe7fdd65	-0.24986799
159	0x3ed5d844	0.4176656
160	0xbd933dfe	-0.071895584
161	0x3d98db0a	0.074636534
162	0xbe4e1935	-0.20126803
163	0x3eda2c84	0.42612088
164	0x3ee9ef9c	0.4569062
165	0x3f4bfb3e	0.7968024
166	0xbe6901a3	-0.2275453
167	0x3d16fb94	0.036861017
168	0xbd4be416	-0.049778067
169	0xbda88e45	-0.08230261
170	0x3e5ed2dd	0.21760125
171	0x3f8682d2	1.0508673
172	0x3e9dfd8b	0.308575
173	0x3ce68717	0.028140588
174	0x3dbe15b8	0.09281486
175	0x3f1e0639	0.61728245
176	0x3db9ca91	0.090718396
177	0x3ec9e196	0.3942992
178	0x3db3feaa	0.08788808
179	0x3f800498	1.0001402
180	0xbf08cc53	-0.53436774
181	0x3fb726aa	1.4308674
182	0x3e3588e0	0.17727995
183	0x3f298a9e	0.6622714
184	0x3e0bbd9d	0.1364655
185	0x3f9ea58b	1.239427
186	0xbe13f555	-0.14449055
187	0xbe8ff520	-0.28116703
188	0xbef8720e	-0.48524517
189	0x3f1e61cd	0.6186798
190	0x3d8ad4ba	0.067788556
191	0xbc0a0443	-0.008423868
192	0x3f87f1b5	1.0620638
193	0xbf0a5e13	-0.54049796
194	0xbe5f8a0b	-0.21830003
195	0xbeaf92ca	-0.3429168
196	0x3f522b63	0.8209745
197	0x3ef3a04c	0.47583234
198	0xbe8cd920	-0.27509403
199	0x3c0e907f	0.008701443
200	0xbe69bded	-0.22826357
201	0xbeae4790	-0.34038973
202	0xbec2e43b	-0.3806475
203	0x3f96f6e4	1.1794095
204	0x3f3c5cb0	0.7357893
205	0x3ea0252f	0.3127837
206	0xbe6c5d71	-0.2308252
207	0xbeecf355	-0.46279398
208	0xbd9a14b5	-0.07523481
209	0x3e400157	0.18750511
210	0x3ef86a95	0.48518816
211	0xbeb5368f	-0.35393187
212	0xbe4cf994	-0.20017081
213	0x3ef6af26	0.48180503
214	0x3f356f9e	0.7087344
215	0x3e706fae	0.23480102
216	0x3f09b513	0.5379192
217	0x3ecc480c	0.39898717
218	0x3d10678a	0.035254993
219	0x3ef39ce8	0.47580647
220	0xbe836cb3	-0.25668868
221	0x3e267956	0.16257223
222	0xbf101921	-0.56288344
223	0x3f68b034	0.90893865
224	0x3f251ed1	0.6450015
225	0x3f1e7d47	0.6190991
226	0xbeb83ea4	-0.3598529
227	0x3cd1321a	0.025536586
228	0x3f37b784	0.717644
229	0x3f1ec116	0.62013376
230	0x3dc7c7f3	0.09754934
231	0xbe154b46	-0.14579496
232	0x3f44d319	0.7688461
233	0x3e60fc1c	0.21971172
234	0x3e7de94c	0.24796027
235	0x3ea9538c	0.33071554
236	0x3f4a491d	0.7901781
237	0xbe365a9c	-0.17808002
238	0xbd6bca99	-0.05756626
239	0x3ee65873	0.44989356
240	0x3f01836b	0.5059115
241	0xbecb5254	-0.3971125
242	0xbdf8f7cf	-0.12156641
243	0x3f09052b	0.5352351
244	0x3e50145a	0.20320264
245	0x3f6ddf30	0.9291868
246	0x3e537262	0.20649102
247	0x3b10632e	0.0022031772
248	0x3f0c98d6	0.5492071
249	0xbd5fabd0	-0.054607213
250	0xbe65d350	-0.2244389
251	0x3f0299ef	0.51016134
252	0x3d73fa97	0.059565153
253	0xbf14eb77	-0.5817179
254	0x3e8934e8	0.26798177
255	0xbe6a8b40	-0.22904682

wp f4 [14, 512]
0	0x3e500993	0.20316152
1	0xbf58103c	-0.8439977
2	0x3e3add38	0.18248451
3	0x3d9bd366	0.076086804
4	0x3eacb06a	0.33728343
5	0xbeaea5a5	-0.34110752
6	0xbd1737f4	-0.036918595
7	0xbf3aef88	-0.73021746
8	0x3e5bfa90	0.21482301
9	0x3f03d580	0.5149765
10	0xbea1c663	-0.3159667
11	0x3e4967d5	0.19668515
12	0x3f10df30	0.5659056
13	0xbf0189e7	-0.5060105
14	0x3f33db5b	0.70256585
15	0xbe2136f4	-0.15743619
16	0x3f5f8078	0.873054
17	0x3e8e5bc6	0.27804393
18	0x3e9d30c5	0.3070127
19	0x3eeeb718	0.46624064
20	0x3f5e04c9	0.8672605
21	0x3e65be25	0.22435816
22	0x3f04ad9a	0.51827395
23	0x3f68fa9e	0.9100741
24	0x3f0e5c50	0.5560961
25	0x3f31e516	0.6949018
26	0x3ebba9dc	0.3665303
27	0x3e84efb6	0.25964135
28	0x3ef1adf4	0.47203028
29	0xbe27f0e7	-0.1640049
30	0xbce9ed05	-0.028555403
31	0xbf494f17	-0.78636307
32	0xbe6fdfb1	-0.23425175
33	0xbdc1bb29	-0.09459526
34	0xbf174063	-0.5908262
35	0xbe2ff999	-0.17185058
36	0x3f181b5e	0.5941676
37	0x3f72c491	0.94831187
38	0xbeab17c1	-0.3341656
39	0xbef2a293	-0.4738966
40	0xbccbec54	-0.024892963
41	0xbf056101	-0.5210114
42	0x3cf29337	0.029611213
43	0xbf019610	-0.506196
44	0xbe8452fd	-0.25844565
45	0x3ec9437f	0.39309308
46	0x3f1be984	0.6090319
47	0xbf0789e0	-0.52944756
48	0x3f0a9502	0.5413362
49	0xbdc95a30	-0.09831655
50	0x3f6206da	0.88291705
51	0x3cad5995	0.02116088
52	0xbe041e9b	-0.129023
53	0x3f4cb9e9	0.79971176
54	0xbeb7b1a0	-0.35877705
55	0x3ea1aa55	0.31575266
56	0x3d1c31f3	0.038133573
57	0x3f91c948	1.1389551
58	0x3f028f5e	0.5100001
59	0x3f1f304e	0.6218308
60	0xbdc06d04	-0.09395793
61	0xbf0eaff7	-0.5573725
62	0x3efd6fe3	0.49499425
63	0x3e3aacb0	0.18229938
64	0x3d85c1bc	0.065310925
65	0x3efc03eb	0.4922174
66	0x3e14dfd5	0.1453851
67	0xbe7ce5ae	-0.24696991
68	0x3ca1e802	0.01976395
69	0x3f181034	0.59399724
70	0x3f2744f3	0.65339583
71	0xbc8f4d55	-0.01749293
72	0x3e4c5e71	0.19957902
73	0x3e996a3a	0.29963857
74	0x3ea3c350	0.3198495
75	0xbe778166	-0.24170455
76	0xbec77769	-0.3895829
77	0x3f86de2b	1.053655
78	0x3e7a00e0	0.24414396
79	0x3f690664	0.91025376
80	0x3f92dd02	1.1473696
81	0x3e4ea581	0.20180322
82	0x3ea5ac1c	0.32357872
83	0xbe7801dd	-0.24219461
84	0x3f120d30	0.5705137
85	0x3eed6af8	0.46370673
86	0xbd2a0b00	-0.041514397
87	0x3ead3022	0.33825785
88	0xbe8dedc2	-0.27720457
89	0xbebed982	-0.3727532
90	0xbeba225a	-0.36354333
91	0x3f02b63a	0.51059306
92	0xbe1372f1	-0.14399315
93	0xbf1b3d00	-0.60639954
94	0xbf9eead9	-1.241542
95	0x3ed4cbd5	0.41561761
96	0xbe6af754	-0.2294591
97	0xbeba7047	-0.36413786
98	0x3d28e37c	0.04123257
99	0x3f15d796	0.58532083
100	0x3f11e054	0.5698292
101	0x3f5213de	0.82061565
102	0xbe81237d	-0.25222388
103	0x3f9330d6	1.1499279
104	0xbe0e717a	-0.13910475
105	0x3f46c05a	0.77637255
106	0xbf8d7810	-1.1052265
107	0x3f316693	0.6929714
108	0xbe83d893	-0.2575117
109	0x3dc8d5e4	0.098064214
110	0xbe30e7b7	-0.17275892
111	0x3e516110	0.20447183
112	0xbd8945cf	-0.06702768
113	0x3f1cd0d7	0.61256164
114	0xbdce0757	-0.10059994
115	0x3f5a6460	0.8530941
116	0xbf1c9515	-0.6116498
117	0xbe6a9a4a	-0.22910419
118	0x3e9131ed	0.28358403
119	0xbefd5795	-0.49480882
120	0xbf0d4a85	-0.5519183
121	0x3f3fcd52	0.7492267
122	0xbe4f00be	-0.20215127
123	0xbebc60b5	-0.36792532
124	0x3eb9883f	0.3623676
125	0xbc06873a	-0.008210951
126	0xbea2e44a	-0.31814796
127	0x3f455882	0.7708818
128	0xbf5016ce	-0.812848
129	0x3db53420	0.08847833
130	0x3dbc664a	0.091991976
131	0xbe07299b	-0.13199465
132	0x3ef4fcad	0.47849026
133	0x3f1ff6a8	0.6248574
134	0x3f19ad66	0.6003021
135	0x3f6326f8	0.88731337
136	0x3e0d39eb	0.13791625
137	0x3f446631	0.7671843
138	0x3eb6b330	0.35683584
139	0xbd0d5566	-0.03450527
140	0xbf2efe10	-0.6835642
141	0x3de6cd8a	0.11269672
142	0x3e9e8c8b	0.309666
143	0x3bce5d27	0.0062977257
144	0xbcf02a36	-0.029317003
145	0xbbbf6e06	-0.0058419732
146	0x3f1e4667	0.61826175
147	0x3e7ec56e	0.24880001
148	0x3f1fe8d3	0.62464637
149	0x3dab200e	0.08355723
150	0x3f22c2dc	0.6357858
151	0x3f850658	1.0392561
152	0xbdae0e6a	-0.08498843
153	0xbe7b146a	-0.24519506
154	0x3f0ffec2	0.56248105
155	0x3eaeeb65	0.34163967
156	0x3f103454	0.56329846
157	0xbf09f521	-0.5388966
158	0xbdf5cb9b	-0.12001725
159	0x3f1b0286	0.60550725
160	0xbd586759	-0.052832935
161	0xbe5b0b16	-0.21390948
162	0xbeba5009	-0.36389187
163	0x3f007223	0.5017416
164	0x3ed7eb92	0.42171913
165	0x3f0ca1fe	0.5493468
166	0xbef490c1	-0.47766688
167	0xbf5f8287	-0.87308544
168	0x3e228fb6	0.15875134
169	0xbd62a673	-0.05533452
170	0xbf0d2e65	-0.5514892
171	0x3f4f5c54	0.81000257
172	0x3e8bc859	0.2730129
173	0x3e97175e	0.29510015
174	0x3df3e6a8	0.119092286
175	0x3f137ffa	0.5761715
176	0xbe989e33	-0.29808196
177	0x3f0bcf12	0.5461284
178	0xbea9d844	-0.3317281
179	0x3f436af2	0.7633506
180	0x3d426782	0.047461994
181	0x3f9338c1	1.1501695
182	0x3e986b26	0.29769248
183	0x3f479c2e	0.77972686
184	0x3c0a3e51	0.008437709
185	0x3f75ac92	0.95966446
186	0xbf0908e0	-0.5352917
187	0xbea31540	-0.3185215
188	0xbebe79f8	-0.3720243
189	0x3f7ea2b8	0.9946704
190	0x3eaf0372	0.34182316
191	0x3df6543c	0.12027785
192	0x3f5ea48f	0.86969846
193	0xbedff583	-0.43741998
194	0x3e95624a	0.2917655
195	0xbf4606b4	-0.7735398
196	0x3f45a35c	0.7720239
197	0x3f0005ee	0.5000905
198	0xbf57cc9a	-0.8429657
199	0xbf1d4257	-0.6142935
200	0xbe98958a	-0.2980159
201	0xbde45653	-0.111492775
202	0xbeb1de9d	-0.34740153
203	0x3f2f052d	0.6836727
204	0x3f907944	1.1287007
205	0xbc8a8b80	-0.016912222
206	0xbdca4986	-0.09877305
207	0xbe5a593a	-0.213231
208	0x3d9756b7	0.073895864
209	0x3e6f6ff1	0.23382546
210	0x3ea17dec	0.31541383
211	0xbece1f16	-0.40258092
212	0xbe5dc3e8	-0.21656764
213	0x3f307c61	0.6893979
214	0x3f4b2fac	0.79369617
215	0xbbb034f9	-0.0053774086
216	0x3f00808e	0.5019616
217	0xbd64c5a2	-0.05585254
218	0xbe913b57	-0.28365585
219	0x3dd30f7b	0.10305687
220	0x3f1d5960	0.614645
221	0x3d3723b3	0.04471178
222	0xbe9e0888	-0.30865884
223	0x3f433682	0.7625505
224	0x3e8e8fbb	0.27844033
225	0x3e1efa7f	0.15525244
226	0xbebe9f7e	-0.37231058
227	0x3e832545	0.25614372
228	0x3f428cd9	0.75996166
229	0x3f58f803	0.84753436
230	0x3e8d11d5	0.27552667
231	0xbedd217e	-0.43189615
232	0x3f63deb6	0.89011705
233	0xbe3b173d	-0.18270583
234	0x3d62a49b	0.05533276
235	0x3e9729b8	0.29524016
236	0x3f202753	0.62560004
237	0xbf03cf6c	-0.51488376
238	0xbee1c9fc	-0.44099414
239	0x3e9c9b44	0.30587208
240	0x3f0ffdef	0.56246847
241	0x3e7bcb8e	0.24589369
242	0x3f1f9d67	0.6234955
243	0x3f18647d	0.5952833
244	0x3da53388	0.080664694
245	0x3f5a05c3	0.8516504
246	0x3df72e22	0.12069346
247	0xbe9553fa	-0.29165632
248	0x3f089cc3	0.533642
249	0xbf459931	-0.77186877
250	0x3f1486cb	0.5801818
251	0x3e959e1e	0.29222196
252	0xbe0c09df	-0.1367564
253	0xbe89ce9b	-0.2691544
254	0x3f0183d3	0.5059177
255	0xbf0f5695	-0.5599149

noise f4 [1, 1, 4, 4]
0	0xbedc7a40	-0.4306202
1	0xbe0c0c9b	-0.13676684
2	0xbee15e54	-0.4401728
3	0xbf93e5bd	-1.1554486
4	0xbe161bb3	-0.14659004
5	0x3fa22175	1.266646
6	0xbf994099	-1.1972839
7	0xbf9cbb8e	-1.2244737
8	0x3f07c8a6	0.5304054
9	0x3e87e7f4	0.26544154
10	0x3e7fdae5	0.24985845
11	0x400b779c	2.1791754
12	0xbfa77b7f	-1.3084563
13	0x3f86c7b4	1.0529695
14	0xbe9a1084	-0.30090725
15	0x3f4bd54f	0.7962236

noise f4 [1, 1, 8, 8]
0	0xbf56e0be	-0.8393668
1	0xbe4a50e2	-0.19757417
2	0xbdbbca4c	-0.091694444
3	0x3f6fde8f	0.9369897
4	0x3fbc9082	1.47316
5	0x3e8e4d3c	0.277933
6	0x3f897991	1.0740224
7	0xbf548618	-0.8301711
8	0xbd45e6c1	-0.048315767
9	0xbff141c4	-1.8848195
10	0xbfbc3350	-1.4703159
11	0xbede3221	-0.4339762
12	0x3fbee821	1.491459
13	0x3f78d03b	0.97192734
14	0xbf5101bf	-0.8164329
15	0x3f7151db	0.94265527
16	0xbfa7924a	-1.3091519
17	0xbf5c8dd6	-0.86153924
18	0xbf9ededf	-1.2411765
19	0x3fb19450	1.3873386
20	0x3e945a5a	0.28975183
21	0xbf7257dd	-0.9466532
22	0x3f8faff5	1.1225573
23	0x3fe777ed	1.8083473
24	0xbf5ad3f7	-0.8547968
25	0x400c1b2e	2.189159
26	0xbf2281df	-0.6347942
27	0xbf9c14aa	-1.2193806
28	0x3f32acf1	0.6979514
29	0x3fc55b14	1.541842
30	0xbd870162	-0.065920606
31	0x3f5aee7e	0.8552016
32	0x3f956836	1.1672428
33	0xbf80c016	-1.005862
34	0xbf15c3c3	-0.58501834
35	0xbe2ca117	-0.16858326
36	0xbf882320	-1.0635719
37	0x3f44e18a	0.76906645
38	0xbed2d8e4	-0.411811
39	0x3e0a3f04	0.13500601
40	0x3e29e3aa	0.16590753
41	0xbffcfc45	-1.9764487
42	0x3f40d392	0.7532283
43	0x3f24c46c	0.64362216
44	0x3fe63cb1	1.7987272
45	0xbe8fc6f9	-0.28081492
46	0xbf774fb0	-0.9660597
47	0xbe992d7f	-0.29917523
48	0x3ebe545a	0.3717373
49	0xbf66f1d0	-0.90212727
50	0x3f17f47b	0.5935742
51	0xbec02f21	-0.37535957
52	0xbea88caf	-0.32919833
53	0xbf405884	-0.75135064
54	0xbf2eff53	-0.68358344
55	0x3e0afc28	0.13572752
56	0x3ed8a99e	0.42316908
57	0x3fd31840	1.6491776
58	0x3ebf634e	0.3738045
59	0xc000f54c	-2.0149717
60	0xbe8fb7cd	-0.28069916
61	0xbf15e9bc	-0.58559775
62	0x3ed4d59e	0.41569227
63	0xbcf30746	-0.029666554

noise f4 [1, 1, 8, 8]
0	0xbedb16c6	-0.42790812
1	0xbf477841	-0.7791787
2	0xbd595476	-0.053059064
3	0xbf647d78	-0.8925395
4	0x3f079ae0	0.52970695
5	0xbefadfd8	-0.48998904
6	0xbd293671	-0.041311685
7	0xbf1423ff	-0.57867426
8	0x3efd2158	0.49439502
9	0x400038ea	2.0034738
10	0x3e37acc1	0.17936994
11	0xbf1f8f9a	-0.62328494
12	0xbf554502	-0.8330842
13	0xbf7aebd7	-0.98016113
14	0x3ebee86a	0.37286693
15	0xbf37dc6e	-0.71820724
16	0x3e1b72ae	0.15180466
17	0x3e568e78	0.20952785
18	0xbfc83061	-1.5639764
19	0x3f852eb9	1.0404884
20	0x3ff6c3c5	1.9278494
21	0x3f762a29	0.9615808
22	0x3d995fcc	0.07488975
23	0xbe56eb56	-0.20988211
24	0x4073b371	3.8078272
25	0xbf512567	-0.81697696
26	0x3f09bb98	0.5380187
27	0x3f9a224c	1.2041717
28	0xbe442b16	-0.19157061
29	0x3e52a662	0.20571283
30	0xbe8967e5	-0.26837078
31	0xbfb6aee1	-1.4272119
32	0x3f97846b	1.1837286
33	0x3e225084	0.15851027
34	0xbea60e2e	-0.32432693
35	0xbf29445a	-0.6611992
36	0x3f2e6cf2	0.6813499
37	0x3d4457b0	0.047935188
38	0x3f0c9f25	0.54930335
39	0xbea4fb7f	-0.32223126
40	0x3d87a0c4	0.066224605
41	0x3f6dab7a	0.9283978
42	0xbf6180a1	-0.880869
43	0xbf3115f2	-0.6917411
44	0xc01f18f7	-2.4858987
45	0xbfe7bce7	-1.8104523
46	0xbfa4f69c	-1.2887759
47	0x3de68cb3	0.11257305
48	0x3f8c392b	1.0954946
49	0xbf3625b7	-0.711513
50	0xbef89532	-0.48551327
51	0xbed92386	-0.42409915
52	0x3f96d186	1.1782691
53	0x3e32a1e2	0.17444566
54	0x3f3034db	0.6883065
55	0xbf8cbca7	-1.0995072
56	0x3f13df1c	0.5776231
57	0x3eb9decc	0.36302793
58	0x3e6d5501	0.23176958
59	0x3c1543ce	0.009110404
60	0x3fc303e7	1.5235566
61	0x3db40c0c	0.0879136
62	0x3e0c06ef	0.1367452
63	0xbfb50cdb	-1.4144548

noise f4 [1, 1, 16, 16]
0	0x3dc9cde7	0.09853726
1	0xbf8876b6	-1.0661228
2	0xbf22fda8	-0.636683
3	0xbe8dc3a7	-0.27688333
4	0xc022d16a	-2.5440316
5	0xbe51ac7f	-0.20475958
6	0xbee975cd	-0.45597687
7	0x3fb91b91	1.4461538
8	0xbee90fff	-0.45520017
9	0x3df36f5d	0.11886475
10	0x3fe8589c	1.8152041
11	0xbe2c219b	-0.16809694
12	0xbd55d32a	-0.052203335
13	0x3f3b9826	0.73279035
14	0xbf3f3dd0	-0.74703693
15	0xbe103803	-0.14083867
16	0xbfbfe358	-1.4991255
17	0xbe296228	-0.1654135
18	0x3e50a155	0.20374043
19	0xbecab44b	-0.39590678
20	0x3e8798fd	0.26483908
21	0x403ef154	2.9834795
22	0xbf257dd5	-0.6464513
23	0x3f952f59	1.1655074
24	0x40284f0e	2.629825
25	0xbe80e757	-0.25176498
26	0xbf3973eb	-0.724425
27	0xbed65e1b	-0.41868672
28	0x3f3d9221	0.740511
29	0xbf81add9	-1.0131179
30	0xbf114823	-0.56750697
31	0xbe120f5f	-0.14263676
32	0xbfc46aa8	-1.5345049
33	0xbe85eb87	-0.26156256
34	0x3ffbdb86	1.9676368
35	0x3fd568fb	1.6672662
36	0x3deb4bce	0.11489068
37	0x3df1e5f4	0.11811438
38	0x3ee07cd7	0.43845245
39	0x3f2844b9	0.6572986
40	0x3f22cea9	0.6359659
41	0x3e73158b	0.23738687
42	0x3fa0c327	1.2559556
43	0xbeb7dbcd	-0.35909882
44	0xbf8972e7	-1.073819
45	0xbce1e46a	-0.027574737
46	0x3f29a451	0.6626635
47	0xbfec6102	-1.8467104
48	0xbe08598f	-0.13315414
49	0xbed280f1	-0.41114
50	0x3f5a4ec4	0.85276437
51	0xbf1f2e56	-0.6218008
52	0xc0080455	-2.1252644
53	0xbed029c1	-0.40656856
54	0xc031a657	-2.7757776
55	0xbe3de71b	-0.18545191
56	0x3efdad33	0.49546203
57	0x3e904d27	0.28183863
58	0x3f7d0559	0.98836285
59	0x3e1ac540	0.15114307
60	0x3eb86095	0.36011186
61	0x401c6dfa	2.4442124
62	0x3fe46c5d	1.784557
63	0x3f76203b	0.9614293
64	0xbf10e5ab	-0.56600446
65	0xbf3c5657	-0.73569244
66	0x3eedb30d	0.46425667
67	0x3e658158	0.22412622
68	0xbe6ca437	-0.23109518
69	0x3ea37589	0.3192561
70	0xbf982693	-1.1886772
71	0x3f0f9b3e	0.56096256
72	0x3f3e56e4	0.74351335
73	0xbf5726cc	-0.84043574
74	0x3f813c98	1.0096617
75	0xbfb64d68	-1.4242373
76	0x3ecee2a7	0.40407297
77	0x3fab37e3	1.337643
78	0x3efecd94	0.4976622
79	0xbe3004fd	-0.17189403
80	0xbf6e2237	-0.9302096
81	0xc0059338	-2.0871105
82	0x3e5f6929	0.21817459
83	0xbf5af8da	-0.8553597
84	0xbc01678d	-0.007898224
85	0x3dc8a802	0.0979767
86	0xbe9741bd	-0.29542342
87	0x3f2504ad	0.6446026
88	0x3e0b1643	0.13582711
89	0xbecb6f65	-0.39733425
90	0x3e24d6c5	0.16097553
91	0x3f4398ff	0.7640533
92	0x40011957	2.0171716
93	0x3f350eae	0.70725524
94	0x3fa15f70	1.260725
95	0x3f416597	0.7554564
96	0x3e79f19f	0.24408577
97	0xbf8ad379	-1.0845786
98	0xbf05f2c4	-0.52323556
99	0xbecddaa7	-0.4020588
100	0x3f9aeef6	1.2104175
101	0xbf61ae59	-0.8815666
102	0xbe3694b4	-0.17830163
103	0x3f8573af	1.0425929
104	0xbed6771b	-0.41887745
105	0x3fabd1c4	1.342339
106	0x3f661ab9	0.89884526
107	0x3f1733ff	0.59063715
108	0x3f0da7c5	0.5533412
109	0x3f9cc385	1.2247168
110	0xbe1c3ab0	-0.15256763
111	0xbf2921d2	-0.6606723
112	0x3e162337	0.14661871
113	0x3f9ad208	1.2095346
114	0x3f324c7c	0.69647956
115	0x3e5b9759	0.21444453
116	0xbf8c43d6	-1.0958202
117	0xbec83e31	-0.39109948
118	0x3fa86f6b	1.3159002
119	0xbfc7fb7f	-1.5623626
120	0x3fc4c915	1.5373865
121	0xc003d3b9	-2.0597975
122	0xbfa32dfb	-1.2748407
123	0x3f22e915	0.63636905
124	0xbff19d02	-1.887604
125	0xbf316d0f	-0.69307035
126	0xbfaaebf2	-1.3353255
127	0x3f79b59f	0.97542757
128	0xbf56a8f0	-0.8385153
129	0xbd93f372	-0.07224168
130	0x3f3b49fb	0.7315976
131	0x3f89e21e	1.077213
132	0xbe482207	-0.1954423
133	0x3f1f728a	0.6228415
134	0xbf75b2aa	-0.95975745
135	0x3e6c44ff	0.23073195
136	0x3e431bc7	0.19053565
137	0xbe948cf7	-0.29013798
138	0x3e57003d	0.20996185
139	0x3e87123c	0.263811
140	0xbf1af3c3	-0.605282
141	0x3fdd1c5d	1.7274281
142	0xbfcfa42e	-1.6221979
143	0xbeebfbab	-0.46090445
144	0xbc943312	-0.018090758
145	0xc01638de	-2.347221
146	0xbe8de35d	-0.27712527
147	0xbf1d9d6f	-0.6156835
148	0xbd8f917e	-0.07010172
149	0xbe75e09d	-0.24011464
150	0x3f57fbb3	0.8436844
151	0x3fdd8712	1.7306845
152	0x3f22c546	0.63582265
153	0x3effc10d	0.49951974
154	0xbf85ab27	-1.0442857
155	0xbdc80273	-0.09766092
156	0x3fafd6b5	1.3737398
157	0xbf43e5b5	-0.7652238
158	0xbf238655	-0.6387685
159	0xbffb9eab	-1.9657797
160	0xbfff5faf	-1.9951075
161	0x3dff6f63	0.12472417
162	0xbf89cd8e	-1.0765855
163	0x3f05a1e2	0.5220014
164	0x3e7baa0e	0.2457659
165	0xbf20689c	-0.6265962
166	0x3f55723f	0.8337745
167	0xbf96126d	-1.1724373
168	0xbefcb276	-0.49354905
169	0x40238e68	2.5555668
170	0xbf9b2b3d	-1.212257
171	0x3ead10eb	0.3380197
172	0x3b9eb181	0.0048429375
173	0x3f8102eb	1.0079015
174	0x4004fb5b	2.0778415
175	0xbf5f6b2b	-0.872729
176	0x3d571591	0.0525108
177	0xbe0d0e9f	-0.13775109
178	0x3f6a255a	0.91463244
179	0xbeba60db	-0.3640202
180	0x3fde5f70	1.7372875
181	0xbdf7f8d1	-0.12108005
182	0xbdc0554b	-0.09391268
183	0xbf24a8fb	-0.64320344
184	0x3fe38d5d	1.7777516
185	0xc007d36e	-2.1222796
186	0x3f886313	1.0655235
187	0x3fdb733c	1.7144542
188	0x3f1cc21a	0.61233675
189	0xbf086206	-0.5327457
190	0xbee396a7	-0.44450876
191	0xbf99dcfa	-1.2020562
192	0x3e2e2ee9	0.17010082
193	0xbf2ef5c5	-0.68343765
194	0x3fb30ca8	1.3988237
195	0xbf44d150	-0.76881886
196	0xbf5c7bfb	-0.8612668
197	0x3db254fb	0.08707615
198	0xbf17803d	-0.5918005
199	0x3e787a4d	0.24265404
200	0xbd15599b	-0.036462408
201	0xbe2b06e7	-0.16701852
202	0x3c99c1b0	0.018769115
203	0xbd25d2cf	-0.040484246
204	0xbe75d587	-0.24007235
205	0xbf3d2108	-0.73878527
206	0xbf00fb28	-0.50383234
207	0xbf032433	-0.5122711
208	0x3ec91099	0.39270476
209	0x3f62c4a4	0.885813
210	0xbf4fae0e	-0.8112496
211	0x3f8c7dbc	1.0975871
212	0x3dbbdd47	0.09173065
213	0xbf8da996	-1.1067379
214	0xbfca7907	-1.5818185
215	0x3f85cf3e	1.045387
216	0xbda63fa7	-0.081176095
217	0x3fbc1315	1.4693323
218	0x3d13eac3	0.036112558
219	0xbf483f5c	-0.7822168
220	0x3f4942b8	0.7861743
221	0x3f6c19e3	0.92227
222	0x3d562388	0.05227998
223	0xbfa9db90	-1.327013
224	0x3fcfbc98	1.6229429
225	0xbf0f2a84	-0.5592425
226	0xbf9bdd0a	-1.2176831
227	0xbecd5add	-0.40108386
228	0xbf7a8687	-0.9786152
229	0x3f2d488a	0.6768881
230	0xbeaebcf3	-0.34128532
231	0x3ed31d23	0.41233167
232	0xbf85f5a3	-1.0465587
233	0xbf2b32bb	-0.66874284
234	0x3df61d12	0.120172635
235	0xbf4bd7e8	-0.7962632
236	0xbee6487b	-0.44977173
237	0xbf94c216	-1.162173
238	0x3f7b8abf	0.98258585
239	0x3e76df59	0.24108638
240	0x4018f813	2.3901412
241	0xbf8ecb0d	-1.1155716
242	0x3f061f13	0.52391165
243	0xbfbbcc35	-1.4671694
244	0x3f871f56	1.0556438
245	0x3f0894e1	0.5335217
246	0x3f37d4aa	0.71808875
247	0x3f3c0df8	0.73458815
248	0xbf18caa4	-0.59684205
249	0xbe7fd617	-0.24984013
250	0xbfd24b0b	-1.6429151
251	0x3f1bee2b	0.6091029
252	0xbfb1d204	-1.3892217
253	0xbf4b4e8a	-0.79416716
254	0x3efbb2d6	0.49159878
255	0x3f2560d4	0.64600873

noise f4 [1, 1, 16, 16]
0	0x3fc41731	1.5319577
1	0x3eda3be4	0.42623818
2	0xbdf828bc	-0.121171445
3	0xbff3c2fa	-1.9043877
4	0xbf7f4e1d	-0.99728566
5	0x3eafc734	0.34331667
6	0x3e7c0968	0.24612963
7	0xbf4c3d0a	-0.7978064
8	0x4016ad15	2.354314
9	0xbfb9f502	-1.4527895
10	0x3f194ecf	0.5988588
11	0xbea616cb	-0.32439265
12	0x3fd408cb	1.6565183
13	0xbdc7d040	-0.097565174
14	0xbfea85d2	-1.8322089
15	0xbe8d93e0	-0.27651882
16	0xbf0d31a7	-0.5515389
17	0xbe8fd0f0	-0.28089094
18	0x3f5cdbeb	0.8627307
19	0x3f933f23	1.1503643
20	0x3f927ca9	1.1444293
21	0xbfd1e663	-1.6398433
22	0x3fd120d3	1.6338142
23	0x3ea47132	0.3211761
24	0x3ead61ad	0.33863583
25	0xbf13e517	-0.5777144
26	0xbec0ab7f	-0.3763084
27	0xbf5a615c	-0.8530481
28	0xbfe1506e	-1.760267
29	0xbfb15a61	-1.3855706
30	0xbf3059b2	-0.68886864
31	0x3dc89cbc	0.0979552
32	0x3fd1a628	1.6378832
33	0xbe961c10	-0.29318285
34	0xbf43ff22	-0.76561177
35	0x3f62bc58	0.8856864
36	0xbeed2ba1	-0.4632235
37	0xbf7363b9	-0.9507404
38	0x3ea37170	0.31922483
39	0xbc74a211	-0.014931218
40	0xbf262599	-0.6490112
41	0x3f5d13a0	0.8635807
42	0x3f41a928	0.75648737
43	0x3fd1f995	1.6404291
44	0x3f144c75	0.57929164
45	0xbe0f5016	-0.13995394
46	0x3f437b26	0.76359785
47	0x3f8e8062	1.1132929
48	0x3e11145a	0.1416792
49	0xbf5b1c44	-0.85590005
50	0xbfe9e4f7	-1.8273
51	0x3f04c4dc	0.51862884
52	0x3f23be47	0.63962215
53	0xbefd7bdc	-0.4950856
54	0xbdb33f31	-0.08752287
55	0xc02024f6	-2.502256
56	0x3f468916	0.77552927
57	0x3e7e31c0	0.24823666
58	0xbda55a54	-0.08073869
59	0x3f513afa	0.81730616
60	0xbfb6e567	-1.4288758
61	0xbf891720	-1.0710182
62	0x3ea975c5	0.33097664
63	0x3f2bf0f1	0.6716452
64	0x3d429571	0.0475058
65	0xbf969ab6	-1.1765964
66	0x3fcb77d8	1.5895948
67	0xbec99697	-0.39372703
68	0x3f72b911	0.9481364
69	0xbecb7dd3	-0.39744434
70	0x3ffccab3	1.9749359
71	0x3f952a3c	1.1653514
72	0xbd54e578	-0.05197665
73	0xbe860001	-0.26171878
74	0xbf199cad	-0.60004693
75	0x4022cc0f	2.5437047
76	0x3f23fe97	0.6406035
77	0xbf30311b	-0.6882493
78	0xbe2a770c	-0.16646975
79	0x3fb0a4fb	1.3800348
80	0x3d7316f1	0.05934805
81	0x3fb5e511	1.421053
82	0x3fad75db	1.3551592
83	0x3f200bce	0.6251801
84	0x3eef99cf	0.46797034
85	0x3fa5b880	1.294693
86	0x3f80805d	1.0039173
87	0xbfbe9831	-1.4890195
88	0x3cd631c5	0.026146779
89	0x3f8c50bf	1.0962142
90	0xbe1dead8	-0.15421617
91	0x3eed3d00	0.46335602
92	0xbfe806b3	-1.8127044
93	0xbe8302ae	-0.25587982
94	0x3fcf5074	1.6196427
95	0x3f34da1e	0.7064532
96	0xbf719e5a	-0.9438225
97	0x3f1b74a0	0.6072483
98	0xbfa41f97	-1.282214
99	0xbdd97009	-0.10617072
100	0x3fd23f81	1.642563
101	0x3fbf8ee4	1.4965482
102	0x3f38a715	0.72129947
103	0x3f8b6d5a	1.0892746
104	0xbf96f910	-1.1794758
105	0xbf65b903	-0.8973543
106	0xc012cf1c	-2.293891
107	0xbfe10482	-1.7579501
108	0xbf0bc827	-0.54602283
109	0x3f81ae01	1.0131227
110	0xbe0dac30	-0.13835216
111	0x3ea27efc	0.31737506
112	0x3f3e6755	0.7437642
113	0xbfc7fa23	-1.5623211
114	0x3f130d4d	0.5744217
115	0x3f13cfdb	0.5773904
116	0x3f7da16b	0.9907443
117	0x3f52ea48	0.82388735
118	0xbe2888b0	-0.16458392
119	0x3dce8256	0.10083453
120	0xbea6455e	-0.32474798
121	0x3dab74fa	0.08371921
122	0xbfe8e3e7	-1.819455
123	0x3f3e3598	0.7430053
124	0x3d82090c	0.06349382
125	0x3f08f9bd	0.5350607
126	0xbf948b08	-1.1604929
127	0xbfe3699a	-1.7766602
128	0xbf9f190a	-1.2429516
129	0xbf6aa008	-0.9165044
130	0x3f1e87cc	0.6192596
131	0x3e1e6f64	0.1547218
132	0x3d6f9dd4	0.058500126
133	0x3e25155e	0.16121432
134	0xbfa4080d	-1.2814957
135	0xbf13094b	-0.57436055
136	0x3e0bb880	0.136446
137	0xbf0dda94	-0.5541165
138	0xbf89d5bc	-1.0768352
139	0xbdf6bfea	-0.120483235
140	0x3fd9932a	1.6998036
141	0xbfca3f9a	-1.580066
142	0xbea1d511	-0.3160787
143	0xbd230d01	-0.039807323
144	0x3f6bd2e7	0.92118686
145	0xbf99a4f5	-1.2003466
146	0xbfb45c20	-1.4090614
147	0xbdd7097e	-0.10499857
148	0x3f0934ef	0.53596395
149	0x3f89f6d3	1.077845
150	0xbe729e6c	-0.23693246
151	0xbe493ece	-0.19652864
152	0xbf73fcb1	-0.9530745
153	0xbde53960	-0.11192584
154	0x3f66c7e6	0.9014877
155	0xbeaff947	-0.3436987
156	0x3f120ce4	0.5705092
157	0xbf1061c4	-0.5639918
158	0xbfa929df	-1.3215903
159	0x3fdef489	1.7418376
160	0xbfaa8fde	-1.3325155
161	0xbf8bbfe0	-1.0917931
162	0x3f395008	0.72387743
163	0xbf00ef19	-0.50364834
164	0x3f3a88f1	0.72865206
165	0xbe44c9de	-0.19217631
166	0xbd64596b	-0.055749338
167	0xbf83daf9	-1.03012
168	0x3e27a1a0	0.16370249
169	0xbcabc495	-0.020967761
170	0xbdc07524	-0.09397343
171	0xbe1717fa	-0.1475524
172	0x3f980105	1.1875311
173	0xbc89dbd3	-0.016828453
174	0x3e9f0701	0.3106003
175	0xbcd9c402	-0.026582722
176	0x3dd15fc3	0.10223343
177	0xbf041383	-0.5159227
178	0xbe3c38c4	-0.1838103
179	0xbe5f1d9e	-0.21788642
180	0x3f88697e	1.0657194
181	0xbfe77fef	-1.8085917
182	0x3f88d73f	1.0690688
183	0x3f953b30	1.1658688
184	0xbfa21277	-1.2661885
185	0xbf5b6f61	-0.85716826
186	0x3f6150fc	0.880142
187	0x3fa20621	1.265812
188	0x402eee87	2.7333086
189	0x3f970701	1.1799012
190	0xc0127a0d	-2.2886994
191	0x4003d861	2.0600817
192	0x3f002ef6	0.50071657
193	0x3e631ffe	0.22180173
194	0x3ebed3f1	0.37271073
195	0xbf89e580	-1.0773163
196	0x3fb52385	1.4151465
197	0x3f3865a5	0.720301
198	0xbf8dabf8	-1.1068106
199	0xbd8fbc0a	-0.070182875
200	0xbf99aef3	-1.2006515
201	0x3f5e87ba	0.8692585
202	0xbf3b84dd	-0.7324961
203	0x3c98918a	0.018624086
204	0xbf025389	-0.50908715
205	0xbfd87ae6	-1.6912506
206	0xbf4fef5d	-0.81224614
207	0x3f85b412	1.0445578
208	0xbf3e0442	-0.74225247
209	0xbdd7dcb6	-0.10540144
210	0x3eb5d741	0.35515788
211	0x3f89f026	1.0776412
212	0xbf89b962	-1.0759699
213	0x3f56e7cc	0.83947444
214	0x3e868fa3	0.2628146
215	0x3f2908d9	0.66029125
216	0x40013f3c	2.0194845
217	0xbefea45f	-0.4973478
218	0x3f02b62a	0.5105921
219	0xbf4c7431	-0.79864794
220	0x3ebff2ad	0.37489834
221	0x3ec19713	0.37810573
222	0x3ef8c861	0.48590377
223	0xbf0d6c3b	-0.5524327
224	0x3f6e1f1d	0.93016225
225	0xbf458aaa	-0.7716471
226	0xbe9aa65f	-0.30205056
227	0xbe076aa8	-0.1322428
228	0xbf1b5350	-0.60674
229	0x3ea2f387	0.31826422
230	0x3ecd083a	0.4004534
231	0x3d72d90d	0.059289027
232	0xbe88ebcd	-0.26742402
233	0xc04e8557	-3.2268884
234	0x3d530539	0.051518653
235	0x3f879209	1.0591441
236	0x3e8b7bc3	0.2724286
237	0xbf726a25	-0.94693214
238	0x3f6678f5	0.90028316
239	0xbf085406	-0.5325321
240	0xbe8eb82e	-0.27874893
241	0xbfa83bf9	-1.3143302
242	0x3fd1faf7	1.6404713
243	0xbe061240	-0.130929
244	0xbfdb9284	-1.7154088
245	0x3fa24c99	1.2679626
246	0x3f08b928	0.53407526
247	0x3f0eba41	0.5575295
248	0xbf522edf	-0.8210277
249	0xbd3c54ab	-0.045979183
250	0x3da3e756	0.08003108
251	0x3f47c9b6	0.7804216
252	0xbf97eaa7	-1.1868485
253	0xbef31c6e	-0.47482628
254	0xbf643c75	-0.8915475
255	0xbf4c7c66	-0.79877317

noise f4 [1, 1, 32, 32]
0	0xbf239d0c	-0.6391151
1	0xbe34ab36	-0.17643437
2	0x3ec02cf3	0.37534294
3	0xbec0b02b	-0.37634405
4	0x3fd2bce1	1.6463891
5	0x3f18ea1c	0.5973222
6	0xbfcfd6e7	-1.6237458
7	0xbf71c79c	-0.94445205
8	0x3fc5b546	1.5445945
9	0x400355b0	2.052105
10	0xbed6aa0c	-0.4192661
11	0xbe46dc59	-0.19419993
12	0xc013f5a5	-2.311868
13	0xbf2b61c9	-0.66946083
14	0xbe862a4b	-0.26204142
15	0x3ea4c04c	0.3217796
16	0x3ea472b8	0.32118773
17	0x3f6966b8	0.9117236
18	0xbff8c35a	-1.9434617
19	0x4030a0fa	2.7598252
20	0x3fb456cd	1.408899
21	0xbea363e8	-0.3191216
22	0xbd8e995e	-0.06962846
23	0xbe59b95e	-0.21262118
24	0x3f02cc47	0.5109295
25	0xbefabacf	-0.4897065
26	0x3d621b80	0.055202007
27	0x3ea7eb35	0.32796636
28	0x3f1e5261	0.6184445
29	0xbe9a503d	-0.30139342
30	0xbf1b6926	-0.6070732
31	0xbf497e44	-0.7870829
32	0xbfc7f226	-1.5620773
33	0x3eb5aa91	0.35481694
34	0xbf956f49	-1.1674587
35	0x3e91bdb7	0.28465053
36	0x3cf35868	0.029705241
37	0x3e8f8927	0.28034326
38	0xbef8e5c7	-0.48612806
39	0x3fee83ea	1.8634007
40	0x3d3a4e47	0.045484807
41	0x3fc6f5a9	1.554372
42	0xbf4fcb46	-0.81169546
43	0xbf92c7bd	-1.1467205
44	0xbf9c2e9b	-1.2201723
45	0x3f21f17a	0.6325909
46	0xbecd2b30	-0.40072012
47	0xbfb930fb	-1.4468073
48	0xbc3dc96d	-0.011583668
49	0x3f4e0ae4	0.8048537
50	0xbf1ba3a1	-0.6079655
51	0x3cab1f5f	0.020888982
52	0xbf6dc6d6	-0.92881525
53	0x3fa19bc3	1.262566
54	0xbef77a68	-0.48335576
55	0x3fab2eed	1.3373696
56	0xbef3d58a	-0.47623855
57	0xbc553323	-0.01301268
58	0x3e3cf475	0.18452628
59	0x3dba50b2	0.09097423
60	0xbe989cf8	-0.29807258
61	0x3f7ded4e	0.99190223
62	0x40039111	2.0557292
63	0xbf08259d	-0.53182393
64	0xbf029fd5	-0.51025134
65	0x3e8068fa	0.2508009
66	0xbf97319e	-1.1812017
67	0x3f4057a8	0.7513375
68	0xbf8e4bc4	-1.1116872
69	0xbfe84a54	-1.8147683
70	0x3fc25c45	1.5184408
71	0xbd37eed9	-0.044905517
72	0xbd1300b1	-0.03588933
73	0xbe24d4ca	-0.16096798
74	0xbfe423e0	-1.7823448
75	0x3f9b5ba7	1.2137345
76	0x3f56b954	0.8387654
77	0x3eeb000c	0.45898473
78	0x3f794b0c	0.9738014
79	0x40076242	2.1153722
80	0xbe86067d	-0.26176825
81	0xbf3f26f6	-0.74668825
82	0xbe8542df	-0.2602758
83	0xbfa7bdcf	-1.31048
84	0x3e0f047b	0.13966553
85	0xbe3415d8	-0.17586458
86	0x3f92cef1	1.1469404
87	0x3f7975f7	0.97445625
88	0x401b45b6	2.4261298
89	0xbf5a83e4	-0.853575
90	0x3f2d42b4	0.67679906
91	0x3ed73692	0.4203382
92	0x3f21cb84	0.63201165
93	0x3fabe61d	1.34296
94	0x3ef5897b	0.47956452
95	0xbfd95a73	-1.6980728
96	0x3dffa97d	0.12483499
97	0x3e6b2088	0.22961628
98	0x3eac5d2c	0.33664834
99	0xbf047f46	-0.51756704
100	0x3e0a26bf	0.13491343
101	0xbed0c75e	-0.40777105
102	0x3e7c72d6	0.24653181
103	0xbe9d69cd	-0.30744782
104	0xbfa463be	-1.2842939
105	0x3fabbee7	1.3417634
106	0x3ff8a99b	1.942676
107	0x3c37e42e	0.011223836
108	0x3f4d3b59	0.8016868
109	0xbf9da0cf	-1.23147
110	0xbe9a5ea3	-0.30150327
111	0x3f76e89f	0.964487
112	0x3f2a24e7	0.6646256
113	0x3fd1e8b2	1.6399138
114	0xbefb9181	-0.49134448
115	0x3f060563	0.5235197
116	0x3ebdc218	0.37062144
117	0xbeb3b359	-0.3509777
118	0xbf9834c4	-1.1891103
119	0x3fb648ec	1.4241004
120	0x3fd4afd0	1.6616154
121	0xbf726756	-0.9468893
122	0x3d655c16	0.055996023
123	0x3ece99c9	0.40351704
124	0xbf9e1294	-1.234942
125	0xbf6e2ae0	-0.9303417
126	0xbf7fd4fd	-0.9993437
127	0x3fa1da70	1.2644787
128	0xbf715bed	-0.9428089
129	0xbf0435c4	-0.5164454
130	0x3e9f482d	0.31109753
131	0x3f1cc34d	0.61235505
132	0x3f6b8f17	0.9201521
133	0xbe90c7cf	-0.28277442
134	0xbfaabe86	-1.3339393
135	0xbf9d5653	-1.2291969
136	0x3eda4809	0.42633083
137	0xbfa76249	-1.3076869
138	0xbe93dbf0	-0.28878736
139	0xbfc9cdca	-1.5765927
140	0xbe8a507e	-0.27014536
141	0x3ed75eb3	0.42064437
142	0xbfa67be0	-1.3006554
143	0x3f09d0b8	0.53834105
144	0xbe0b960a	-0.13631454
145	0x3fd36b15	1.6517054
146	0xbf056d23	-0.52119654
147	0x3dbc7461	0.09201885
148	0x402c7364	2.694543
149	0x3dcb79cd	0.09935341
150	0xbff5b279	-1.919509
151	0x3e9fa11e	0.3117761
152	0x3fbd7a90	1.4803028
153	0x3ee5de92	0.4489637
154	0xbd11c301	-0.03558636
155	0xbfb475fe	-1.4098508
156	0xbf4545d2	-0.7705966
157	0xbe322cb0	-0.1739986
158	0x3ecc48ef	0.39899394
159	0x3f3a4440	0.7276039
160	0x3f892210	1.071352
161	0xbff641fd	-1.9238888
162	0x3f95ea16	1.1712062
163	0x3d993c2f	0.07482182
164	0x3ff9331d	1.9468724
165	0x3fd17cf5	1.6366259
166	0xbfd8e223	-1.6944011
167	0xbc84dd7c	-0.016218893
168	0x3f867365	1.0503966
169	0xbf51c7bc	-0.81945395
170	0x3e955eca	0.2917388
171	0xbf8fc173	-1.1230911
172	0x3d8bd36f	0.06827437
173	0x3fc22403	1.516724
174	0xbf4ea0d7	-0.8071417
175	0x3e9836b9	0.2972925
176	0xbf42df9a	-0.7612244
177	0x3ed14a1a	0.40876848
178	0x3e87b0c7	0.26502058
179	0x3f1fe0bf	0.6245231
180	0xbee6760b	-0.45011935
181	0x3cf4260d	0.0298033
182	0xbf7a9ccb	-0.978955
183	0x3f4ad6d3	0.79234046
184	0xbfa0e727	-1.2570542
185	0x3f181219	0.59402615
186	0xbede7fcc	-0.43456876
187	0xbd011463	-0.031513583
188	0xbe7f566d	-0.24935313
189	0x3fa450bc	1.2837138
190	0xbf9ae09b	-1.2099794
191	0x3f3a1660	0.7269039
192	0xbe4b7cc7	-0.19871818
193	0x3efdb413	0.49551448
194	0xbfbe31c2	-1.4858935
195	0x3fc0fe84	1.5077672
196	0x3f80da1a	1.0066559
197	0xbfbb9812	-1.4655783
198	0xbefc4d73	-0.4927784
199	0xbfec8ca1	-1.8480417
200	0xbf135248	-0.57547426
201	0xbd04af4b	-0.032393735
202	0x3e88501c	0.2662362
203	0xbeff890e	-0.49909252
204	0xbfb7da4b	-1.4363493
205	0x40093705	2.1439831
206	0x3f04b9c8	0.5184598
207	0x3ee46498	0.44607997
208	0x3f64258c	0.8911979
209	0x3e9f0648	0.3105948
210	0xbe65460b	-0.2239
211	0xbe472fb6	-0.19451794
212	0xbf3d3b8f	-0.73919004
213	0xbde972ac	-0.11398825
214	0x3fb3d4da	1.4049332
215	0x3f5161e0	0.8178997
216	0xbf17f659	-0.5936027
217	0x3f9fbc20	1.2479286
218	0xbf1c9eb9	-0.6117969
219	0x3d1efa6d	0.038813043
220	0x3c3afab2	0.0114123095
221	0x3fe4c461	1.787243
222	0x3f2f8757	0.6856589
223	0x3f9af15d	1.2104908
224	0xbf76255f	-0.96150774
225	0x3f7a1f21	0.9770375
226	0x3dcb5b1e	0.099294886
227	0xbd62b14e	-0.055344872
228	0xbea88f7e	-0.32921976
229	0x3f1fdb8d	0.6244438
230	0x3fb4732d	1.4097649
231	0x3e2b524a	0.1673061
232	0x3f63a2aa	0.8892008
233	0x3ea01a34	0.3126999
234	0xbe9a5178	-0.3014028
235	0x3f39f04c	0.7263229
236	0xbf647ecd	-0.8925598
237	0xbfdc08b0	-1.7190151
238	0xbd6f842c	-0.05847566
239	0x3f1fef21	0.62474257
240	0xbfa3c809	-1.2795421
241	0x3e30a164	0.17249066
242	0xbf90a0ff	-1.1299132
243	0x3eccc503	0.39994058
244	0x3dc20e92	0.09475435
245	0xbe9e50d6	-0.30921048
246	0x3f845d37	1.0340947
247	0xbee44ad9	-0.44588354
248	0xbe213016	-0.15741
249	0xbfb124e2	-1.3839381
250	0xbf3d052f	-0.73836035
251	0xbd8a4f76	-0.06753437
252	0xbf534f24	-0.82542634
253	0xbe44c6ed	-0.19216509
254	0xbb0b31e6	-0.0021239459
255	0xbf04682b	-0.5172145

noise f4 [1, 1, 32, 32]
0	0xbf6a6ec6	-0.91575277
1	0xbfee8bf9	-1.8636466
2	0x3f8bb462	1.0914423
3	0x3eb1854d	0.34672013
4	0xbfbd7e0a	-1.4804089
5	0x3f1c0b0b	0.6095435
6	0xbda670ba	-0.0812697
7	0x3f5ebfc5	0.8701137
8	0x3f564e7e	0.8371352
9	0xc0038400	-2.0549316
10	0x3fa90347	1.3204125
11	0x3f62f9ca	0.886624
12	0xbfbf69d3	-1.495417
13	0xbf2239b1	-0.6336928
14	0xbf595525	-0.84895545
15	0xbef1c64c	-0.472216
16	0x3f17cbd5	0.592954
17	0xbf951d37	-1.1649541
18	0x3fa505db	1.2892412
19	0x3e873459	0.26407126
20	0xbf7c56a5	-0.9856971
21	0x3c4e724a	0.012600491
22	0x3fdc6686	1.7218788
23	0xbed3bce8	-0.41355062
24	0x3fe3ab49	1.7786647
25	0x3f1d7bc5	0.6151698
26	0xbf422740	-0.7584114
27	0xbefbde9c	-0.49193275
28	0xbf66b2be	-0.9011649
29	0xc02e288d	-2.721225
30	0xbf278670	-0.6543951
31	0x3ee13836	0.43988198
32	0xbf1ae4f6	-0.60505617
33	0x3ee1cbc8	0.44100785
34	0x3f6c0eca	0.92210066
35	0x3f60c538	0.8780093
36	0x3ee9cd18	0.45664287
37	0x3d8d7ca5	0.0690854
38	0xbe7b356a	-0.24532095
39	0xbe004998	-0.12528074
40	0x3f3ac076	0.7294992
41	0x3ecbe468	0.39822698
42	0xbe73152d	-0.23738547
43	0xbea9acc7	-0.3313963
44	0xbea6667d	-0.32500067
45	0xbf4ac595	-0.79207736
46	0xbddb87b7	-0.10719245
47	0x3e79dcbb	0.24400608
48	0xbe822add	-0.25423327
49	0xbefd339e	-0.49453443
50	0xbe2a68b5	-0.16641505
51	0x3ef54568	0.47904515
52	0xbf4ed7da	-0.80798113
53	0xbe909a65	-0.28242794
54	0x3f6042bb	0.8760182
55	0xbec9e8c8	-0.3943541
56	0x3e7026af	0.23452257
57	0x3cdf684f	0.027271418
58	0x3e8e66e1	0.27812865
59	0xbfdabbae	-1.7088525
60	0xbfa37ea9	-1.2773029
61	0x3f0aab0a	0.54167235
62	0x3e9aa6e3	0.3020545
63	0xbecaa16e	-0.39576286
64	0x40018006	2.023439
65	0xbdb78762	-0.08961369
66	0xbfc97a59	-1.5740463
67	0xbe34b208	-0.17646039
68	0x40153b0c	2.331729
69	0x3f4a9076	0.7912668
70	0x4015c3bd	2.340072
71	0x3f203419	0.62579495
72	0x3fb56f8a	1.4174664
73	0x3ff461c3	1.9092335
74	0xbf268283	-0.65042895
75	0x3e28ebf0	0.16496253
76	0x3feee187	1.8662575
77	0xbf39d398	-0.7258849
78	0xbf0f6a2c	-0.5602138
79	0xbfb7e54b	-1.436685
80	0xbe1e17cd	-0.15438767
81	0xbfa6869b	-1.3009828
82	0x3fb11e62	1.3837397
83	0x3fa779a7	1.3084
84	0x3f2b8e8c	0.67014384
85	0xbf091bb1	-0.5355788
86	0xbf3a614c	-0.72804713
87	0xbfaa7801	-1.3317872
88	0x3ea3c26d	0.31984273
89	0xbf14c4c6	-0.5811275
90	0xbfd808c3	-1.6877674
91	0xbfecad08	-1.8490305
92	0x3fcf3996	1.6189449
93	0x3dcde8e6	0.100541875
94	0x3f0308ee	0.511855
95	0x3f4d0f73	0.801017
96	0xbf302c03	-0.68817157
97	0x3f716eaa	0.94309485
98	0x3e518285	0.20459945
99	0xbf47d6a4	-0.7806189
100	0xbe7b51b7	-0.2454289
101	0x3cbd2c17	0.023092313
102	0xbdbf962a	-0.093548134
103	0x3b7f4b91	0.0038954953
104	0x3f8b329b	1.0874819
105	0x3d9fcfb5	0.07803289
106	0xbf3b156b	-0.73079556
107	0xbfd679e4	-1.6755948
108	0x3f88c96b	1.0686468
109	0x3f83c933	1.0295776
110	0x3f5172f1	0.8181601
111	0x3f65e966	0.8980926
112	0x3de3d2b7	0.11124175
113	0xbed4d478	-0.4156835
114	0x3f1b74dc	0.6072519
115	0xbf354210	-0.7080393
116	0x3efca46a	0.49344188
117	0x3e07e788	0.13271916
118	0x3feec441	1.8653642
119	0x3e996bb5	0.29964986
120	0x3fee3644	1.861031
121	0x3fb2b747	1.3962182
122	0xbf6a2522	-0.9146291
123	0xbe6108e2	-0.21976045
124	0xbea5ff19	-0.32421187
125	0x400263fd	2.0373528
126	0xbe9e5dd5	-0.30930963
127	0x3f92eb68	1.147809
128	0xbe6a2781	-0.22866632
129	0xbff07e25	-1.8788496
130	0x3e1c918f	0.15289901
131	0x3f3768c9	0.71644264
132	0xbdb2e67c	-0.08735368
133	0xbf8b55f3	-1.0885605
134	0x3fbc8859	1.472911
135	0x3f785e18	0.97018576
136	0xbd4f89cd	-0.050668526
137	0x3f0e9737	0.55699486
138	0xbf4c21b4	-0.79738927
139	0xbf8e414b	-1.1113676
140	0x3f9040f2	1.126982
141	0xbfd940a6	-1.6972854
142	0x3fcd2e34	1.6029725
143	0xbf71a319	-0.9438949
144	0xbffe6985	-1.9875952
145	0xbc8a1654	-0.01685635
146	0x3db1308c	0.08651838
147	0x3f0ef4c8	0.55842257
148	0x3fb3c4ce	1.4044435
149	0x3f868963	1.0510677
150	0xbf8e9db4	-1.1141877
151	0xbea82593	-0.32841167
152	0xbeb0af21	-0.34508613
153	0xbd8ae66c	-0.06782231
154	0xbdd2a9d4	-0.102862984
155	0xbdae10ab	-0.08499273
156	0x3e81a595	0.25321642
157	0x3f35f9e6	0.7108444
158	0x3f8016c4	1.0006948
159	0xbe274ca3	-0.16337828
160	0x3ea9aa73	0.33137855
161	0x3f249dad	0.64303094
162	0x401a1095	2.407262
163	0x3f849446	1.035775
164	0xbdc0c579	-0.09412665
165	0x3fcde278	1.6084738
166	0x3dce537f	0.10074519
167	0xbe8f70c5	-0.28015724
168	0x3f9c6631	1.2218686
169	0xbea7fa71	-0.3280826
170	0x3f64152b	0.890948
171	0x3f4ba955	0.79555255
172	0x3fae2353	1.360453
173	0xbe5b831d	-0.21436734
174	0x3ed7f248	0.42177033
175	0xbfbbf33c	-1.4683604
176	0x3eb2a20d	0.3488926
177	0x3f8946dc	1.072475
178	0xbf41a294	-0.756387
179	0xbf4949b0	-0.78628063
180	0xbecdee8a	-0.40221053
181	0x3f6c4f66	0.9230865
182	0x3f03c48c	0.5147178
183	0x40136baf	2.3034475
184	0x3cef8a3a	0.029240716
185	0x3f286897	0.6578459
186	0xbf64942b	-0.89288586
187	0xbfcce6d9	-1.6007949
188	0x3f093c6c	0.5360782
189	0x3e273f36	0.16332707
190	0x3f1f69fc	0.62271094
191	0x3f38bdde	0.72164714
192	0xc02ba147	-2.6817186
193	0x3f2ebac7	0.6825375
194	0xbf7757c1	-0.96618277
195	0x3e827417	0.25479195
196	0x3fb4640e	1.4093034
197	0x3f80dc23	1.006718
198	0xbf959f0e	-1.1689165
199	0x3fa58fb4	1.293448
200	0x3e0b0ad5	0.13578351
201	0x3dfee3ce	0.12445794
202	0x3ed565c6	0.4167921
203	0x3efea2ac	0.49733484
204	0x3f6157aa	0.8802439
205	0xbe239004	-0.15972906
206	0xbf4cae68	-0.7995362
207	0xbfb73593	-1.4313225
208	0xbebfa1cd	-0.37428132
209	0xbf8d0e2a	-1.1019948
210	0x3f17b8d7	0.5926642
211	0xbfbfa2fa	-1.4971611
212	0xbe62e239	-0.2215661
213	0x3f302a76	0.6881479
214	0xbf71e0cd	-0.94483644
215	0x3e441a6d	0.19150706
216	0xbebd9489	-0.37027386
217	0x3e41bdc5	0.18920048
218	0x3e56446f	0.20924543
219	0x3f372626	0.71542585
220	0x3f73e930	0.9527769
221	0xbf9c85da	-1.2228348
222	0x3ea17adb	0.31539044
223	0x3e1b45b4	0.15163308
224	0x3e7c65b0	0.24648166
225	0xbf364c8a	-0.7121054
226	0xbf098baa	-0.53728735
227	0xbd67d6e0	-0.056601405
228	0x3f636157	0.88820404
229	0xbfcffe34	-1.6249452
230	0xbf09a6f3	-0.5377037
231	0x3f565e2f	0.8373746
232	0x3f85ec05	1.0462652
233	0xbea9b379	-0.3314474
234	0xbea9f563	-0.33195028
235	0x3cb7249d	0.022356326
236	0x3f9b83f6	1.2149646
237	0xbd754654	-0.059881523
238	0xbf4075aa	-0.7517954
239	0xbf18cfb7	-0.5969195
240	0xbef96e58	-0.48716998
241	0x3d52bd1e	0.051449887
242	0xbfe901d7	-1.8203686
243	0x3f28b75c	0.65904784
244	0x3e811631	0.25212243
245	0xbcc37572	-0.023859713
246	0x3f972ad4	1.1809945
247	0xbf25881c	-0.6466081
248	0xbff8a7c5	-1.9426199
249	0x3ee414dc	0.44547164
250	0xbf3983f0	-0.72466946
251	0x3f600494	0.87506986
252	0xbe9c2f53	-0.30504856
253	0x3eaea7cf	0.34112403
254	0x3f82d750	1.0221958
255	0xc01177b6	-2.2729316

noise f4 [1, 1, 64, 64]
0	0x4005b573	2.0891998
1	0xbf7a12ad	-0.97684747
2	0xbdb52617	-0.08845156
3	0x3ee96de1	0.45591643
4	0xbf9f82cd	-1.2461792
5	0x3ec124ef	0.3772349
6	0xbb91d40e	-0.0044503277
7	0x3f1a6cf8	0.60322523
8	0xc00a1db7	-2.1580637
9	0xbf33d9bd	-0.7025412
10	0x3f09caf0	0.53825283
11	0xbf27ea01	-0.65591437
12	0xbfe8985f	-1.81715
13	0xbd8acef4	-0.067777544
14	0x3e32a1a7	0.17444478
15	0x3e27ce89	0.1638738
16	0x3e530771	0.20608307
17	0x3f7a32c9	0.9773374
18	0xbe81aad0	-0.25325632
19	0xbf6ac6d8	-0.9170966
20	0xbf73a562	-0.9517423
21	0xbe3f7549	-0.18697084
22	0x3f360f42	0.7111703
23	0x3e63211d	0.221806
24	0xc004d33f	-2.0753934
25	0x3ea29203	0.31752023
26	0x3fc0a4d9	1.5050308
27	0xbf53287b	-0.82483643
28	0x3f2ee5a1	0.68319136
29	0xbea1ee55	-0.31627145
30	0xbeac9260	-0.33705425
31	0xbf04e464	-0.51910996
32	0x3ed3f571	0.41398194
33	0x3e67352f	0.22578882
34	0xbf10813a	-0.56447184
35	0xc0017336	-2.022657
36	0x3f1b0073	0.6054756
37	0x3fbfc6c8	1.4982538
38	0x3efa4773	0.48882636
39	0xbfa9f5c6	-1.3278129
40	0x3fc12712	1.5090048
41	0x3f39fba1	0.7264958
42	0xbf6ce219	-0.925325
43	0x3f7c5fac	0.98583484
44	0xbf5f73e5	-0.87286216
45	0xbd0751b3	-0.0330369
46	0x3dc7af10	0.097501874
47	0xbfa62eb2	-1.2983
48	0x3f40a600	0.75253296
49	0xbe652bca	-0.22379985
50	0x3ddc3670	0.10752571
51	0xbdfd463d	-0.123669125
52	0xbf812a21	-1.0090982
53	0xbeec3c7e	-0.46139902
54	0xbe0a4695	-0.13503487
55	0xbf376aa6	-0.7164711
56	0x3e28dc39	0.16490258
57	0x3fa95771	1.322981
58	0xc0213eae	-2.5194507
59	0xbe0bc83c	-0.13650602
60	0x3f7b3945	0.9813426
61	0x3dbf0c4d	0.09328518
62	0x3ff16e5c	1.8861804
63	0x3fa56b41	1.2923356
64	0x3f5acce3	0.8546888
65	0x3e6ad8da	0.22934285
66	0x3f6c5c58	0.92328405
67	0x3f020ed8	0.508039
68	0xbf38bd78	-0.72164106
69	0xbf32c6ec	-0.6983478
70	0xbfb802b4	-1.4375825
71	0x3ff90419	1.9454376
72	0xc0039e3c	-2.0565329
73	0x3cbd7d5b	0.023131063
74	0x3fc245f7	1.5177602
75	0x3f739691	0.9515162
76	0x3fce869b	1.6134828
77	0x3efd60d4	0.49487936
78	0xbfe0b22d	-1.7554375
79	0xbf09bacc	-0.53800654
80	0x3f260fb1	0.64867693
81	0x3ca58581	0.020205261
82	0xbf82e7bd	-1.0226971
83	0x3ecb1126	0.3966152
84	0xbfe504fa	-1.7892144
85	0x3ec33b48	0.38131166
86	0xbeec8c18	-0.46200633
87	0xbf0b14df	-0.5432872
88	0x3d2ce6e6	0.04221239
89	0xbfa061fb	-1.2529901
90	0xbea432ae	-0.32069916
91	0x3f684b6e	0.90740097
92	0xbf00b563	-0.50276774
93	0xbdacd0e9	-0.08438284
94	0xbf40d56c	-0.75325656
95	0x3f91e55f	1.1398124
96	0x3e097d93	0.13426809
97	0xbead8bbc	-0.3389567
98	0x3f4e9673	0.8069832
99	0xbfaba95f	-1.3411063
100	0xbdb28111	-0.08716024
101	0xbfee48da	-1.8615983
102	0xbfbb4b70	-1.4632397
103	0xbf5fbc09	-0.87396294
104	0xbfdd92ae	-1.7310388
105	0xbf67c8d7	-0.9054083
106	0x3e84c879	0.25934198
107	0xc0095361	-2.145714
108	0x3fd37b0a	1.6521924
109	0xbf2d2606	-0.67636144
110	0xbfa2d390	-1.2720814
111	0xbfc61bc4	-1.5477223
112	0xbe041372	-0.12898043
113	0x3ef2f5ac	0.47453058
114	0xbeffa773	-0.4993244
115	0x3ecc0d63	0.39853963
116	0xbf98f8e5	-1.1950957
117	0x4003b03f	2.0576322
118	0xbfd4a8b9	-1.661399
119	0xbefd7eb8	-0.4951074
120	0x3f29dbc1	0.6635094
121	0xbea01c38	-0.3127153
122	0xbfa6f081	-1.3042146
123	0xbe865edc	-0.26244247
124	0xbfe78fea	-1.8090794
125	0xbe9d79ff	-0.30757138
126	0xbe39229e	-0.18079612
127	0xbf38a138	-0.72121
128	0x3fc5eea2	1.546345
129	0xbf0d4abd	-0.55192167
130	0xbfd52efe	-1.6654966
131	0x3f81e540	1.0148087
132	0xbede24c7	-0.43387434
133	0xbf44b06b	-0.7683169
134	0xbe0621a7	-0.13098775
135	0xbd36bd2e	-0.04461401
136	0xbdea0cbf	-0.114282124
137	0x3fd6fe68	1.6796389
138	0x3f9daff7	1.2319325
139	0xbfad10a9	-1.3520709
140	0x3f4e1e23	0.80514735
141	0xbfd57561	-1.6676446
142	0xbda95395	-0.08267895
143	0x3ec5f6e8	0.38664937
144	0x3ef1605e	0.47143835
145	0xbf589ebc	-0.8461721
146	0x3eedcb93	0.46444377
147	0x3c83dcf6	0.016096573
148	0x3d3be8f0	0.045876443
149	0x3f6d29c6	0.92641866
150	0x3fba74af	1.4566859
151	0x3ff52ca9	1.9154254
152	0x3f6e1245	0.9299663
153	0xbee962fa	-0.45583326
154	0x3f649b53	0.89299506
155	0x3e951962	0.29120928
156	0xbfb46652	-1.4093726
157	0xbf813826	-1.009526
158	0xbf6e956b	-0.93196744
159	0xbfbfa719	-1.4972869
160	0xbdd7a20c	-0.10528955
161	0xbfa39dfe	-1.278259
162	0x3f08feba	0.5351368
163	0xbfda7912	-1.7068198
164	0xbd0c2949	-0.03421906
165	0x3fb86af6	1.4407642
166	0x3efdeae7	0.4959328
167	0xbfafbb84	-1.37291
168	0xbd8829a1	-0.06648565
169	0xbe6d10fd	-0.23151012
170	0x3fc9ce80	1.5766144
171	0xbe49d982	-0.19711879
172	0x3f65a92c	0.8971126
173	0xbf0b0bb2	-0.5431472
174	0x3fb2d3ca	1.3970883
175	0x3f25fda5	0.64840156
176	0xbdfa1cff	-0.12212562
177	0xbf5d0a34	-0.86343694
178	0x3fdcd6b6	1.7253025
179	0x3f011c7e	0.504341
180	0x3fb5dfac	1.4208884
181	0xbe195fd8	-0.14977968
182	0x3f899ddd	1.0751301
183	0x3f83823d	1.027412
184	0x3e4f7ca6	0.20262393
185	0xbf189e7d	-0.59616834
186	0x3f226a18	0.63443136
187	0x3f91110f	1.1333331
188	0xbf4b9094	-0.79517484
189	0xbea19800	-0.3156128
190	0x3ec2299f	0.3792238
191	0x3d7ed1ad	0.06221168
192	0xbf6fecb7	-0.93720573
193	0x3fb5f1c0	1.4214401
194	0x3f6ef6e9	0.93345505
195	0x3f7f8fc1	0.99828726
196	0x3f5dd25d	0.86649114
197	0xbf5ec606	-0.8702091
198	0xbfaf64ec	-1.3702674
199	0x3fb40146	1.4062889
200	0x3eb2f358	0.34951282
201	0xbf0c7d3f	-0.5487861
202	0xbecc17e7	-0.39861986
203	0x3fe0305f	1.7514762
204	0xbdae018e	-0.0849639
205	0x3e6adbe0	0.22935438
206	0x3f12789d	0.5721529
207	0xbeb34dec	-0.35020387
208	0x3fa12f42	1.2592547
209	0xbef7ee1d	-0.48423854
210	0xbf0ad498	-0.5423064
211	0x3fdb9a2f	1.7156428
212	0xbf88f8e9	-1.0700961
213	0xbea20557	-0.316447
214	0xbebdae5b	-0.37047085
215	0x3f27b8ca	0.6551634
216	0xbe39e99f	-0.18155526
217	0x3e021a0d	0.1270525
218	0xbfb7643c	-1.4327464
219	0xbe314c06	-0.17314157
220	0xbf297fc0	-0.66210556
221	0x3e8ce1c6	0.27516
222	0xbd9b7a97	-0.075917415
223	0xbea0509d	-0.31311503
224	0xbfc9fa7d	-1.5779568
225	0xbe93d1ac	-0.28870904
226	0xbfc9832d	-1.5743157
227	0xbf4b09a9	-0.79311615
228	0xbfd2985b	-1.6452745
229	0xbe471723	-0.1944242
230	0x3c5091e0	0.012730092
231	0xc008f88f	-2.1401708
232	0x3e4b0e7f	0.19829749
233	0x3f17d255	0.59305316
234	0x3fb3e4fd	1.4054257
235	0xbf653069	-0.89526993
236	0xbef85265	-0.48500362
237	0xbd8d7d38	-0.06908649
238	0x3db91f0d	0.090391256
239	0x3f0faa1b	0.56118935
240	0x3f9f746d	1.2457405
241	0x3fa8d63b	1.3190378
242	0x3fa4b862	1.2868769
243	0xbed0c605	-0.40776077
244	0xbfbd5661	-1.4791986
245	0xbe791558	-0.24324548
246	0xbf63d058	-0.8898978
247	0x3e2899b5	0.16464885
248	0xbf906d48	-1.128335
249	0x3fdd3ef0	1.7284832
250	0xbfc3f36f	-1.5308665
251	0x3f93c9d1	1.1545964
252	0x3d94872e	0.07252346
253	0x3fb2b75a	1.3962204
254	0x3e56370b	0.20919435
255	0x3e333c29	0.17503418
