examples/samples/818.pt (torch_old, 731568 bytes, 15 tensors)

w f4 [512]
00000000: 8ee3 9abe 3926 5dbf 01ec 50be b183 e13e
00000010: eb0e d93d 400e 0ebe b503 e53e a5c0 62be
00000020: df82 45be 5fdf b2be c737 1cba d992 e6be
00000030: 4bd9 2e3f 6d97 fdbd 5c6d 55be e8f1 9b3c
00000040: 7299 403f 153d 5a3d de0f 063f c55a 393f
00000050: cf5c 193f 95ab d0be bfc2 4c3d f262 ee3e
00000060: ce07 b83f dd87 503f 1ab9 023e 6ee1 093f
00000070: 8d7b b63e 37e2 e8bd d6cc 523f 4825 b13e
00000080: 9c29 313f d301 563d 338e 27be 84b0 6d3d
00000090: a141 6abd b1b7 4d3f 7101 cfbe fbb8 10bf
000000a0: 4e03 b0bc 72f0 50be f95d bc3e d002 033f
000000b0: 99b5 acbd 9624 cebd b0ae fa3e bc5b 0e3f
000000c0: 0be1 a53e ee2a d23e fe16 063e 319e edbe
000000d0: 9487 963b b200 743f d2eb 6e3e c235 8d3e
000000e0: 24fc 1dbe 543f 4e3e 03f5 d33e bc62 493f
000000f0: aec9 ccbd 1da1 3d3e 6b7b 2ebe c326 6a3e
00000100: 703f 75bc 307b 3e3f e5f6 2c3f 5795 5d3e
00000110: e6d0 723f 5e94 2a3f 4aa9 643e 8dfb e73d
00000120: 6f0a f63e 56dd d43e a3bd 83bd 07dc d83e
00000130: dc82 79be 1d38 5d3f c201 023e 73e3 073f
00000140: e4b6 a03f 14e3 043f c462 3f3f 4741 663e
00000150: 9a46 ad3e f75c 623e 12a5 bf3e 7369 673f
00000160: d39e e2be 0755 ffbd c1b0 7a3e 99ac 7dbe
00000170: 077a 513e 9458 96be 47e0 5c3e 7b0d 633e
00000180: fa57 3e3f b921 c9be b5ca fb3e 4b2f 113f
00000190: f025 eb3e ba95 0ebe 467b 513d e6cb 1e3f
000001a0: 3386 95bd 2fc2 1c3e 0906 c83e 658c 1d3f
000001b0: 8a8f 043e 3780 cf3e df27 033d 041c 0f3f
000001c0: cf87 2fbe 072b 3c3f 9eee a5bd b527 8ebe
000001d0: 1446 df3e 0c38 71bc b401 7bbe 1b8a 25bd
000001e0: 5389 5bbe d0cc 793f 7b8c 0c3e 233e b9be
000001f0: 10b0 d03e c40c aabe b5ee 89be c435 af3e
00000200: ab0a c8bd 2287 713e e4a8 bf3c fcda d3be
00000210: db6a fc3e f8e3 fb3e f770 2e3c 8d79 973f
00000220: 51c3 d3be 1528 c83e 79e9 ba3e 2df9 233f
00000230: a438 debe 96a2 343f 9b6d 5bbe df5d b93e
00000240: 2dfb f9bd 135e 1d3e 55cb 7d3e 628c a63e
00000250: cc5f 1bbe 7d32 4f3f ec25 303f f38b 7c3f
00000260: 7ce5 e5bd 9d66 4c3f 2c73 8abe 57c8 313f
00000270: cc80 d93c 5174 e33d 5dd1 c9bd 73d9 1d3f
00000280: c87e b1bc 79b7 893e 5685 113f 6b0a 3dbe
00000290: 4292 4c3f 415c c83e 12cf b5bd e09f b23d
000002a0: 7ff5 01be affe 59bd e375 08bc 1540 423f
000002b0: 3a74 9c3e 22d8 4d3e 374f 6f3e b3e1 323e
000002c0: a03a 1a3f a246 c83e 6b9d 993e f040 563f
000002d0: a940 0abf 0d95 a33f 36bb 623e f7c4 273d
000002e0: 53eb f3bd 39b3 ce3e 8128 f9bd 9827 c43e
000002f0: 184e cbbe 2a87 113f 7b29 e13e dd63 3abe
00000300: 2924 003f 6dfd 063c 6241 a9bd 1a80 2fbe
00000310: 41e4 d53e 3bb7 99bd 9272 7bbc 1d9a 783d
00000320: 13d0 213d 740e d8bd 8d8b 82be 4059 683f
00000330: 8dde 313e 5293 b6bd 6878 acbe d180 fbbe
00000340: fac7 f3be a522 853e 2907 7d3f 57d3 5bbe
00000350: 0144 06be a499 cf3e a82b 613e 648b a5bd
00000360: d7ad a93d a5a8 81bc 6660 25be 37a1 193f
00000370: 5021 01bf 11cf 0b3f 2b4d cebe aff7 213f
00000380: 8606 d83e 518d c43e d344 b1be f4da a1be
00000390: 3ced 643f 9b53 623e ab1a ec3d 9512 bdbe
000003a0: 452b 193f f726 4f3f e08e 26be c4d4 e43d
000003b0: 58fd ee3e 2b05 453e 74f7 7fbe 821e 743f
000003c0: dd7a 1d3d fe8d 0bbf 1924 5fbe e0f8 703d
000003d0: b21f da3e 9d4e 573f d59e 563e ebae 1ebe
000003e0: 3d4b 3f3f adb5 9f3d 9c62 83bd ee67 c33e
000003f0: 6474 9d3d 43b7 bcbe b39a 75be 6794 55be
-0.30251735 -0.8638645 -0.20402528 0.44045785 0.105985485 -0.13872623 0.4472939 -0.221438
-0.19288205 -0.34936044 -0.0005959239 -0.4503391 0.6830031 -0.12382398 -0.20842499 0.019036248
0.7523414 0.05328091 0.5236796 0.7240413 0.5990724 -0.40755907 0.04999041 0.46559864
1.4377382 0.8145731 0.12765923 0.53859603 0.35641137 -0.11371272 0.82343805 0.34598756
0.69204116 0.052247833 -0.16362838 0.058029667 -0.057191495 0.80358416 -0.40430787 -0.5653226
-0.02148595 -0.20404223 0.36790445 0.51176167 -0.084330745 -0.10065572 0.489614 0.55608726
0.32398257 0.41048378 0.13094708 -0.46409753 0.004593799 0.9531356 0.23332146 0.27580076
-0.15428215 0.20141345 0.41397867 0.7866628 -0.09999405 0.18518491 -0.17039268 0.22866349
-0.014968738 0.7440672 0.6756423 0.21639 0.94850004 0.6663264 0.22330204 0.113272764
0.48054835 0.41575116 -0.06432655 0.42355368 -0.24366325 0.8641375 0.12695983 0.53081435
1.2555814 0.51908994 0.7476008 0.22485839 0.33842927 0.22105776 0.37430626 0.9039528
-0.44261798 -0.124673896 0.24481489 -0.24772872 0.20456706 -0.29364455 0.2156993 0.22173111
0.7435299 -0.3928354 0.4917809 0.5671279 0.45927382 -0.13924304 0.051142953 0.62029874
-0.07300987 0.1530845 0.39067104 0.6154235 0.12945381 0.40527508 0.032020446 0.55902123
-0.1714165 0.73503155 -0.08102153 -0.2776467 0.43608153 -0.014722835 -0.24512368 -0.04041491
-0.21439104 0.97578144 0.13725464 -0.3618022 0.40759325 -0.33212864 -0.26939932 0.34220707
-0.0976766 0.23586705 0.023395963 -0.4137801 0.49300274 0.49197364 0.01064705 1.1833969
-0.41359952 0.3909308 0.3650625 0.6405209 -0.43402588 0.70560586 -0.2142853 0.3620443
-0.12206111 0.15367918 0.24784596 0.3252898 -0.15173262 0.80936414 0.68807864 0.98651046
-0.11225411 0.79844075 -0.27040994 0.6944632 0.026550673 0.1110617 -0.09854386 0.61659926
-0.0216669 0.2689779 0.5684408 -0.18461005 0.7991067 0.39132884 -0.08877386 0.087219
-0.12691306 -0.0532214 -0.008328888 0.7587903 0.30557424 0.2010198 0.23370062 0.1746891
0.60245705 0.3911639 0.30002913 0.83692837 -0.54004914 1.2779862 0.22141728 0.040959325
-0.11910119 0.4037111 -0.12165929 0.38311458 -0.39708018 0.5684687 0.4397696 -0.18202157
0.50055176 0.008239132 -0.08264424 -0.1713871 0.41775706 -0.075056516 -0.01534714 0.06069385
0.039505076 -0.10549632 -0.25497094 0.90761185 0.17370053 -0.08914818 -0.33685613 -0.49121717
-0.47613508 0.26002994 0.9883905 -0.21467339 -0.13111879 0.40546906 0.2198931 -0.08083227
0.082851104 -0.015827486 -0.16150054 0.6001162 -0.50441456 0.54612833 -0.4029325 0.6326856
0.42192477 0.38389066 -0.3462282 -0.3161236 0.8942449 0.22102205 0.11528524 -0.3692824
0.5983165 0.8091883 -0.1626544 0.11173394 0.4667766 0.19240253 -0.2499674 0.9535905
0.03844725 -0.5451354 -0.21791114 0.058831096 0.42602307 0.8410433 0.20959027 -0.15496413
0.7472418 0.07798324 -0.064152926 0.3816523 0.076882154 -0.36858568 -0.23984794 -0.20857392

wp f4 [14, 512]
00000000: 3b69 e9be fbb0 2dbf d461 2fbe 0587 453f
00000010: 301b f93d 2ee0 043e 9a24 ca3e a1ec d1be
00000020: 14ad 1abe c859 473e c21b ce3e 374c a5be
00000030: 84b8 863f 9208 423d e778 88be 21e2 643e
00000040: 5c82 6c3f d05e 2a3e 6c2a 993e f088 603f
00000050: ad0b 8f3f 1ae2 913e 95fa 3fbb 3257 a33e
00000060: 9380 fa3f 6225 6a3f 36ce c73e b43c 493f
00000070: 045e 48be 4c7c 50be f09e 683f d5ba 773e
00000080: 4e14 c63e 6cd3 b2bd 3a75 abbe e441 94be
00000090: 83a9 41bd 8bdf 3d3f ca19 42bf c692 19bf
000000a0: 324a d73d 3c17 c5be 3ae7 c33e ced8 1a3f
000000b0: c823 063e 677d 2abc 2485 f43e 4342 8c3f
000000c0: 9b94 783f 3a27 8d3e 1e5e 163f b4c7 64bf
000000d0: 4692 d9be 38c5 803f e8b1 8e3e 3bf2 c83e
000000e0: 49b1 08be 4a4b 5d3e 5596 b33e c6f4 863f
000000f0: 56ab 68be 7317 793e cfed 9dbe a411 213f
00000100: ea63 24be 1c4f a33f bab9 1e3f 2621 3d3e
00000110: 1cd3 823f 91e9 1c3f b5b2 1a3f c7d7 4f3d
00000120: b3fa 85be 96dc 0a3f 291d d5bd cb84 373f
00000130: 5959 22be 669c 083f 2511 ea3e 0f03 8c3e
00000140: 3a32 a33f c16e 383f dd99 313f 2f52 8f3e
00000150: fbc8 e13e 5941 903e b478 f83d 5b57 9e3f
00000160: 565f 58bf 6a4a a53e 0d79 183f f72b e5be
00000170: f98b 253e 1cf4 8abf 7589 cb3e 0f1d 013f
00000180: c015 3b3f de62 87be 63d9 2e3f 67ce 2d3f
00000190: cbfe 843e 3e36 573e b6d9 13be 1dd6 683f
000001a0: 5623 833e 5924 bebc 6712 fbbe ebfd 1b3f
000001b0: 1674 26be e921 1e3f 470f 32be 4e32 8d3f
000001c0: bf55 283e 560d 8b3f 4d2d ddbc 492b fb3d
000001d0: fb61 433e 5624 a63d dc7c e73d 7a86 b1bd
000001e0: eb1f c4bd 5e66 853f 1500 023f a276 3fbf
000001f0: b20d be3e 64d1 e6be 277d 17bf 6bc7 c13d
00000200: 00d9 583e e5df 283f 888e 8f3e 800b 9fbf
00000210: 17e7 af3e a66b 473f b874 603d d98d d23f
00000220: 4305 4bbf 5ab7 413f 5519 a63e 0ffa 5e3f
00000230: 9966 71be 4d67 313f 11f7 1dbf 244c 883f
00000240: 0f19 3dbe 9a0b 773e 0632 f13e cd71 833e
00000250: 9adc 79bd 0738 4c3f a1f3 db3e 7fd9 a13f
00000260: c0bc abbe 4e9a 823f defe a23e db67 443f
00000270: 6ddb b93e 7972 b73d b682 70bd 6ca5 143f
00000280: 8924 eebe b662 003d b1b7 ca3e f9fb e2be
00000290: d434 753f 4e94 643f 4a50 023f 946b 513e
000002a0: 8bcf e0be 33d8 193e 0101 2d3e eacb 233f
000002b0: 7215 673e 8c3c ec3e c410 113f f6b2 6e3e
000002c0: c1be 493f e5d5 0e3f abcc a33e a277 f03e
000002d0: f6da 37bf d418 a43f 993b 9c3e fa0e 3ebe
000002e0: 9c44 94be fab0 103f 3f86 78bd 5a8d 263f
000002f0: d57b 13be 8090 343f 6c72 393f ac50 fabd
00000300: d39a 393f a098 563e 467f 3a3e c140 9ebd
00000310: 5dde c73e 6c6c 813e a1f6 363e c6ee a63d
00000320: 39a6 003e 83b3 873e cc1c ea3d 1b41 673f
00000330: bd4e 3ebe 5f05 fa3c b0fa 50be 1259 aabe
00000340: 3e13 24bf 53c5 dc3e 3a05 983f 4cdc 943d
00000350: ccfb 933e 29bc 943e d8b7 053e 3168 733d
00000360: 8419 ac3d 2a56 ee3c 2637 10bf 4ca0 483f
00000370: aaa2 343d c3e3 be3e 5d9c 8fbe 0832 643e
00000380: 8244 9f3f a335 e2bd 31c0 1fbf a520 7abe
00000390: a75f 863f 18c1 d7bd 07b8 9c3e a628 88bf
000003a0: ce3a 813f 9142 3c3f 929b aabe 4dd7 383e
000003b0: 52d0 3b3f 2e2e 83be d2f5 cfbe 54f9 a23f
000003c0: 4956 75be a85b 89bf b98e 86be 0da2 163e
000003d0: 9bb8 643f dbec 013f 6ece bf3e 8ac0 08be
000003e0: ef7c 9a3f adc3 f5bd a59f 753e 7727 ea3e
000003f0: d459 67be f983 85be 3ab1 f7be 1ad6 c6be
-0.45588097 -0.67848176 -0.17127162 0.7715915 0.12163389 0.12976143 0.3948105 -0.41000846
-0.15105087 0.19467843 0.40255553 -0.3228471 1.052506 0.047371455 -0.2665474 0.22351886
0.9238641 0.1663773 0.29915178 0.8770895 1.1175438 0.28492814 -0.0029293646 0.31902462
1.9570488 0.9146329 0.39024514 0.7860825 -0.19567114 -0.20359915 0.9086752 0.24192365
0.38687366 -0.08731732 -0.33487874 -0.2895652 -0.0472808 0.74169225 -0.758206 -0.59989583
0.105121985 -0.3849429 0.3826235 0.6048707 0.13099587 -0.010405875 0.47757828 1.0957721
0.97101754 0.2756899 0.5873736 -0.8936722 -0.4249441 1.0060186 0.27870107 0.39247307
-0.13348879 0.21610752 0.35075632 1.0543449 -0.2272161 0.24325351 -0.30845496 0.6291754
-0.16053739 1.2758517 0.62002146 0.18469676 1.0220675 0.61293894 0.60428935 0.05074289
-0.2616783 0.5424284 -0.104059525 0.71687 -0.15854396 0.53363645 0.45716205 0.27346084
1.2749703 0.72044 0.693754 0.2799239 0.44098648 0.28174856 0.12132397 1.2370409
-0.8452047 0.32283336 0.5955971 -0.44760105 0.16166677 -1.0855746 0.3975331 0.50434965
0.7308006 -0.26442617 0.68300456 0.6789307 0.25975642 0.21016786 -0.14438519 0.9095171
0.25612897 -0.023210691 -0.49037477 0.60934323 -0.16255221 0.6177049 -0.1738864 1.1030977
0.1643896 1.0863445 -0.02699914 0.12264115 0.19080345 0.08112399 0.11303112 -0.086682275
-0.095764 1.0421865 0.50781375 -0.74790394 0.37119824 -0.45081627 -0.5917534 0.09461864
0.21176529 0.65966636 0.2803843 -1.2425385 0.34355995 0.77898633 0.05479881 1.6449538
-0.79304904 0.756704 0.32441202 0.8710031 -0.23574294 0.6929825 -0.6170512 1.0648236
-0.1846659 0.2412552 0.47108477 0.2567276 -0.061001398 0.7977299 0.42959312 1.26445
-0.33542442 1.020334 0.31835073 0.7672097 0.3630022 0.08957381 -0.058718406 0.58064914
-0.4651225 0.031344138 0.3959327 -0.44332865 0.95783734 0.89288795 0.5090376 0.20451194
-0.43908343 0.1502388 0.16894914 0.63983023 0.22566774 0.46139944 0.5666621 0.23310456
0.7880669 0.5579513 0.31992087 0.46966273 -0.7181848 1.2820077 0.3051422 -0.185604
-0.28958595 0.56520045 -0.060674902 0.65059435 -0.14402707 0.7053299 0.7244022 -0.12222418
0.7250187 0.2095666 0.18212613 -0.077271946 0.39036837 0.25278032 0.17867519 0.08151011
0.12563409 0.26504144 0.11431274 0.9033372 -0.18584724 0.03052014 -0.2040813 -0.3327108
-0.6409186 0.43119296 1.1876595 0.07268581 0.28903043 0.29049805 0.13058412 0.059425537
0.08403304 0.02909382 -0.5633415 0.78369594 0.04410044 0.37283143 -0.28048983 0.2228471
1.2442782 -0.11045387 -0.62402636 -0.24426515 1.0497941 -0.105348766 0.30609152 -1.0637405
1.0096071 0.7353907 -0.33321816 0.1805088 0.73364747 -0.2562117 -0.40617234 1.2732339
-0.23958696 -1.0731096 -0.26280764 0.14710255 0.89344186 0.5075204 0.3746218 -0.13354698
1.2069377 -0.12000213 0.23986681 0.45733234 -0.2259286 -0.2607725 -0.483774 -0.38835222

noise f4 [1, 1, 4, 4]
00000000: 33af 98bf cd4b 893f 97f5 c43f 93d7 68bf
00000010: fa2a 593f 40ee 193f b013 dd3d 6639 473e
00000020: 606f 753f 0893 adbe 1594 d6bf 0220 433f
00000030: 07fb 1b3f 1234 fbbe 5868 c0be add0 dabf
-1.1928467 1.0726258 1.5387448 -0.9095394 0.848312 0.60129166 0.10794771 0.1945549
0.9587307 -0.33901238 -1.6763941 0.76220715 0.6092991 -0.49063164 -0.37579608 -1.7094933

noise f4 [1, 1, 8, 8]
00000000: c844 3a3e 21ef abbf 01af 37be 17ac e93f
00000010: 434e ca3f 7c22 4a3f a9f9 bebf 4497 9bbe
00000020: 302c bdbf ce43 b83e f492 0dbe 932e 5ebd
00000030: 6222 65bf 80be 7c3e 5ffe 393f 9a88 1abe
00000040: daef 77bd ca01 133f f3ab cf3f cb9b 363f
00000050: 27e5 193f 4b16 fa3f 6a9c 05bd 042b f3be
00000060: f6ed 10be 0301 92bf b118 fbbf 8c82 863e
00000070: 09ba df3f 344d d0be a062 f03f 5086 033e
00000080: eef4 28bf 0c3f 32bf 1f80 a3bf 7129 143f
00000090: 8a88 fdbe c4db 90be c5ce 88bf 7839 a83e
000000a0: 5d20 2e40 6fb8 7ebf 85a8 13c0 a60d 433f
000000b0: 745d 193e fd48 873f 60f0 1fbf e3cd cbbf
000000c0: a156 f53e 0fe9 93bf 5e57 45be 6f2b 6bbc
000000d0: 594c 54bf c65d 173f 90ca 103f 812f 723c
000000e0: d67f 963e f69a cc3e 465a c7be b0d9 193e
000000f0: c1da adbd a859 cf3d 96f7 a9bf c8ae 5c3f
0.181903 -1.3432351 -0.17937852 1.8255643 1.5805134 0.7895887 -1.491994 -0.30388844
-1.477911 0.3598923 -0.1382559 -0.054243635 -0.8950559 0.24682045 0.72653764 -0.15091172
-0.060531475 0.57424605 1.622435 0.7133147 0.60115284 1.9538053 -0.03261987 -0.47493756
-0.14153275 -1.1406559 -1.961691 0.26271474 1.7478648 -0.406839 1.8780098 0.12844205
-0.65998733 -0.6962745 -1.2773474 0.57875735 -0.49518234 -0.28292668 -1.0688101 0.32856345
2.7207253 -0.99500173 -2.3071606 0.761927 0.14977056 1.0569149 -0.6247616 -1.5922207
0.47917655 -1.1555499 -0.19271609 -0.014353617 -0.82929 0.5912746 0.56559086 0.014781834
0.29394406 0.39961976 -0.3893606 0.15024447 -0.084889896 0.101245224 -1.3278682 0.86204195

noise f4 [1, 1, 8, 8]
00000000: dc8d 363f 38ba aebe 70eb b93f 1c95 cd3e
00000010: a6cd 323d cc33 d73f 55b6 86bf a605 933e
00000020: 1e88 2ebf f08d 5dbd 7a07 edbf 3c64 ff3e
00000030: 873c 8dbc 186e ab3e f632 2bc0 a875 66be
00000040: 6aa1 1d3f de76 5b3f 0225 eabe ca8b 333f
00000050: b626 aabe c616 2cbf 8c9a 81be e0a6 203f
00000060: e6c4 70bf a13c b9bf 20e1 933f bf56 b73f
00000070: ac35 f8be 43c7 9d3c c689 ca3e 0cb2 cc3f
00000080: 7c26 9bbf e1f0 f2be 5e47 b9bf ac48 36bf
00000090: ca1e 2bbf f5c8 b1bf 378e 90bd ea59 a73e
000000a0: 292e 8d3f e96e 783d a995 73be f814 1bbf
000000b0: 344b f2bf e24c 273d de5c 2abd e33b 8dbf
000000c0: 6a15 26be 52d2 bb3f f69c 243f e01e a23f
000000d0: 965d 343f 107c b43f b41e 15bf 8bf6 90bf
000000e0: d2e7 d2be f95f 1940 42d1 1bbf 02c1 633e
000000f0: d74e 543e 3621 6dbe 8abf 97be 1387 0640
0.7131021 -0.3412645 1.4524975 0.40152824 0.043653153 1.6812682 -1.0524393 0.28715247
-0.6817645 -0.05409044 -1.8517907 0.4988116 -0.017240776 0.33482432 -2.6749854 -0.2250582
0.61574423 0.8572825 -0.4573136 0.70135176 -0.3323266 -0.6722225 -0.25313222 0.6275463
-0.94050443 -1.4471627 1.1553078 1.4323348 -0.48478448 0.019260054 0.39558238 1.5991836
-1.212112 -0.474494 -1.4474905 -0.7120464 -0.66843855 -1.3889452 -0.07058375 0.32685786
1.1029712 0.060652647 -0.2378756 -0.6057887 -1.89292 0.040844806 -0.04159247 -1.1033901
-0.16219106 1.467356 0.64302003 1.2665672 0.704553 1.4100361 -0.58249974 -1.1325239
-0.4119249 2.3964827 -0.6086618 0.22241595 0.207332 -0.231572 -0.2963832 2.1019943

noise f4 [1, 1, 16, 16]
00000000: 6237 b33e d2c1 793f 217e 9c3f c77d dd3f
00000010: 4f04 22bf da9d bfbd 8799 4cbf bf7a 993f
00000020: ffa9 82bf dc61 473f bb55 b33f cbe8 703e
00000030: a65b e13d 318f 383f 2c53 853f 7f58 6e3d
00000040: b179 b23e f643 193f 1f86 05bf 299d 09bf
00000050: 3259 00c0 0f5b c9bc d33b 53bf 4034 72bf
00000060: f95b 31bf 2e47 b63f 7792 2b3f 24d4 4c3f
00000070: 8cd4 9f3e 8c97 92bf ff71 50bf 83ed 0cbf
00000080: b89c 193e 3f43 b33f 35eb 7ebf c943 293f
00000090: 124c ccbd 023f 7e3f 1b33 8d3e 26d2 adbf
000000a0: c998 b8bf 9671 bf3e 5db7 89bf 0456 403d
000000b0: 974f dfbe d623 b6be e06e a1be 44bb ae3e
000000c0: 663e 143d 85ba 463f 6ad9 1f3f 3e42 d9bf
000000d0: c62e 053f 45d2 15bd 5c87 c9bf e8ec e7be
000000e0: 2fae b73f b91c df3e 231b 833f 93fa 2e40
000000f0: 6e80 ae3f f551 693c a725 3a3f bb5e 9cbf
00000100: 705d 0bbe ea2b d13f 2e42 2c3e 29b3 61bf
00000110: 4c4b 99bf 67fd 6dbf 974b b83c fa1f e7be
00000120: 79ac 4fc0 421f aabe 0f6c c43e 57e2 50bf
00000130: 65e7 e03e bfa9 68bf 0f7f 613e 6b45 fcbf
00000140: ea29 833f 4976 f1bf 06f1 ff3e 4bff dabe
00000150: a2f8 31bf 7ae4 f0bf dcc8 803e ccbf de3c
00000160: 341d acbd 645c e33e 7500 013f 86df 0940
00000170: 521b 95bf 0e87 4bbf 9360 023e 0b4c 09c0
00000180: dce4 f0be db60 f5bc e785 17c0 5ed5 cf3e
00000190: ab67 363f 38a1 d4bf a416 5bbe 0d88 833f
000001a0: c7f2 bfbe eec4 fbbd fa1b a13f 0b32 453f
000001b0: 8031 87bf d1a0 0840 3591 fd3e 68a9 7ebe
000001c0: 5e01 923f 190f e4bf 0032 c3bf 8b1e c13e
000001d0: 52aa 923f 3864 4e3f be22 90bf 682e 68bf
000001e0: d078 463f 2763 8a3f 0ced 64bd 1595 103f
000001f0: d80b 1e3e 9112 fbbf 783f f03c 3a02 d73f
00000200: dc64 393f 1bfa 11bf 4cbc e13d 476b 83be
00000210: 4494 23bf cfb6 1040 0313 a4bf 3e55 3cbe
00000220: 7a2d c03f da13 ab3d edd2 dd3e 58be 4a3f
00000230: 2992 23bf 83e4 38be e29a 9b3f d7bf 093d
00000240: c48d 333f 1f89 24bf f893 113f 9605 e1bd
00000250: 2817 dd3f 2cbb cfbe fa88 c93e febd a8be
00000260: 6e92 293e d13d 04c0 a29a 79be 0b0e e1be
00000270: 9196 0ac0 c5e2 ae3f ccdf d7be 1200 683f
00000280: 3f40 7e3f d302 a73f 4953 073f cdb1 44bf
00000290: df86 473c 39c4 e3bf dd8b 72bf 39b3 c93e
000002a0: 8f42 463f 14ba 003f aa3e f4bf ba6f 673f
000002b0: f294 b63c 0a27 4d3f 7daf dfbe 574f 61bf
000002c0: 1d59 5fbf 63d4 dabe 72e5 a7bf f504 1b3f
000002d0: 3afe 75bd 9054 61be 33b3 23bf c9a1 3a3d
000002e0: 1c3c 8d3d 2587 7abf e5e4 af3f e8f2 32bf
000002f0: 1250 063d ae1a a23f 7674 a43f 3d0a 1940
00000300: 5129 583f 6040 e2bf a8ba 99bd 3dd9 c63f
00000310: 6ab5 0b40 52fc 5bbe aeb5 e93f ff5d 833f
00000320: 3776 563f 0138 cd3e 98e4 573f 83ac d1bf
00000330: 0930 fabf f6f6 1f3f a9bc 483f aecd 4bbf
00000340: 26be 9ebf 563b 71bf 20e4 313f c4f1 3abe
00000350: 3734 babe 7a8a 5e3e 0008 c23d 2acf 76bf
00000360: d1b1 983f 1947 1ebf a405 713f 76da 7abe
00000370: a5e3 aabe b65f 823f f170 6abf 4a9c 38be
00000380: 8e66 b13f 99a9 bd3e 6758 6cbf 5154 053f
00000390: b553 6ebf 3332 18be 2c53 60bc 9f44 003f
000003a0: 2b81 bb3f 32bf d53e a037 3dbf 98cf aa3d
000003b0: bc9d 533f fd21 7ebf 95ef 103f e50d 99bf
000003c0: c982 8d3f ae10 63bf 21a8 81bf f80d 683f
000003d0: 5d6f 6a3f e606 7ebe 5e0b 1b3e 142e 463e
000003e0: 73a5 123f 2e23 47be 5e1b 553f 21bb 83bf
000003f0: 1812 4dbf f998 97bf 2c79 83bf b8a5 45bf
0.3500319 0.9756137 1.2225991 1.7304009 -0.63287824 -0.0935628 -0.79921764 1.1990584
-1.0208129 0.77883697 1.4010538 0.23526303 0.11003809 0.7209349 1.0416007 0.058189865
0.34858468 0.59869325 -0.5215778 -0.5375543 -2.005444 -0.024579553 -0.8251316 -0.9461098
-0.69280964 1.4240472 0.6702036 0.800112 0.31216848 -1.1452498 -0.81423944 -0.55049914
0.1500119 1.4004897 -0.9957765 0.66119057 -0.09975447 0.9931489 0.27578053 -1.3579757
-1.4421626 0.37391347 -1.0759083 0.04695703 -0.4361541 -0.35574216 -0.31529903 0.34127247
0.03619232 0.77628356 0.6244112 -1.697334 0.52024496 -0.03657748 -1.5744433 -0.45297933
1.4350032 0.435766 1.0242656 2.7340438 1.3632944 0.0142407315 0.727137 -1.221641
-0.13609862 1.6341527 0.1682212 -0.88164 -1.1976104 -0.92964786 0.022496982 -0.45141584
-3.244902 -0.33226973 0.38363692 -0.8159537 0.4392654 -0.9088401 0.22021125 -1.9708685
1.0247166 -1.8864223 0.49988574 -0.42772898 -0.6952001 -1.8819726 0.25153244 0.027191065
-0.084040076 0.44406426 0.5039132 2.1542678 -1.1648962 -0.7950295 0.12732153 -2.1452663
-0.47049606 -0.02995341 -2.3675478 0.40592474 0.71251935 -1.66117 -0.21395355 1.0275894
-0.37489912 -0.12293421 1.2586663 0.77029485 -1.0561981 2.1348155 0.49524847 -0.24869311
1.1406667 -1.7817107 -1.5249634 0.37718615 1.1458228 0.8062167 -1.1260602 -0.9069581
0.77528095 1.0811509 -0.055890128 0.5647748 0.15434206 -1.9615041 0.02932714 1.6797554
0.72419524 -0.57022256 0.11022243 -0.25667784 -0.6389811 2.2611578 -1.2818302 -0.18391892
1.5013878 0.08353396 0.43324986 0.7919669 -0.638949 -0.1805592 1.2156641 0.03363022
0.7013819 -0.6427173 0.5686641 -0.109873936 1.7272692 -0.40572488 0.39362317 -0.32957453
0.16559765 -2.066273 -0.24375394 -0.43956026 -2.1654398 1.3662955 -0.4216293 0.9062511
0.9931678 1.3047737 0.5286146 -0.768338 0.012178152 -1.7794257 -0.94744664 0.3939455
0.7744531 0.5028393 -1.9081624 0.90404856 0.02228782 0.80137694 -0.43688574 -0.8801169
-0.8724535 -0.42740163 -1.3116896 0.6055444 -0.060056902 -0.22004914 -0.6394531 0.045564447
0.068962306 -0.97862464 1.3741728 -0.69901896 0.032791205 1.2664392 1.2848041 2.39125
0.84438044 -1.7675896 -0.07506305 1.5535046 2.1829476 -0.21482971 1.8258569 1.026306
0.8377413 0.4008179 0.8433318 -1.6380771 -1.9545909 0.6248621 0.7841287 -0.7961072
-1.2401779 -0.94231164 0.69488716 -0.18256289 -0.36367962 0.21732512 0.09474182 -0.9640986
1.1929265 -0.61827236 0.9414923 -0.24497399 -0.33376804 1.0185459 -0.91578585 -0.1802837
1.3859422 0.37043455 -0.9232239 0.5208178 -0.93096477 -0.148629 -0.013691705 0.5010471
1.4648794 0.41747433 -0.73913 0.083403766 0.8266256 -0.9927061 0.56615573 -1.1957365
1.1055537 -0.88697326 -1.0129434 0.90646315 0.91576177 -0.24807319 0.15141055 0.19353515
0.57283705 -0.19447014 0.83244884 -1.0291482 -0.80105734 -1.1843559 -1.0271354 -0.7720599

noise f4 [1, 1, 16, 16]
00000000: 414d 1fbf b4fc fd3d cada 923f 4653 9f3e
00000010: dd9a 3ebf 1670 7dbd da50 993e 9bcd b33e
00000020: 9cf5 b6bf 964d 903f 665d c23e bdf4 803e
00000030: e1df 8abf 627f 413e 9feb ba3f 47de 83bf
00000040: 259b aebf 81c9 3abf 593e 87bf 4612 3cbf
00000050: 0c1c a83d 8d72 0ebf 442d 1440 2484 a03e
00000060: 4897 e1be f9df 9a3f 29ca 493f 9334 8e3e
00000070: a212 84be dd9a e13e 0941 db3f 02b6 12bf
00000080: 366e a83d 70fd 683e e371 793f 189f 52be
00000090: fa3a aa3d b9e5 e23e 8202 24bf cf0f abbe
000000a0: 2c2a c23f 0384 8d3e 40c5 eabe 14f7 9cbf
000000b0: 74be 7a3f f1bc 803f ca44 963f b6d8 3fbf
000000c0: 1edf b33f 9d95 ddbe 13b3 26bf 7399 c0bf
000000d0: d3fc 643f 7a5b d33e d574 9e3e ca3f 9f3d
000000e0: 8d3d 6a3f 7d39 853f b4cd 183f 242a 88bf
000000f0: 6be7 8ebe abca e43f bcf3 67bf eade 5c3f
00000100: 657a fa3e ed79 b3be 0752 2b3f 7ebd 083f
00000110: e7cf 063f ba3a 0bc0 fa7b b03e ac75 593f
00000120: 1935 623f 99b7 7b3f 2d54 99bc 8b67 873d
00000130: d633 ab3e 5bb1 5f3f 43f3 7ebf ded4 203f
00000140: 83a6 f43e 6ffa 553f c05b 60be 8ecd c1bc
00000150: efd9 ea3f 785f 563e 7090 75bf 44fa 513e
00000160: 35bb dcbe cd1c 933a f33f 253f f91b c73f
00000170: d2d1 663f d762 c03e ff21 7ebf de32 a23f
00000180: d80e 703f b0a8 bc3f c785 eabe 2562 b2bf
00000190: a585 cdbe bcc0 013f 588e adbf 18d9 d83d
000001a0: 6604 16be 6110 af3f 660a 953d aaf6 2f3e
000001b0: f55a a4bf be75 383f 65dc a73f 07a0 7c3f
000001c0: 692a 15c0 9af6 1640 9c67 943f 313f a9bf
000001d0: 1d70 993e 93c9 79be 3694 7bbd 85f4 483f
000001e0: 890f e1bf 466e 5fbe b4da 173f 46e6 083e
000001f0: 1380 85bf 61a5 2dbf 5817 06be eaf6 45bf
00000200: 6e22 e53f 8237 6e3e e90f 983f e67f d9be
00000210: f196 3fbf a8d4 5d3e 82eb b8be 58a5 f33f
00000220: 56be 14bf 4352 e63f d60c 08be e529 26bf
00000230: 6889 b43e 3d93 b7bf f426 9ebe a1cd 4dbf
00000240: 3d3e f2bf 6054 10bf e8c1 61bf 6f13 4dbf
00000250: 93ca f3bc 2967 afbf efd2 5dbf 3c76 1b3f
00000260: 6a3d c7be 5395 f3bf becf 283e c32a 7fbc
00000270: e817 51bf 5cec 02be bf6e adbf 77cc ec3e
00000280: 59bf 633f 503b 453e 4763 80bf 9e60 03bf
00000290: 5701 713f c60b f83d b896 f1be 8703 c6bf
000002a0: 2483 bd3d d4e1 2b3f a87c 81bf 0db8 3fc0
000002b0: 40ee e2bf 5808 ff3f c271 ef3d ea24 ca3d
000002c0: e3c9 9dbf b1e9 843f 4585 963e d4fd 913e
000002d0: 8ee4 a2bf accd 583f 50c6 d43f cc8c 983d
000002e0: 4e01 60bf cc7e bbbf b344 a8bf 31fa 2d3f
000002f0: 7800 73bf 6718 0bbf 1435 6b3f 781e 723e
00000300: 221c 743e 5a7e 39bf b7d4 84be 00d1 233f
00000310: beed d1bf 9bc6 533e 3713 af3f 145f aabe
00000320: d7e2 a1bf 1b9e 87bf 3108 da3f 90ea a4bd
00000330: d355 573f 9532 a23f 8e7b cebd 6780 943e
00000340: bac9 703f aa21 d4bf 4686 7bbf 3cba 703e
00000350: e1fb 983f f2e6 6a3e fb0b 8bbe 57a6 eb3e
00000360: 6c47 a43e 9481 a93f 7da6 9dbf c224 34be
00000370: 6e59 abbc 3959 d23f 3c3e 923e 99f4 14bf
00000380: ddb6 3dc0 58fd dfbd f512 52bf 0c81 ef3e
00000390: acbb c03e 6244 9e3f fec0 ef3f 7a56 87bf
000003a0: ef80 023e b047 8e3f 8f7b debe 67cc 5bbf
000003b0: be5e 933f 6cd2 0fc0 43e2 f9be fcf8 973e
000003c0: 4271 c33f b008 873e eae5 c9bf a6bf 8cbf
000003d0: 8727 5dc0 8963 af3f 00fc ad3f 75cd 74bf
000003e0: 9465 cd3e 213c 66bf b472 ae3e 657c 7ebf
000003f0: 5429 f03e 8e99 f0be 2b05 79bf 4d93 b93e
-0.62227255 0.12401715 1.1473019 0.3111822 -0.7445505 -0.06187447 0.29944497 0.35117802
-1.4293704 1.1273677 0.37961882 0.2518672 -1.0849572 0.18896249 1.4603156 -1.0302209
-1.3641096 -0.7296372 -1.0565902 -0.73465383 0.082084745 -0.5564354 2.3152628 0.31350815
-0.4406073 1.2099601 0.78824097 0.27774486 -0.25795466 0.44063464 1.7129222 -0.5730897
0.08224146 0.22752929 0.974394 -0.20568502 0.0831203 0.4431589 -0.64066327 -0.33410498
1.516912 0.2763978 -0.45853615 -1.2262902 0.9794686 1.005766 1.1739743 -0.7494005
1.4052465 -0.43278208 -0.65116996 -1.5046829 0.8944828 0.4128073 0.3094851 0.07775839
0.9150017 1.0408169 0.5968888 -1.063786 -0.27910933 1.7874349 -0.90606284 0.8627764
0.48921505 -0.3505396 0.6692204 0.5341414 0.52660984 -2.1754594 0.34469587 0.8494518
0.8836227 0.9832702 -0.018716896 0.06611546 0.33437985 0.8738 -0.9958994 0.6282481
0.47783288 0.83585256 -0.2191 -0.023657586 1.8347758 0.20934856 -0.9592352 0.20505625
-0.43111578 0.0011223793 0.64550704 1.5555412 0.9016391 0.3757541 -0.99270624 1.2671773
0.9377265 1.4738979 -0.4580519 -1.3936201 -0.40141025 0.50684714 -1.3559065 0.10588282
-0.14650115 1.3676873 0.07277374 0.17183939 -1.2840258 0.7205466 1.3114134 0.9868168
-2.3307135 2.3588014 1.1594119 -1.322241 0.29968348 -0.243933 -0.06142064 0.7849811
-1.7582866 -0.2181941 0.5931809 0.13369092 -1.042971 -0.67830473 -0.13094842 -0.77329886
1.7901132 0.23263362 1.1879855 -0.4248039 -0.74839693 0.21663153 -0.36117178 1.9034834
-0.5810293 1.7993854 -0.13286147 -0.64907676 0.35261083 -1.4341809 -0.30889094 -0.8039189
-1.8925244 -0.56378746 -0.881865 -0.8010778 -0.02975968 -1.3703357 -0.86649984 0.60727286
-0.38914043 -1.9029945 0.16485497 -0.01557416 -0.81677103 -0.12785476 -1.3549422 0.46249744
0.8896385 0.19260907 -1.0030297 -0.513193 0.9414267 0.121116206 -0.47185302 -1.5469826
0.09253529 0.6714146 -1.0116167 -2.9956086 -1.7728958 1.9924421 0.116916195 0.09870322
-1.2327236 1.0383817 0.29398552 0.28513968 -1.2725999 0.8468883 1.662302 0.0744873
-0.8750199 -1.464807 -1.3145965 0.67959887 -0.9492259 -0.5433411 0.91877866 0.23644435
0.23838857 -0.7245842 -0.2594354 0.63990784 -1.6400678 0.2068123 1.3677739 -0.33275664
-1.2647351 -1.0595125 1.703375 -0.08052552 0.8411533 1.2671686 -0.1008216 0.29004213
0.9405781 -1.6572773 -0.9825176 0.23508543 1.1951867 0.22939661 -0.27157578 0.46025345
0.3208574 1.3242669 -1.2316433 -0.17592147 -0.020916667 1.6433479 0.28563106 -0.58185726
-2.964286 -0.10936993 -0.82060176 0.46778142 0.37643182 1.2364619 1.8730772 -1.0573266
0.12744497 1.1115627 -0.43453643 -0.8585877 1.1513288 -2.2472181 -0.48805436 0.29682148
1.5268939 0.26373816 -1.5773289 -1.0995986 -3.4555376 1.3702251 1.3592529 -0.95626
0.4011656 -0.899355 0.34071887 -0.9940856 0.4690653 -0.46992153 -0.9727351 0.36245194

noise f4 [1, 1, 32, 32]
00000000: a5fb 02c0 f173 b8bf e780 bc3f edb9 0ac0
00000010: 1056 6bbf 7bd0 bf3e 1916 8abf 4d04 353f
00000020: b8da 08be 5594 04bf e4cc b43c be4d 353e
00000030: 5bf5 75bf 2513 4f3f 138f afbf db9d 7cbf
00000040: 124f 8ebf db8c 9cbf 6e86 3e3e eab6 b0bf
00000050: f71a ce3f 1e40 a9bf d42f 63bf 9e9d 5d3f
00000060: bec9 c53f e71b 4d3f e9fc 963e 8735 aebf
00000070: 345a 9abf e81f 41bf 8841 8f3f e5d2 4d3f
00000080: a99c a63f 32af e03e 3eb0 67bf fb71 fc3e
00000090: 046d 07c0 fa9f a13f c244 fb3d bbb3 9dbe
000000a0: 9868 41bf 926e 543e ef15 043f b4a8 383e
000000b0: fba5 b33e 3c99 d93d 9c35 acbf 5f99 843f
000000c0: 0f5f 8f3f 1687 5fbe 87c7 3a3d 7ab5 05bf
000000d0: 7f2c 73bd 81cc 793f 3c73 6c3f d55b 2b3f
000000e0: 2785 803e b1ea 9dbe 186a 8ebd 86fd 1abe
000000f0: 86ca 16bf 77d9 b1be 8a88 c43c 07f7 51bf
00000100: c132 83bf 093a 82bf b52e 43bf ae2b 0b3f
00000110: f73f 8bbc 391e 023f 6559 bc3e 7d61 b63e
00000120: 7dfb 70bf 41bc 993f d754 3d3f 49df dcbf
00000130: f41f a83f 9829 e9be b8b2 1b3f 9317 903f
00000140: b7a9 753f ff7c 113f fab0 b93f bdfc a3bf
00000150: 7de3 533f 6d98 babf c99f 64bf 7bd0 d83f
00000160: 18c8 2ebf 4f95 a03f d503 163f 511f 12bf
00000170: 61d7 c0bf f777 aabe 48c7 7b3f 2364 133f
00000180: 95c4 243d 5114 413f 7b37 d2be eed9 81bf
00000190: 105b e63d e728 403f 5040 d33e 2abd 70be
000001a0: 0fa4 05c0 4008 a9be ef93 a3be 50d0 24bf
000001b0: 6a35 62bf bccc 5dbd 7281 5e3d 7907 b73e
000001c0: c58c fdbe 10d5 b13c ac4e 493e b412 7c3e
000001d0: a07c 4ebe 33ea 9abf afca f7bf f7a3 9f3e
000001e0: e6e8 0840 8dc7 84bf 0ecc abbf 04b2 523e
000001f0: 759e 27bf 50b2 0bbe 5ee5 3cbf 6534 853f
00000200: eb2c 5ebf 5c6d 113f 1c29 4cbe bae2 93be
00000210: 066c 15bf 349d e63f 8fb6 50bf 8178 8d3f
00000220: 1d7c 253f a64c 42bf e222 a8bf c2af b03f
00000230: f662 9abf e717 043f 5c13 013f 0fcf 043f
00000240: 7967 a93e 0c7a 883f c3f7 adbf a7dc b23e
00000250: af05 c8bd 5ffb 9d3e 5728 1f3f 559c cf3d
00000260: e73e 3bbf a7e6 84be c914 313f ee62 033f
00000270: 8dbc c9be d53c 53bf f688 9e3f e14c 773f
00000280: 858d 23bf 4d6e 12bf 5a29 063e 76c8 d33e
00000290: afda eabf a621 aabf cf57 9f3f 3e8c 50be
000002a0: 1eb1 833f b839 333f 0eb4 67bf 6a8d 123f
000002b0: dc14 87be ac91 b0bf 64b2 9f3f 6a29 a83f
000002c0: 596f d4bf 3c88 5d3f 0bd5 e1be 0098 e1bf
000002d0: 7dac ac3e bfba 0140 aa8b 483f fbb0 94bf
000002e0: 6369 0fbf 1b7c 41bf 4e52 11bf e090 e93f
000002f0: 1c88 9f3e 7d0f 58bf be7a aabf 10f2 2abf
00000300: 1aa4 433f 8b6b 9a3f 52d6 e63e 4f7b 29bf
00000310: 05b6 95bd 77e6 233f 3ac1 e93f 10a9 833f
00000320: e969 493f edf9 98bf f6ec 2f3d 0ab0 38bf
00000330: e5d7 d73e 41d3 99bf 09ed 45c0 c92f bc3f
00000340: dc63 303e 7a85 26be 196d b6bf 93de 2d3f
00000350: d218 5a3e 6588 efbe b979 8abd 87a3 273f
00000360: 4522 2dbf 95ed 0ac0 6a4c 3cbf c43e 9a3f
00000370: 8d3c 06bf 4811 89bf feed c8bd 3f56 093f
00000380: 5c1f d8be c8e7 4f3f cb34 a93f 84e3 cebf
00000390: 19e4 0b3d 292e ffbd ce3f 6dbf d654 5a3e
000003a0: c997 703f 33a9 03bf 2a4a a23f 9a94 933f
000003b0: 3e0b 6b3e 3002 95bf 1611 bf3f 6e3e 7e3d
000003c0: 4eb7 ea3d 45c4 a5bf 5d3a 38bf fa26 7e3f
000003d0: b323 403f 0ee5 8cbf 1d9b 8d3f 64cd da3f
000003e0: 6c5f a43f 933f 00bf e254 e53e cfef 2f3f
000003f0: 52bf 5abf 7252 40bd 96b5 42bf 809b a2bf
-2.0466092 -1.4410383 1.4726838 -2.167598 -0.91928196 0.37463745 -1.0787994 0.7070969
-0.13364685 -0.51788837 0.022070356 0.17705438 -0.9607751 0.8088859 -1.3715538 -0.9867837
-1.111788 -1.2230486 0.18605968 -1.3805821 1.6101979 -1.3222692 -0.88744855 0.8656863
1.5452192 0.801207 0.2948983 -1.3610085 -1.2058778 -0.7543931 1.1191874 0.80399925
1.3016559 0.43883663 -0.905033 0.4930571 -2.1160288 1.2626946 0.12268974 -0.30801186
-0.7555022 0.20745304 0.5159597 0.18033105 0.3508757 0.1062493 -1.345386 1.0359305
1.1200885 -0.21828875 0.04560044 -0.52230036 -0.059368607 0.97577673 0.92363334 0.66937
0.25101587 -0.30843118 -0.069538295 -0.15135774 -0.58902776 -0.34736225 0.023990888 -0.8201756
-1.0249864 -1.0173961 -0.76243144 0.54363525 -0.016998274 0.50827366 0.36786953 0.35621253
-0.9413374 1.2010576 0.7395758 -1.7255641 1.3134751 -0.45539546 0.6081958 1.1257194
0.9596209 0.56831354 1.4507134 -1.2811505 0.82768995 -1.4577767 -0.8930631 1.6938623
-0.6827407 1.2545565 0.585996 -0.57079035 -1.5065728 -0.3329465 0.98350954 0.5757467
0.040226538 0.75421625 -0.41057953 -1.0144632 0.112478375 0.7506241 0.41260004 -0.2350966
-2.0881383 -0.33014107 -0.31948802 -0.6438036 -0.88362753 -0.054150328 0.054322667 0.3574789
-0.4952146 0.021708041 0.19658917 0.2461651 -0.20164728 -1.2102722 -1.9358729 0.31179783
2.139215 -1.0373398 -1.3421648 0.2057572 -0.6547616 -0.1364224 -0.73787487 1.0406615
-0.8678729 0.56807494 -0.19937557 -0.28883916 -0.58367956 1.8016725 -0.8152856 1.10524
0.64642507 -0.75898206 -1.3135645 1.3803637 -1.206145 0.5159897 0.50420165 0.51878446
0.33086756 1.0662246 -1.3591236 0.3493397 -0.09766709 0.30855843 0.6217093 0.1013724
-0.73142856 -0.25957224 0.6917234 0.5132283 -0.39401665 -0.825147 1.2385547 0.9660168
-0.63887817 -0.57199556 0.13101712 0.41363877 -1.8347987 -1.3291519 1.2448672 -0.20365998
1.0288427 0.70009947 -0.90509117 0.5724703 -0.26383102 -1.3794456 1.2476315 1.3137639
-1.6596481 0.86536 -0.4410785 -1.7624512 0.33725348 2.027023 0.7833811 -1.161651
-0.5602018 -0.75579995 -0.5676621 1.8247337 0.3115853 -0.84398633 -1.3318708 -0.6677561
0.76422274 1.206407 0.45085388 -0.6620378 -0.07310108 0.64023536 1.8262093 1.0285969
0.7867723 -1.1951271 0.042950593 -0.72143614 0.42156902 -1.2017595 -3.0925925 1.4702083
0.17225593 -0.16261855 -1.4252044 0.67917746 0.2129853 -0.46783748 -0.06761498 0.654839
-0.67630416 -2.1707509 -0.735541 1.2050405 -0.52436143 -1.0708399 -0.098110184 0.53647226
-0.42211425 0.81213045 1.3219236 -1.6163182 0.034153078 -0.12459976 -0.92675483 0.21321425
0.93981606 -0.5143005 1.2678883 1.1529725 0.22953507 -1.1641293 1.4927089 0.062071256
0.11460744 -1.2950522 -0.71964055 0.99278224 0.7505447 -1.1007402 1.1062962 1.709393
1.284162 -0.50097007 0.44791323 0.68725294 -0.8544818 -0.046953626 -0.7605833 -1.2703705

noise f4 [1, 1, 32, 32]
00000000: 4c41 cb3e c5e8 1940 9f4a 9abf 7448 483f
00000010: 72e1 1cbe 9f83 b2be 4928 34bf 1a88 ffbe
00000020: d728 6b3f 61dc 7a3f 46b5 2b3f 43db 97be
00000030: 0327 593e 7cb1 93be bc62 9f3e 58f8 9fbc
00000040: f1f3 95bf b52f c7be 225b 7cbe 6274 b63f
00000050: 92ae 2740 5ee7 adbf 310c 803f 4fc6 afbf
00000060: 52e0 3a3f 0e5a 1ac0 e192 b13f 496d 11c0
00000070: 9ecc 80bf e038 753f a203 a83f 8ee9 0ebf
00000080: 2550 183f ab97 d7be 8d0e 3a3e 5dfe 303f
00000090: 1cfc 463e ddbd c1bf 684e 9f3f 55e0 3540
000000a0: ddf0 663f c7e5 aabf b0e5 533f 4972 ad3f
000000b0: c476 f43e 9003 10c0 c7ac 80bf 501b 09c0
000000c0: ced5 993e fc7f 4e3e a730 963f b9ff 71be
000000d0: 493a 683f 0096 023f 052a 6cbe cd7a 2a3f
000000e0: 7fe8 b63e ceda f5bc e4f9 66bf c649 793f
000000f0: 7e42 2340 2ef1 4cbf 73e7 323f 99b8 f93f
00000100: 9c1b 27be 9807 45be a180 b43e 6409 953e
00000110: 6f8b 2a3f e0a3 5d3e 1601 84be e4ab ad3f
00000120: c768 12bf ff9b 3f3e 4def 0dbf 21f1 b73f
00000130: 40b4 3c3f 256d 81bd 42f4 f1bd 5778 19be
00000140: 5fca 92bf 626c b53e 9107 913e 6efd 7bbe
00000150: 1a01 e13e 0fab 96bf 3870 0e40 5cdc 5cbf
00000160: 4933 22bd d226 e8be 6128 b0be 0fba af3f
00000170: 0207 31be 3bbb 913f 7cec 02bf b6e1 82bf
00000180: 081f 2f3c 9816 7bbe 8d08 b43e 7453 f7bf
00000190: 4e46 2abf 6d9c 6b3f d69f c13f 965f 143c
000001a0: df8d 88be bff0 5ebf 0096 57be 8a33 a7bf
000001b0: 9943 afbe 3673 b33f 0878 25c0 6bd9 85bf
000001c0: e79f 38bf 1a1b d7bd 1d51 f8be 9f84 2ac0
000001d0: b614 c9be ced2 70bf a6b8 a2be f5d5 773f
000001e0: 4e18 dd3f 3903 19be a0f5 683d a3ad 13bf
000001f0: 908d 8f3f aa37 07bf 711d f9bc da60 ee3e
00000200: 4192 f13f 4f40 8dbc 572c 2b3f cd05 3fbf
00000210: 1797 bf3e 5b7b 9a3f e63f 19bf cbba 133f
00000220: 1058 f9bd 0327 d0bf c0fa bd3e 6c80 36bf
00000230: 466e ee3e ca3c 463f d503 a5bf 23bd a4bf
00000240: 5b5b 44bf cc25 a5bf 0c81 933f 73b9 86bd
00000250: a106 55bf 001f 28bf a55e ad3f ea88 f0bf
00000260: a6c8 b6bf 88b5 203e 4aca 3bbd cbd5 583f
00000270: 0a8c d0bc 80c4 02be 9413 60bf 3083 6cbf
00000280: 84c6 18bf 4c7e 293e 9bd5 293f 286e 4dbe
00000290: 6bd7 8ebe eba4 193e d348 973e cba2 073f
000002a0: bc44 993f 196e 883f 6d47 a7be 43f2 ed3f
000002b0: ac8f ae3e bcaf 2ebe 9ccf b0bf 9863 993e
000002c0: f67f 393e df38 933f aa06 2e40 ece0 a0be
000002d0: e2cf 063f 208e 0ec0 5510 14bd 0398 bcbf
000002e0: f2d2 bc3e 9b47 84bf 1123 f03e 25a6 b03f
000002f0: ef9a 21be 3cf5 883f 1a0c 563d 6109 eebf
00000300: acb3 0c3f 7b28 aabf 4c1c 193e 89b9 1f3f
00000310: 4f28 4140 73a2 a0bf f57d fdbe 2181 5e3e
00000320: c205 0fbe f18d 9bbe 28e1 d03e c78b ea3f
00000330: aaa4 0b3e 4ebd dbbf 859c 25bf 3885 053f
00000340: fc81 533e 1ee3 07be 280c 103e b85f 8fbf
00000350: 821f 643f b90b d3bf 6269 0ac0 f5b3 b33d
00000360: aebb 453d a8a1 523f cb1b 02c0 7aff d1bf
00000370: 1fb0 af3e 0a50 2bbf 79f6 a3bf 2122 17bf
00000380: d5c9 1140 3b24 fdbe b104 993d d2d5 04bf
00000390: ad87 84be fc1d 0c40 4d9a 4fbe 95bd 473f
000003a0: 86b4 56be 61b4 45bf 6e24 cfbd ca1e ca3f
000003b0: 8aea b93e 97b7 2bbe c535 8f3f 1858 c1bf
000003c0: 79d3 68bf ba6e 91bf 3c3e e13f b777 a9bd
000003d0: 9bca cdbf e1ee f0bf 1298 84bf 00fc 14bf
000003e0: 94cb aabf 8706 01bf c33b 13bf 56cb f23e
000003f0: 13fb 1ebf 018e dcbe 68ca 02bf 00ed 203f
0.39698255 2.4048321 -1.2054023 0.78235555 -0.15320376 -0.34866044 -0.7037397 -0.49908525
0.9185919 0.9799252 0.67073476 -0.2965947 0.21206288 -0.28846347 0.31130016 -0.0195276
-1.171507 -0.38903585 -0.2464414 1.4254267 2.62003 -1.3586233 1.000372 -1.3732394
0.72998536 -2.4117465 1.3872949 -2.2722952 -1.0062444 0.9578991 1.3126109 -0.55825126
0.5949729 -0.421079 0.18169613 0.6913813 0.1943211 -1.5136067 1.2445803 2.8418171
0.9021128 -1.3351372 0.8277235 1.3550502 0.4774686 -2.2502174 -1.0052727 -2.142292
0.30045933 0.2016601 1.1733598 -0.23632707 0.90713936 0.5101013 -0.23062904 0.6659363
0.35724255 -0.03001156 -0.9022505 0.97378194 2.5509334 -0.8005551 0.69884413 1.950946
-0.16319126 -0.19241178 0.35254386 0.29108727 0.6661901 0.21644545 -0.25782079 1.3568082
-0.5719113 0.18711852 -0.5544327 1.4370462 0.7371254 -0.06319646 -0.118141666 -0.14987312
-1.1468009 0.35434252 0.28326085 -0.24608395 0.43946153 -1.1770953 2.2255993 -0.8627374
-0.03959969 -0.45342118 -0.34405807 1.3728656 -0.1728783 1.1385263 -0.51142097 -1.0225132
0.010688551 -0.24520338 0.35162774 -1.9322343 -0.66513526 0.9203556 1.5126903 0.009055993
-0.2667074 -0.870861 -0.21053314 -1.3062603 -0.3423126 1.4019535 -2.5854511 -1.0456976
-0.7211899 -0.10503216 -0.48499385 -2.6643445 -0.39273614 -0.9407166 -0.317815 0.9681085
1.7273042 -0.14942636 0.05687487 -0.57686824 1.1215076 -0.5281931 -0.030409547 0.46558267
1.8872758 -0.017242579 0.6686453 -0.74618226 0.3741996 1.2068895 -0.59863126 0.577069
-0.12175 -1.6261905 0.3710537 -0.71289706 0.46568507 0.77436507 -1.2891794 -1.287022
-0.767019 -1.290216 1.1523757 -0.065783404 -0.8321324 -0.656723 1.3544508 -1.8791783
-1.4279983 0.15694249 -0.045847215 0.8470122 -0.0254574 -0.12770271 -0.87529874 -0.92387676
-0.5967791 0.16552085 0.6634156 -0.20061553 -0.27898726 0.15004317 0.29547748 0.5298278
1.1974101 1.0658599 -0.3267168 1.8589557 0.34093988 -0.17059225 -1.3813357 0.29958797
0.1811522 1.1501731 2.7191567 -0.31421602 0.52660954 -2.2274246 -0.036148388 -1.473389
0.36879689 -1.0334352 0.46901754 1.3800703 -0.15781759 1.069984 0.052257635 -1.8596612
0.5496166 -1.3293604 0.149522 0.6239248 3.0180852 -1.2549576 -0.4951016 0.21728946
-0.1396704 -0.3038173 0.4079678 1.8323907 0.13637033 -1.7167146 -0.64691955 0.521564
0.20655054 -0.13270232 0.14067137 -1.1201086 0.8911058 -1.6487952 -2.162682 0.087745585
0.04827469 0.8227792 -2.0329463 -1.640609 0.34314057 -0.66919005 -1.2809592 -0.5903645
2.2779438 -0.49441704 0.07471598 -0.51888764 -0.25884762 2.18933 -0.20273705 0.78023654
-0.20967302 -0.7722836 -0.1011437 1.5790646 0.36311752 -0.16769253 1.1188284 -1.5105009
-0.9094768 -1.1361916 1.7597117 -0.08274787 -1.6077455 -1.88229 -1.0358908 -0.5819702
-1.3343377 -0.50400585 -0.57513064 0.47420758 -0.6210186 -0.4307709 -0.510901 0.62861633

noise f4 [1, 1, 64, 64]
00000000: ce8b d13e 4fe4 0b3f 2a2e edbd ab89 7a3e
00000010: bee5 ccbf f249 8f3f 152c e2be c8fa a83e
00000020: 0c99 453f 0006 1f3e 24e5 1440 e1e6 6c3e
00000030: bd3c 0640 cfcd a6bf 72c8 ca3e 5833 773f
00000040: 76c7 36bf d2da a23f 145b 3f3e cb8b fcbd
00000050: 6bb0 84be bab4 613f 7445 0dbe 896d 93bd
00000060: f2f3 56bf 1c7c 5840 4771 bfbd 29f6 be3f
00000070: 0fb2 83bf c16c 3d40 ad16 4ebf 1947 0e3f
00000080: 90c6 debf 1466 673f e258 553f c235 84be
00000090: 435e 3ebe 2442 ad3e 9e8e a53e 656d 73be
000000a0: 08a8 053f 4cfb b33e 5f9f bfbf d15e 01bf
000000b0: b1b2 8bbd 5605 f33e 1277 ccbf 1af7 30bf
000000c0: 8b38 303f 886e 0a3f c546 753f 5d23 c2be
000000d0: 3e10 9abd ab4c d5bf 79d8 293f a041 1f3f
000000e0: 9962 123f 506f 9b3d 8ca8 debf f7fd dd3f
000000f0: 3cb7 ad3e a222 213f a441 ffbe 7ac7 5ebf
00000100: b8e5 193e 117e 733d da35 af3e 547b 0bbf
00000110: 9cdb 843f a9e9 bebf 1af5 fd3e c250 63be
00000120: 4e3d 273f acf3 aebc 7789 c6bf ab52 cb3f
00000130: f7d2 673f 2ff8 443f 53fa d9be 4f62 a8be
00000140: d87b cf3f abe9 cdbf b109 febf b200 c9bd
00000150: fb1b da3e cca0 133f b6d8 7a3c 3702 81be
00000160: 33f5 2ebf 84e2 e33f afa6 6e3f 6e87 0440
00000170: 5ed0 0340 d274 023f 8a55 dabf d477 30be
00000180: 91ea 99bf ad6f b63f 22fc 7fbf 14e1 b7be
00000190: 8a9c 923d d3ec f4bd 58aa 7a3f 9160 313f
000001a0: 4245 3fbe d44c fc3c f5bf 9abf 69d3 3d3e
000001b0: eb53 363e e7c0 323f e693 3dbe b147 97be
000001c0: 7b6c eebd 995c 623d 4001 85bf 7807 9bbf
000001d0: 62a2 19bf 1e8f 9ebf 892f ec3f e13c 87bd
000001e0: f03a 2abf 3e35 843d 766a d43d 3042 fd3f
000001f0: cf97 a4bf 5c46 d63e 5cfa b4bf 8979 f0bd
00000200: c2a6 b0bf 8723 ae3f ce96 19be 1e86 853f
00000210: 5288 32bf 6fca 13bf 8820 703f bc81 e53f
00000220: e51f efbe 1370 8abf b734 5abf a158 2e3f
00000230: e56b 713f f41c 15bf 08f6 923f 6dee 7e3f
00000240: 43cc 723e 86f2 a1bf 8431 423f d918 95bf
00000250: 6e25 83bf 5f27 89bd 0c9e 383e ab53 da3d
00000260: eb7f 0abf e3a1 5abf c424 e0bf 1872 8d3e
00000270: 05f1 cfbf 1b92 bdbe 3f88 e93e 1c7a 02bf
00000280: 86ce 05bd 80d4 03c0 3c43 4e3c ec00 1840
00000290: 8662 7ebd abd3 6bbf 4ffa f9bf a533 f43e
000002a0: e2f2 753e 71dd 1240 7702 05c0 2f6c 653e
000002b0: 99ad ce3f 310e 7b3f 1fac 883e 8b33 843e
000002c0: 4cdc ffbe 2943 3a3f 3e57 19bf 5d40 a43e
000002d0: 87d6 5cbf 45d8 b8be d74c dc3e eb0c 91be
000002e0: e68a 2fc0 777b 0cbe 5e27 353f 076c c8bf
000002f0: 5f67 14c0 a307 f43e abf3 0bbf f8c6 c9be
00000300: 61ee 1a3f 839a fd3d 3019 d4be c9c3 a13f
00000310: f65c 9a3e 0209 ef3f b301 1ebe 7fa5 6ebe
00000320: 70c3 993f 3af5 103f 07c4 22c0 2f2b 27bf
00000330: ebf3 b13e e991 de3c 10d4 f3bf bf5c 373c
00000340: 6d1f 803f 484e 373e 47e7 a0bf 087a 9e3d
00000350: e351 8a3f dd48 88be 3b7f 8b3f 6cc2 90be
00000360: f4fe dfbf cf42 aabf 049e f9be aae4 99bf
00000370: ea71 c1be 0368 95bf ea4e 8d3f 812a d5be
00000380: f3ef 923e b346 27bf 50b9 2a3f 7665 593f
00000390: f5e4 b4be e037 bcbf bf12 d83e 3580 ebbe
000003a0: 8744 b5be d9f6 743f 6734 31bf 46c2 e9be
000003b0: 76b0 f7bf e485 193f 17ec 03bf 1788 d13e
000003c0: 8cc0 16bf 76e7 5f3f 0d52 b6bf 409d d13f
000003d0: e0a9 4b3f 8437 143e 81be 6c3f 9ca7 233f
000003e0: 46af f53f c96e 493f 27f3 abbf 7c59 6e3b
000003f0: c64d 1ebf 0f60 4f3e f997 4a3f 7eaf 4dbf
0.40926975 0.54645246 -0.11581071 0.24466579 -1.6007612 1.1194441 -0.44174257 0.3300383
0.77186656 0.15529633 2.3264856 0.23134948 2.0974572 -1.3031558 0.39606053 0.9656272
-0.71398103 1.2723029 0.18687087 -0.12331351 -0.25915846 0.8816639 -0.13796026 -0.071986265
-0.8396598 3.382575 -0.09347778 1.4918872 -1.0288714 2.9597628 -0.8050335 0.55577236
-1.7404346 0.90390134 0.8333875 -0.25822264 -0.18590645 0.33839524 0.3233537 -0.237722
0.5220952 0.35152662 -1.4970511 -0.50535303 -0.06821192 0.47465008 -1.5973837 -0.6912705
0.6883628 0.5407491 0.9581111 -0.37917605 -0.07522629 -1.6664022 0.66345936 0.6220951
0.571817 0.075895905 -1.7395186 1.7343129 0.3392886 0.6294347 -0.49854767 -0.8702313
0.15029037 0.0594464 0.34220773 -0.5448506 1.037952 -1.4915057 0.4960106 -0.22198775
0.6532792 -0.021356426 -1.5510701 1.5884603 0.9055628 0.769412 -0.42573795 -0.32887504
1.6209669 -1.6086935 -1.9846708 -0.09814586 0.42599472 0.5766723 0.015310457 -0.25197002
-0.68342894 1.7803502 0.9322309 2.070766 2.0595927 0.50959504 -1.7057354 -0.17233211
-1.2024709 1.4252831 -0.999941 -0.35913908 0.07158764 -0.11959233 0.97916174 0.69287974
-0.18678764 0.030798353 -1.2089831 0.18537678 0.1780545 0.69825596 -0.1851345 -0.29546884
-0.11641785 0.05526409 -1.0391006 -1.2111654 -0.600134 -1.2387426 1.8452007 -0.066034086
-0.6649618 0.06455468 0.10371868 1.9785824 -1.2858828 0.41850555 -1.4138904 -0.11741931
-1.380089 1.3604592 -0.14998934 1.0431554 -0.6973926 -0.57730764 0.9379964 1.7930217
-0.4670402 -1.0815452 -0.85236686 0.68103987 0.9430526 -0.58247304 1.1481333 0.9958256
0.23710732 -1.2652137 0.75856805 -1.1648208 -1.0245798 -0.066969626 0.1802904 0.1066049
-0.5410144 -0.8540327 -1.751122 0.2762611 -1.6245428 -0.37025532 0.4561176 -0.50967574
-0.03266766 -2.059845 0.012589272 2.3750563 -0.062105678 -0.92119855 -1.9529513 0.47695652
0.24018434 2.2947657 -2.0782754 0.2240455 1.6146728 0.9806853 0.26693818 0.25820574
-0.4997276 0.7275873 -0.59898746 0.32080355 -0.8626484 -0.361025 0.43027374 -0.28330168
-2.7428527 -0.13718973 0.70763195 -1.5657967 -2.3188093 0.47662076 -0.5466868 -0.39409614
0.6051999 0.123829864 -0.41425467 1.2637874 0.3014905 1.8674624 -0.15430336 -0.23305319
1.2012768 0.56624186 -2.5432146 -0.6530027 0.34756407 0.027169185 -1.9049091 0.011191546
1.000959 0.17900956 -1.257058 0.07738119 1.080624 -0.2661809 1.0898203 -0.28273332
-1.749968 -1.3301638 -0.4875337 -1.2022908 -0.37782222 -1.1672367 1.1039708 -0.4163399
0.28698692 -0.65342253 0.66689014 0.8492044 -0.3533093 -1.4704552 0.42201802 -0.45996252
-0.35403845 0.9568916 -0.69220585 -0.4565603 -1.9350727 0.59969926 -0.5153212 0.4092414
-0.58887553 0.87462556 -1.424379 1.6376114 0.79556084 0.14474303 0.92478186 0.63927627
1.9194114 0.7868467 -1.3433579 0.0036369255 -0.6183742 0.20251487 0.7913814 -0.80345905
