examples/examples_celeb/samples/1.pt (torch_old, 731568 bytes, 15 tensors)

w f4 [512]
0	0xbe7e81fb	-0.24854271
1	0xbf45a450	-0.77203846
2	0xbe027fe4	-0.12744099
3	0x3f0f86e4	0.560652
4	0x3cb9493e	0.022617932
5	0x3e1a8413	0.15089445
6	0x3ea144b8	0.3149774
7	0xbdccc59a	-0.09998627
8	0xbeabc704	-0.33550274
9	0xbd94f08d	-0.07272444
10	0x3ebbdfc7	0.36694166
11	0xbefb47d2	-0.49078232
12	0x3f6dd205	0.9289859
13	0xbe6ef78c	-0.23336619
14	0xbd83c2e8	-0.0643366
15	0x3e4dc977	0.20096384
16	0x3f644674	0.8917
17	0x3e266136	0.1624802
18	0x3ea67e77	0.3251836
19	0x3e5d2f2b	0.21600024
20	0x3f10b982	0.5653306
21	0xbec6375c	-0.3871411
22	0x3c4e1830	0.012579009
23	0x3f7af80b	0.98034734
24	0x3fb95486	1.447892
25	0x3f5fd125	0.87428504
26	0xbd269914	-0.04067333
27	0x3ea3aeae	0.31969208
28	0xbcc37d99	-0.0238636
29	0xbe03566f	-0.1282594
30	0x3ed8aeec	0.42320955
31	0x3ef0737e	0.46963114
32	0x3f3f068f	0.7461938
33	0x3e6a6145	0.22888668
34	0xbe38b911	-0.18039347
35	0x3e0162b9	0.12635316
36	0xbe5614f6	-0.20906433
37	0x3f1de92c	0.6168392
38	0xbedf1a10	-0.43574572
39	0xbeb07a17	-0.34468147
40	0xbe16b27b	-0.14716522
41	0xbee0d21f	-0.4391031
42	0x3ec37474	0.38174784
43	0x3ed262f7	0.4109113
44	0xbe1bb818	-0.15206945
45	0xbe77d4b8	-0.2420224
46	0x3f6c6dd0	0.9235506
47	0x3e3809ad	0.17972441
48	0x3ee44e64	0.44591057
49	0x3de731dd	0.112888075
50	0x3d929e28	0.07159072
51	0xbe93ff70	-0.2890582
52	0xbe880149	-0.2656348
53	0x3fa57218	1.2925444
54	0x3e19c91a	0.1501812
55	0x3e5ee4a6	0.2176691
56	0xbeb3a3e9	-0.3508599
57	0xbeb31729	-0.34978607
58	0x3dbb5dea	0.09148772
59	0x3f68d2a5	0.9094642
60	0x3e1a9831	0.15097119
61	0x3c568efc	0.013095614
62	0x3dbb12a2	0.09134413
63	0x3eaebbd4	0.34127676
64	0xbcf785a5	-0.030215094
65	0x3f9414bd	1.1568829
66	0x3de33bb4	0.11095372
67	0xbea34101	-0.31885532
68	0x3eeb1b4f	0.45919272
69	0x3eabc8d5	0.3355166
70	0x3ed6c187	0.41944525
71	0xbd807ab5	-0.062734045
72	0x3ecd2584	0.40067685
73	0x3f07ad3d	0.52998716
74	0xbe0444d8	-0.12916887
75	0xbb929e00	-0.0044744015
76	0xbdc1493b	-0.09437796
77	0x3f72843f	0.9473304
78	0x3dd52266	0.104069516
79	0x3ec5662b	0.3855451
80	0x3fadd79c	1.3581424
81	0x3ec06fa8	0.37585187
82	0x3e39096d	0.18070002
83	0xbd21c5fc	-0.039495453
84	0x3ec3fafe	0.3827743
85	0x3e49e816	0.1971744
86	0x3f2cb3d1	0.6746188
87	0x3f75180c	0.9573982
88	0xbee3a212	-0.44459587
89	0xbedf6b39	-0.43636492
90	0x3eb8258e	0.35966152
91	0xbe989443	-0.29800615
92	0xbec9fc2e	-0.3945021
93	0xbf00a9b2	-0.50258934
94	0x3ecbfa49	0.3983939
95	0x3dcb94f4	0.0994052
96	0x3eb434f8	0.35196662
97	0x3e2040ad	0.15649672
98	0x3e97c648	0.29643464
99	0x3f461a23	0.7738363
100	0x3ee23f67	0.44188997
101	0xbe471f2e	-0.19445488
102	0x3dd22c2c	0.10262331
103	0x3efde55f	0.4958906
104	0x3d0952b0	0.033526123
105	0x3e984363	0.29738912
106	0x3e7822b0	0.24231982
107	0x3ea306df	0.3184118
108	0xbe66e0c2	-0.22546676
109	0x3e22e14c	0.15906256
110	0x3caed9fe	0.021344181
111	0x3f54b92e	0.8309506
112	0xbe036e4d	-0.12835045
113	0x3f4b0b3e	0.7931403
114	0x3e7c6569	0.2464806
115	0x3ccf9086	0.025337469
116	0x3f0c9ee3	0.5492994
117	0xbe789803	-0.24276738
118	0xbee24bc0	-0.44198418
119	0x3ec6301b	0.38708577
120	0x3cbe45a7	0.023226572
121	0x3f6b74f4	0.9197533
122	0x3e68acba	0.2272214
123	0xbefc5d6c	-0.49290025
124	0x3d8a3fe6	0.06750469
125	0xbf1a5d96	-0.6029905
126	0xbe198326	-0.14991435
127	0x3e448226	0.19190273
128	0x3eb48a4b	0.3526176
129	0x3eac5700	0.33660126
130	0x3ebd28a0	0.36945057
131	0xbec464a9	-0.38358048
132	0x3ec78dcc	0.3897537
133	0x3eb74e8e	0.3580212
134	0x3df45dce	0.11931954
135	0x3f920b50	1.1409702
136	0xbf1aa930	-0.6041441
137	0x3f0b74eb	0.5447528
138	0x3ee0d310	0.43911028
139	0x3f2cac47	0.67450374
140	0xbef9ed39	-0.488138
141	0x3ef8cb1b	0.48592457
142	0xbcbf1feb	-0.02333065
143	0x3eec20a0	0.4611864
144	0x3eb1af0f	0.34703872
145	0xbe89778e	-0.26849025
146	0x3e376740	0.1791048
147	0x3e203611	0.15645625
148	0xbb271e97	-0.002550041
149	0x3f2a5d42	0.6654855
150	0x3eccf57b	0.40031037
151	0x3f2b78ba	0.6698109
152	0xbe67fdb1	-0.2265537
153	0x3f4dd56c	0.8040378
154	0xbf1d4cbc	-0.6144521
155	0x3f6e8767	0.9317536
156	0x3e03607a	0.12829772
157	0xbe497c8f	-0.19676422
158	0x3e5c8e6e	0.21538708
159	0x3e48358f	0.19551681
160	0x3dbe7ad1	0.09300769
161	0x3e1b0170	0.15137267
162	0x3ebd329e	0.3695268
163	0xbebd3c08	-0.36959863
164	0x3edd1875	0.43182722
165	0x3f769502	0.9632112
166	0x3a8d882a	0.0010798026
167	0xbe4c5a7f	-0.19956397
168	0xbe1df094	-0.15423805
169	0xbdc1fba1	-0.094718225
170	0xbdb68ed0	-0.08913958
171	0x3fa3445b	1.2755235
172	0xbe3adb7c	-0.18247789
173	0x3eb3fe4b	0.35154948
174	0x3e10d4d9	0.14143695
175	0x3ed3c91c	0.41364372
176	0x3ecfdf50	0.4060006
177	0x3d10d8e7	0.035363104
178	0x3d6c64c2	0.057713278
179	0x3f3541d7	0.7080359
180	0xbf02dcf8	-0.5111842
181	0x3f8b4870	1.0881481
182	0x3e8d37b1	0.27581552
183	0x3e4b6828	0.19863951
184	0xbe1f52b9	-0.155589
185	0x3f38ff22	0.722643
186	0x3bd9ad01	0.006642938
187	0x3eb3e438	0.35135055
188	0xbee8275b	-0.45342526
189	0x3eb73279	0.35780695
190	0x3e8a8a95	0.27058855
191	0xbea931f6	-0.3304593
192	0x3ef9e4a1	0.48807243
193	0xbf3f1c88	-0.7465291
194	0xbe7e7f11	-0.2485316
195	0xbead7105	-0.3387529
196	0x3f4081b0	0.7519789
197	0xbe76e530	-0.24110866
198	0x3f080682	0.5313493
199	0x3ee73320	0.45156193
200	0x3dd23b92	0.102652684
201	0x3e82c85a	0.2554348
202	0xbe3f1d4b	-0.18663518
203	0x3f385785	0.72008544
204	0x3e33d875	0.1756304
205	0xbca5848f	-0.02020481
206	0x3e8926d9	0.2678745
207	0xbe1a7c4a	-0.15086475
208	0xbe994126	-0.29932517
209	0x3ebf1ac7	0.37325117
210	0x3f2b7037	0.669681
211	0xbed78bc4	-0.4209882
212	0xbe20700e	-0.15667745
213	0x3ec35727	0.3815243
214	0x3e9af360	0.30263805
215	0x3ec72012	0.38891655
216	0xbb1f1102	-0.0024271612
217	0xbe914826	-0.28375357
218	0xbe4eadeb	-0.20183532
219	0x3f60fb70	0.87883663
220	0xbe21a6e2	-0.15786317
221	0x3f233dc8	0.63766146
222	0xbe9acad3	-0.30232868
223	0x3f538683	0.82627124
224	0x3ee2888d	0.44244805
225	0xbce28d6f	-0.027655331
226	0xbf08ca59	-0.5343376
227	0xbe8aa06f	-0.27075526
228	0x3ee7f889	0.45306805
229	0xbe185318	-0.14875448
230	0x3e867cad	0.26266995
231	0xbea2ec98	-0.31821132
232	0x3f09c30a	0.5381323
233	0x3f6a8da9	0.91622406
234	0x3e4fd94c	0.20297736
235	0x3ea14dfc	0.3150481
236	0x3f595056	0.8488821
237	0x3db50993	0.08839717
238	0xbe578758	-0.21047723
239	0x3f36b314	0.71367
240	0xbe39b206	-0.18134317
241	0x3e685081	0.2268696
242	0xbe9390ca	-0.28821403
243	0xbba488a8	-0.0050211735
244	0x3eabf973	0.33588752
245	0x3f580b25	0.84392005
246	0x3cf3d442	0.029764298
247	0x3e877c4c	0.26462018
248	0x3f2f9f29	0.68602234
249	0x3f002fdc	0.5007303
250	0x3e7bbc9e	0.2458367
251	0x3de1c377	0.1102361
252	0xbdf6eafa	-0.12056537
253	0xbda5c4e9	-0.08094198
254	0xbee0cd4c	-0.4390663
255	0xbe80fc24	-0.25192368

wp f4 [14, 512]
0	0xbda0c510	-0.07850087
1	0xbfa49d03	-1.2860416
2	0xbe56931f	-0.2095456
3	0x3ecf2eb8	0.4046533
4	0x3d9e7189	0.07736499
5	0x3f113670	0.5672369
6	0x3e9731c7	0.29530165
7	0xbe26a3b5	-0.16273387
8	0xbdfbfa01	-0.12303544
9	0x3e582166	0.2110649
10	0x3e38eae1	0.18058349
11	0xbc5b17d3	-0.013372379
12	0x3f8a5293	1.080645
13	0xbe94ffe2	-0.29101473
14	0x3e57de3c	0.2108087
15	0xbe1d6b2c	-0.15372914
16	0x3f8571e7	1.0425385
17	0xbee2dad7	-0.44307587
18	0x3e8438dd	0.25824633
19	0xbd87a58c	-0.066233724
20	0x3f8a1328	1.0787096
21	0xbe8eecaf	-0.2791495
22	0xbd0d9db1	-0.034574214
23	0x3fc72b4c	1.5560088
24	0x3faf97aa	1.3718159
25	0x3f846f84	1.0346532
26	0xbe293c57	-0.16526924
27	0x3e626219	0.22107734
28	0xbe10c29c	-0.14136738
29	0xbf083ea6	-0.53220594
30	0x3e3392ac	0.1753642
31	0x3e5580d6	0.20849928
32	0x3f166589	0.5874868
33	0x3f59c988	0.8507314
34	0xbe7cc594	-0.24684745
35	0x3f58b135	0.84645396
36	0x3c11b05b	0.008892144
37	0x3f952a64	1.1653562
38	0x3e4c4a6c	0.19950265
39	0xbe6bf565	-0.2304283
40	0xbea4c8d5	-0.32184473
41	0xbf0131df	-0.5046672
42	0xbd32a9af	-0.043618854
43	0xbdf4c91e	-0.119524226
44	0x3dff9239	0.12479062
45	0xbf191ff7	-0.598144
46	0x3f6065aa	0.8765513
47	0x3eaf3dd7	0.34226868
48	0x3f6e614c	0.93117213
49	0x3e5a69f8	0.21329486
50	0xbd165cde	-0.03670966
51	0xbebd14c5	-0.36929908
52	0x3f155217	0.58328384
53	0x4010ea1a	2.2642884
54	0x3e3163b3	0.17323188
55	0x3f3bc974	0.7335427
56	0xbf6e8f61	-0.9318753
57	0x3e5f0ebb	0.21782963
58	0x3f91e452	1.1397803
59	0x3f874844	1.0568929
60	0x3dfccb9e	0.123435244
61	0xbe850c59	-0.25985983
62	0x3ea7929b	0.3272904
63	0x3eda9502	0.4269181
64	0x3dc82db5	0.09774343
65	0x3fb6e0ef	1.4287394
66	0xbd92f3b3	-0.07175388
67	0xbf6295dc	-0.8850992
68	0x3eb41416	0.35171574
69	0xbc1f01d6	-0.009705028
70	0x3f462bd3	0.7741062
71	0xbe30ae19	-0.17253913
72	0x3f026726	0.5093864
73	0x3f00c0c4	0.50294137
74	0x3dff827b	0.12476059
75	0x3d2a9b6b	0.041652124
76	0x3e7b73c9	0.24555887
77	0x3f738897	0.95130295
78	0xbe4cba97	-0.19993053
79	0x3f2c6aa3	0.67350215
80	0x3fcfaa19	1.6223785
81	0x3edb5059	0.42834738
82	0x3e540b19	0.20707358
83	0x3dd283b7	0.10279029
84	0x3f0488b7	0.5177111
85	0x3d3f3ab2	0.046686836
86	0x3ec3a2fd	0.38210288
87	0x3f47451f	0.77839845
88	0xbef15e14	-0.47142088
89	0xbe80d439	-0.25161913
90	0xbecf4c9e	-0.40488142
91	0xbf3589ed	-0.70913583
92	0xbef8f8aa	-0.48627216
93	0xbf0fc13c	-0.5615423
94	0x3ea0e961	0.31428054
95	0xbdc23e67	-0.094845586
96	0x3d98e2f8	0.07465166
97	0xbe0d7350	-0.1381352
98	0x3e5c42ce	0.21509859
99	0x3f996102	1.198273
100	0x3ed7ba19	0.4213417
101	0xbeb90e45	-0.361437
102	0xbe5d08d2	-0.21585396
103	0x3f225f54	0.6342671
104	0x3e9f7213	0.3114172
105	0x3f108615	0.5645459
106	0xbf23a58f	-0.639245
107	0x3f082ad8	0.53190374
108	0x3de3a097	0.111146145
109	0x3f3ce718	0.7379012
110	0x3e754f8c	0.23956126
111	0x3ef8c0e2	0.48584658
112	0xbc1c9cac	-0.009558838
113	0x3f5963bb	0.849178
114	0x3d906f54	0.07052484
115	0x3fd3f018	1.6557646
116	0xbe686429	-0.22694458
117	0xbeaa5842	-0.3327046
118	0xbe926437	-0.28592083
119	0x3e0b7abe	0.13621041
120	0x3e444ddd	0.19170327
121	0x3f863ded	1.0487648
122	0x3f05e478	0.5230174
123	0xbe6d1871	-0.23153855
124	0x3eb1e9cb	0.34748682
125	0xbf486092	-0.78272355
126	0x3ecd93cd	0.40151826
127	0x3f4f6cb6	0.81025255
128	0xbc5eb401	-0.013592721
129	0x3f4b120f	0.7932443
130	0x3f4a417d	0.7900618
131	0x3f3c2789	0.73497826
132	0x3e96544b	0.29361185
133	0x3f893fdc	1.0722613
134	0x3ead603b	0.3386248
135	0x3f34acf3	0.705764
136	0xbe9378df	-0.28803155
137	0x3f81c286	1.0137489
138	0x3e47a8fc	0.19498056
139	0x3f43503e	0.76294315
140	0xbf518409	-0.81842095
141	0x3f359d32	0.70942986
142	0x3e9e1ab4	0.30879748
143	0x3ec80df7	0.39073154
144	0x3f1a802e	0.60351837
145	0xbeffc1b2	-0.49952465
146	0x3e8a8603	0.27055368
147	0x3dcc3c28	0.099724114
148	0x3f0af91b	0.54286355
149	0x3f3cec25	0.7379783
150	0x3eaaa57f	0.33329388
151	0x3fc5ef5b	1.546367
152	0xbeb8dec3	-0.36107454
153	0x3f019bd2	0.5062839
154	0x3e75639c	0.23963779
155	0x3f712dd6	0.94210565
156	0x3eda90e6	0.42688674
157	0xbf3e6b0c	-0.7438209
158	0x3eaaa263	0.33327016
159	0x3eaa784d	0.33294907
160	0x3eafac5b	0.34311184
161	0x3ebd4404	0.36965954
162	0xbea61f52	-0.3244577
163	0xbe5aacaa	-0.21354929
164	0x3e0bf910	0.13669229
165	0x3facac5d	1.3490101
166	0xbd47ff1c	-0.048827276
167	0xbdf3fcd7	-0.1191346
168	0xbda4f8f4	-0.080552965
169	0x3f13eee0	0.5778637
170	0xbcc010b7	-0.02344547
171	0x3ffb3492	1.9625418
172	0xbf4c7f99	-0.798822
173	0x3eea59ce	0.4577164
174	0xbecff2b4	-0.40614855
175	0x3eb4254f	0.35184714
176	0xbcaaf13b	-0.02086698
177	0x3d80a631	0.062816985
178	0xbcb3e3c0	-0.021959186
179	0x3edc3c21	0.43014625
180	0xbee02663	-0.43779287
181	0x3f67387b	0.9032056
182	0x3f1cbe8b	0.61228245
183	0x3f4ae709	0.7925878
184	0x3dfea59e	0.12433933
185	0x3fa4da80	1.2879181
186	0xbe12b7cd	-0.14327927
187	0xbeb98157	-0.3623149
188	0xbf038d54	-0.51387525
189	0x3f0a145c	0.53937316
190	0xbe8ecb04	-0.27889264
191	0x3d185c29	0.037197266
192	0x3f0d396b	0.5516574
193	0xbf60b656	-0.8777822
194	0x3afecae2	0.0019439126
195	0xbf42ba93	-0.7606594
196	0x3f23b41c	0.639467
197	0xbe35fb87	-0.17771731
198	0x3f3d73bc	0.7400472
199	0x3e884cd5	0.26621118
200	0x3d57e1f5	0.052705724
201	0x3e786950	0.24258924
202	0xbe30c315	-0.17261918
203	0x3f933a2e	1.150213
204	0x3e81df1d	0.25365534
205	0x3e17f98a	0.14841285
206	0x3f4b9fa4	0.7954047
207	0x3f1f5097	0.62232345
208	0x3e193f65	0.1496559
209	0x3f01ab11	0.5065165
210	0x3e439a0e	0.19101736
211	0xbef56fbc	-0.4793681
212	0xbf4e78e5	-0.8065322
213	0x3ef03c10	0.46920824
214	0x3eed50f5	0.46350828
215	0x3ea11ab2	0.3146568
216	0x3f0d1868	0.55115366
217	0xbecd7f01	-0.4013596
218	0xbe3dc76a	-0.18533102
219	0x3f42e713	0.7613384
220	0xbe106b0b	-0.14103334
221	0x3f6c25aa	0.9224497
222	0x3de38bce	0.1111065
223	0x3f8b1818	1.0866728
224	0x3eef4664	0.4673339
225	0xbcfbe3ea	-0.030748326
226	0xbf22d22a	-0.63601935
227	0xbed31413	-0.41226253
228	0x3eee052c	0.4648832
229	0x3e49004a	0.19629017
230	0x3e9c2856	0.30499524
231	0xbef7916a	-0.4835313
232	0xbe2a216e	-0.16614315
233	0x3f6e6011	0.93115336
234	0x3eed9d2d	0.46408978
235	0x3f6b1ba2	0.9183904
236	0x3fa539c0	1.2908249
237	0xbe58617d	-0.21130939
238	0x3ec1acd5	0.37827173
239	0x3f08a224	0.53372407
240	0x3e8f7c44	0.28024495
241	0x3f8502a1	1.0391427
242	0x3ef32f0f	0.4749684
243	0x3eac0d25	0.33603778
244	0x3e8d4939	0.27594927
245	0x3fa15b40	1.2605972
246	0x3ea3b1ad	0.31971493
247	0x3e3f629a	0.18689957
248	0x3f060329	0.5234857
249	0x3cd6acf5	0.02620552
250	0xbf0ef591	-0.55843455
251	0x3ed2c284	0.4116403
252	0xbf15e850	-0.58557606
253	0xbc4390db	-0.011936392
254	0xbec8ade8	-0.3919518
255	0xbd945302	-0.07242395

noise f4 [1, 1, 4, 4]
0	0x3fd0ed4c	1.6322417
1	0x3e185624	0.1487661
2	0x3e60f46e	0.21968243
3	0x3f18093c	0.5938909
4	0x3fe8c519	1.818515
5	0xbfc8ff00	-1.570282
6	0xbf1055b0	-0.5638075
7	0x3eb35d28	0.3503201
8	0x3f4cf3e2	0.80059636
9	0x3f2568c2	0.6461297
10	0xbe2da0f2	-0.16955927
11	0xbfb42c1a	-1.4075959
12	0xbf7de272	-0.99173653
13	0xbec635d2	-0.38712937
14	0xbf9c1c5f	-1.2196158
15	0x3dcbf2a8	0.099583924

noise f4 [1, 1, 8, 8]
0	0x3f35c63d	0.7100561
1	0x3dcd2a26	0.10017805
2	0xbfad640d	-1.3546158
3	0xbfea144c	-1.8287444
4	0x3fa66b38	1.300147
5	0xbeb3bfc5	-0.35107246
6	0x3f4237e6	0.75866544
7	0x3ed8d025	0.42346302
8	0xbf8104b8	-1.0079565
9	0xbf6f8045	-0.935551
10	0xbf393710	-0.72349644
11	0xbe791545	-0.2432452
12	0x3fe1c4a3	1.7638134
13	0xbe58e66e	-0.21181652
14	0xbd9113f0	-0.07083881
15	0x3eb5d63e	0.35515016
16	0x400b8501	2.179993
17	0xbea22f67	-0.3167679
18	0x40370a4f	2.8600042
19	0xbd68c288	-0.056826144
20	0x3c744ce7	0.014910913
21	0xbe9b7689	-0.30363873
22	0xbeac219d	-0.33619395
23	0x3f995a38	1.1980658
24	0xbfac7e6e	-1.3476083
25	0xbf81d2b0	-1.0142422
26	0x3f7e4382	0.9932176
27	0xbe06f908	-0.13180935
28	0xbf84fbd4	-1.0389352
29	0xc002f757	-2.0463464
30	0xbf9532eb	-1.1656164
31	0x3e15148a	0.14558616
32	0x3f66e1dd	0.9018839
33	0xbd098762	-0.033576377
34	0xbf26caf5	-0.6515344
35	0xbf49585a	-0.7865044
36	0x3ec05ec5	0.37572303
37	0xbf2c7f58	-0.6738181
38	0xbda25536	-0.07926409
39	0x3e0aa480	0.13539314
40	0xbee56439	-0.44803026
41	0x40001783	2.001435
42	0xbdcf26f4	-0.101148516
43	0x3dadbd14	0.084833294
44	0x3f2f0234	0.68362737
45	0x3fa11786	1.2585304
46	0xc01b58fb	-2.427306
47	0x3f3336b9	0.70005375
48	0xbfa4e426	-1.2882125
49	0x3ef6896d	0.48151723
50	0x3eefbff5	0.4682614
51	0x3e71775c	0.23580688
52	0xbf161619	-0.5862747
53	0xbf2d9240	-0.67801285
54	0x3e24d2ca	0.16096035
55	0x3d74e7ac	0.059791252
56	0x3f81fd73	1.0155472
57	0x3e379968	0.17929614
58	0xbf755ed6	-0.95847833
59	0x3f9d2b8f	1.2278918
60	0x3d8291f2	0.06375493
61	0xbf85daab	-1.0457357
62	0x3ef78038	0.4834001
63	0x3f6c193a	0.9222599

noise f4 [1, 1, 8, 8]
0	0xbf0ca1e2	-0.54934514
1	0x3e46248b	0.19349878
2	0x3e365edb	0.17809622
3	0xbf03408f	-0.51270384
4	0xbe799996	-0.24374995
5	0xbf71813c	-0.9433782
6	0x3f334ac9	0.7003599
7	0x3fbf170f	1.4928912
8	0xbee2a7d8	-0.4426868
9	0xbfcb4126	-1.5879257
10	0x3f4c009a	0.7968842
11	0xbde950ac	-0.1139234
12	0xbf14e0c0	-0.5815544
13	0xbfabf091	-1.343279
14	0xbe79fc62	-0.24412683
15	0x3db94ade	0.09047483
16	0xbf82264d	-1.0167938
17	0x3f59b906	0.8504795
18	0x3ef99a34	0.4875046
19	0xbe4adfc8	-0.19811928
20	0xbe70d701	-0.23519517
21	0xbf0b0f74	-0.54320455
22	0x402a0171	2.656338
23	0x3f3e66a1	0.7437535
24	0xbdff415a	-0.12463637
25	0xbf642c44	-0.89130044
26	0xbf25692e	-0.64613616
27	0xbf92d405	-1.1470953
28	0x3fd0e932	1.6321166
29	0x3f3ed563	0.7454435
30	0x3eecf48b	0.4628032
31	0xbfc2d1ae	-1.5220239
32	0xbfdc6b29	-1.7220203
33	0x3d795bc8	0.060878545
34	0x3f4b2ae9	0.7936235
35	0xbf17e5ed	-0.59335214
36	0x3fa9ec98	1.3275328
37	0xbeed8f32	-0.46398312
38	0xbcea93de	-0.028634962
39	0x3f564f58	0.8371482
40	0xbf8d64bc	-1.1046367
41	0xc04f6477	-3.240507
42	0xbf005c49	-0.50140816
43	0x3f29890f	0.6622476
44	0x3e501dfd	0.2032394
45	0x3faf45a7	1.3693131
46	0x3fb5c3b8	1.4200354
47	0x3fa572de	1.292568
48	0x3ec06f9b	0.37585148
49	0x3f5d3ab1	0.8641768
50	0xbf74d40d	-0.95636064
51	0xbe3d5b48	-0.18491852
52	0x3f5c086f	0.8595037
53	0xbea1dbd1	-0.3161302
54	0xbe95291c	-0.29132926
55	0x3f4174bc	0.7556875
56	0xbf3631a6	-0.7116951
57	0xbee1193c	-0.43964565
58	0x40018eca	2.0243402
59	0xbf8538d5	-1.0407969
60	0x3de06304	0.10956386
61	0x3e591379	0.21198834
62	0xbf0565d8	-0.52108526
63	0x3f4e2abe	0.8053397

noise f4 [1, 1, 16, 16]
0	0x3d5a7a2d	0.053339172
1	0xbf87d12e	-1.0610712
2	0x3f10019c	0.56252456
3	0xbce5d4ca	-0.028055567
4	0x3f6a93b3	0.9163162
5	0x3e3a9d80	0.18224144
6	0xbfa0b542	-1.2555315
7	0xbf5202d5	-0.8203557
8	0x3fc89127	1.5669297
9	0xbcd608c6	-0.02612723
10	0xbf570395	-0.8398984
11	0xbff47a0d	-1.9099747
12	0xbebf1339	-0.37319353
13	0x3db5a672	0.088696375
14	0xbff8f96c	-1.9451118
15	0xc040d05a	-3.0127168
16	0x3f3af8f1	0.73036104
17	0xbe230e64	-0.15923458
18	0x3e35509d	0.17706533
19	0x3e8a8870	0.2705722
20	0xbfb23514	-1.3922448
21	0xbfb67ba4	-1.4256482
22	0x3db921a6	0.09039621
23	0x3f88615d	1.0654713
24	0x3f882f2b	1.0639395
25	0xbea0209f	-0.31274888
26	0x3eb78167	0.35840914
27	0xbebcb1ab	-0.368543
28	0xbf644ede	-0.8918284
29	0x3eebeff9	0.46081522
30	0x3fb8da06	1.4441535
31	0xbfb89049	-1.4419032
32	0x3fbd7103	1.4800113
33	0xbf9d3b72	-1.2283766
34	0xbe9b518e	-0.3033566
35	0x3f972323	1.1807598
36	0xbf03b3df	-0.51446337
37	0xbef921d9	-0.48658636
38	0xbfb0c16c	-1.3809028
39	0x3f0873ea	0.5330187
40	0xbf63e6d8	-0.89024115
41	0x3faf4eae	1.3695886
42	0x3f5a3b33	0.8524658
43	0xbf8a358b	-1.079759
44	0xbed41deb	-0.41429076
45	0xbeb6e163	-0.3571883
46	0xbeb6da7a	-0.3571356
47	0xbeab5867	-0.33465883
48	0xbef8270f	-0.484673
49	0x3da994f4	0.08280364
50	0xbf604d7f	-0.8761825
51	0x3edc86d0	0.43071604
52	0xbfd1251d	-1.6339451
53	0x3efa1ba1	0.48849204
54	0xbf3ccc06	-0.73748815
55	0xbe3eaa1a	-0.18619576
56	0xbf9d06f1	-1.2267743
57	0xbf8a9b5e	-1.0828664
58	0xbcb7d2ef	-0.022439448
59	0x3f0bd8d1	0.5462771
60	0xbfd48ca7	-1.6605424
61	0x3ef84547	0.48490354
62	0x3fbb5c1c	1.4637485
63	0x3fe0ede0	1.7572594
64	0xbeaea9c7	-0.34113905
65	0x4021457d	2.5198662
66	0x3dc46018	0.09588641
67	0x3d01d0e7	0.031693365
68	0x3f495e0d	0.78659135
69	0xbf43c150	-0.76466846
70	0xbf757dca	-0.95895064
71	0xbf0da119	-0.5532394
72	0xbf2e14e3	-0.6800062
73	0xbe5e05ea	-0.21681944
74	0x3f23ddfb	0.6401059
75	0x3fbc9bef	1.4735087
76	0x3ec552b5	0.38539663
77	0x3fc7bb94	1.5604119
78	0x3d0f9ba3	0.035060536
79	0x3e1c8262	0.15284112
80	0xbe7a3195	-0.24432977
81	0xbbdedf4e	-0.0068015223
82	0x3ecd86f6	0.4014203
83	0x3fcd24b4	1.6026826
84	0xbf1b1daf	-0.6059217
85	0xbfbb7900	-1.4646301
86	0x3d57ddfb	0.05270193
87	0x3f35724c	0.7087753
88	0x400a6206	2.1622329
89	0xbff93b8e	-1.94713
90	0x3ec41bdd	0.38302508
91	0x40051075	2.0791295
92	0x3e9fa8b1	0.3118339
93	0x3e7317c7	0.23739539
94	0x3f776a5e	0.9664668
95	0xbfeb6f43	-1.8393329
96	0xbf8e67ec	-1.1125464
97	0x3eb57a0e	0.35444683
98	0xbf8f7af6	-1.12094
99	0x3ee54a7f	0.44783399
100	0xc006a269	-2.1036627
101	0x3f78cbb8	0.9718585
102	0x3f25a734	0.64708257
103	0x3ff272b2	1.8941252
104	0xbe00b0f8	-0.12567508
105	0xbe9a0cff	-0.3008804
106	0x3ec3afd7	0.38220093
107	0x3e46b82d	0.19406195
108	0x3f443f68	0.7665925
109	0xbe690502	-0.22755817
110	0xbe6413e0	-0.22273207
111	0xbe226420	-0.15858507
112	0x3faaf743	1.3356708
113	0x3f6ef159	0.9333702
114	0x3f95ea66	1.1712158
115	0xbf6c829b	-0.9238679
116	0x3fd213b9	1.6412269
117	0x3db7d042	0.08975269
118	0x3d859b7e	0.065237984
119	0x3d93fdc4	0.07226136
120	0xbfb905d0	-1.4454899
121	0x3ffb2c15	1.9622828
122	0x400224a4	2.0334864
123	0xbf2066d5	-0.6265691
124	0x3f4d2d69	0.80147415
125	0xbfbbcb07	-1.4671334
126	0x3f9f2a28	1.243474
127	0xbf4e5b66	-0.8060821
128	0xbfcfaea4	-1.6225171
129	0x3f17b2a2	0.5925695
130	0xbcfbbfa9	-0.03073104
131	0xbedebb66	-0.4350235
132	0xbf923961	-1.1423761
133	0xbdc91c98	-0.09819907
134	0x3fd9e172	1.7021925
135	0x3dd71842	0.10502674
136	0xbedd3c7d	-0.4321021
137	0xbf93a187	-1.1533669
138	0x3f521040	0.82056046
139	0x3fb38e0f	1.4027728
140	0x3fa22f0d	1.2670609
141	0xbf7f1503	-0.99641436
142	0xbe64a723	-0.22329383
143	0x3f46a1bc	0.7759054
144	0x3f468bc2	0.77557003
145	0xbf684d93	-0.9074337
146	0xbf2a4a73	-0.6651985
147	0xbff51da4	-1.9149671
148	0xbe730e8e	-0.23736021
149	0xbfb35b66	-1.4012268
150	0xbf337449	-0.7009931
151	0x3eee8bc2	0.46591002
152	0xbf9ee9f8	-1.2415152
153	0x3cad88c2	0.021183375
154	0xbe3a891e	-0.18216369
155	0x3ff97f78	1.9492025
156	0xbe456b04	-0.19279104
157	0xbfa2ee31	-1.272894
158	0xbfcbc796	-1.5920284
159	0xbfbf95dd	-1.496761
160	0xbfb1ea9c	-1.3899722
161	0x3f5b74a6	0.85724866
162	0x3fbeb555	1.4899088
163	0xbfc59921	-1.5437356
164	0xbd185449	-0.037189756
165	0xbf6af8d0	-0.9178591
166	0xbf80b1e5	-1.0054289
167	0x3f5afa37	0.8553805
168	0xbe2fafae	-0.1715686
169	0x3fda1263	1.7036861
170	0x3f2e9012	0.68188584
171	0x3d92c842	0.071671024
172	0x3f49c2cd	0.7881287
173	0xbf5f4fa9	-0.87230927
174	0x3ee63bed	0.44967595
175	0xbf6c1296	-0.9221586
176	0x3f132279	0.57474476
177	0x400c528b	2.192538
178	0x3dbd6c08	0.09249121
179	0x40000b4d	2.0006897
180	0x3eae403e	0.34033388
181	0x3e32dc62	0.17466882
182	0x3f206782	0.6265794
183	0x3e3c1880	0.18368721
184	0xba8fbfb3	-0.0010967165
185	0xbe6e9f1d	-0.23302884
186	0x3e1e445a	0.15455762
187	0x3fb2cadc	1.3968158
188	0x3ff5c4a5	1.9200636
189	0x3f9a5a60	1.205883
190	0xbdcefa34	-0.10106316
191	0xbfd351d1	-1.6509343
192	0x3beabd76	0.007163699
193	0xbe8ca54d	-0.27469864
194	0x3e4d1d7a	0.20030776
195	0xbf98df1c	-1.1943088
196	0xbf8b021c	-1.0860019
197	0xbf9a8288	-1.2071085
198	0x3fc5a635	1.5441347
199	0xbe614b7c	-0.22001451
200	0xbfaacaf2	-1.3343184
201	0xbfaef236	-1.3667667
202	0x3ee5ab4f	0.4485726
203	0xbf55a241	-0.83450705
204	0x3f7ce318	0.9878402
205	0xbe8564ab	-0.26053366
206	0x3e87a81a	0.2649544
207	0x3e0db965	0.13840254
208	0xbea685a7	-0.32523844
209	0x3ea1e31e	0.3161859
210	0xbf53408a	-0.82520354
211	0x3e7807d7	0.2422174
212	0x3fb094df	1.3795432
213	0x3f404e4d	0.7511948
214	0xbf7ab68c	-0.97934794
215	0xbdfd3b36	-0.12364809
216	0x3f3b040d	0.73053056
217	0xbfa86104	-1.3154607
218	0xbf928270	-1.1446056
219	0x3fb51a11	1.414858
220	0xbf7d517c	-0.9895246
221	0xbb65371f	-0.0034975482
222	0x3d84e4c6	0.064889476
223	0x3e49b557	0.19698082
224	0x3f613b17	0.8798079
225	0xbf96ed56	-1.1791179
226	0xbf5a4196	-0.85256326
227	0x3f811028	1.0083055
228	0x3da255aa	0.079264954
229	0xbf5d6662	-0.8648435
230	0xbece02ff	-0.4023666
231	0xbe65d5f3	-0.22444896
232	0x3f36eefd	0.7145842
233	0xbebfa507	-0.37430593
234	0x3f4a795b	0.79091424
235	0xbea01185	-0.31263366
236	0x3c200578	0.009766929
237	0xbe4f8e4a	-0.20269123
238	0xbeddbc6f	-0.43307826
239	0xbf7a1b9d	-0.97698385
240	0x3fd15e1b	1.6356844
241	0xbe2f073e	-0.17092606
242	0xbf0ff131	-0.56227404
243	0x4001834f	2.0236394
244	0xbead24df	-0.33817193
245	0xbddb53da	-0.10709353
246	0x3e06ef4c	0.13177222
247	0x400c6b15	2.1940358
248	0x3e0cb8f0	0.13742423
249	0xbdab27b0	-0.08357179
250	0x3f0ff33f	0.5623054
251	0xbd2a0b87	-0.0415149
252	0xbeaead2d	-0.34116498
253	0x3e63ed68	0.22258532
254	0xbf253f47	-0.6454968
255	0x3f9441fe	1.1582639

noise f4 [1, 1, 16, 16]
0	0xbe9f84fe	-0.31156152
1	0xbf6b9de1	-0.9203778
2	0xbe169bbe	-0.14707848
3	0xbf1f9bf0	-0.62347317
4	0x3f4e881c	0.80676436
5	0xbf42974f	-0.7601213
6	0x3e12a9b6	0.14322552
7	0x3f9e2537	1.2355107
8	0x3e4f5324	0.2024656
9	0xbd95a4ae	-0.07306801
10	0x3ef4ee62	0.47838122
11	0x3fc6e86d	1.5539681
12	0xbf3e2088	-0.7426839
13	0x3e0994c4	0.13435656
14	0xbf785c7d	-0.97016126
15	0xbf3937dc	-0.7235086
16	0xbbfdafb2	-0.007741892
17	0x3faabfbd	1.3339764
18	0xbdbfe2e0	-0.09369445
19	0x3ee081f6	0.43849152
20	0x40009b0c	2.0094633
21	0xbdce0ca1	-0.100610025
22	0xbf916a3f	-1.1360549
23	0x3ea70d21	0.32627204
24	0x3c8e7d51	0.01739374
25	0xbfc5bb62	-1.544781
26	0xbf11000b	-0.5664069
27	0xbf403c16	-0.75091684
28	0xbf6d43f5	-0.9268182
29	0xbfd373fc	-1.6519771
30	0x3fd8b803	1.6931156
31	0xbf26d783	-0.65172595
32	0xbf6fafb9	-0.93627506
33	0xbf8788cf	-1.0588626
34	0xbf0f1432	-0.5589019
35	0xbd8c65db	-0.06855365
36	0xbf5bc75a	-0.8585106
37	0xbe876df0	-0.26451063
38	0xbf9f721d	-1.24567
39	0xbf1ac5db	-0.60458153
40	0xbf0bb47d	-0.5457228
41	0xbf59e0ca	-0.85108626
42	0x3f08957b	0.5335309
43	0xbea4a914	-0.32160246
44	0x3e45dc2a	0.19322267
45	0x3f83c2a2	1.0293772
46	0x3f695412	0.91143906
47	0xbfef912e	-1.871618
48	0xbe5967a0	-0.21230936
49	0x3f92d82b	1.1472219
50	0x3ce301a6	0.027710747
51	0x3eb9871f	0.36235902
52	0x3f4d9208	0.8030095
53	0xbee6815f	-0.45020577
54	0x3f36e5b0	0.71444225
55	0xbe879f04	-0.26488507
56	0xbfc97a46	-1.574044
57	0x3f99f1ba	1.2026894
58	0x3fe38000	1.7773438
59	0x3f346bee	0.7047719
60	0x3ffb73c7	1.9644707
61	0x3f90ecdf	1.1322287
62	0x3c8e43e2	0.017366353
63	0x3f5bb00a	0.8581549
64	0x3e16e260	0.14734793
65	0x3f2eb6c1	0.6824761
66	0x3fe4927e	1.7857206
67	0x3fa32224	1.2744794
68	0x3e1d3df2	0.15355662
69	0x3d78a777	0.060706582
70	0x3f924af5	1.1429125
71	0x3f88448d	1.064592
72	0xbdb6e6ee	-0.08930765
73	0xbdd352a5	-0.103184976
74	0xbfed1ee8	-1.8525057
75	0x3fc5ada0	1.5443611
76	0xbf3bf928	-0.7342706
77	0xbfbb9720	-1.4655495
78	0xbd18ccbd	-0.03730463
79	0xbf7ca028	-0.9868188
80	0xbf31326b	-0.69217557
81	0xbe5e2532	-0.21693876
82	0x3e81d5b6	0.2535836
83	0x3e4410b0	0.19146991
84	0xbf962555	-1.1730143
85	0x3fba56d9	1.4557754
86	0xbf27f0c2	-0.6560174
87	0x3f84841b	1.0352815
88	0xbf91ec27	-1.1400193
89	0xbfa408fa	-1.281524
90	0x3f3b5193	0.7317135
91	0x3f2c8f84	0.6740649
92	0x3fc11588	1.5084696
93	0x3ffa3d13	1.9549888
94	0x3ef2186a	0.4728425
95	0xbfccd037	-1.6001042
96	0x3c6dc57b	0.014512415
97	0xbc89044e	-0.016725685
98	0x3fa4f01d	1.2885777
99	0xbd9890c3	-0.07449486
100	0xbfd14103	-1.6347965
101	0x3fbc3045	1.4702231
102	0x3d233bab	0.039851826
103	0x3d9d03eb	0.07666763
104	0x3ed8c3ee	0.42336982
105	0xbf5ecf86	-0.87035406
106	0x4004dec0	2.0760956
107	0xbf5075e6	-0.814299
108	0x3f54e93c	0.8316839
109	0xc002c5ee	-2.0433307
110	0xbfed6856	-1.8547466
111	0xbf15a30f	-0.5845193
112	0xbe72b8ee	-0.23703358
113	0xc002af29	-2.041941
114	0x3fbe3460	1.4859734
115	0xbfb83038	-1.4389715
116	0x3fb37a3b	1.4021677
117	0x3f0446b7	0.516704
118	0xbed799b4	-0.42109454
119	0x3f743bf3	0.95403975
120	0xbcf499c5	-0.02985848
121	0x3f94f214	1.1636376
122	0xbf3b2c3a	-0.7311436
123	0x3c4a1b25	0.012335573
124	0x40075f8f	2.1152074
125	0x3e0dc300	0.13843918
126	0x401adea3	2.4198387
127	0xbf2c945f	-0.67413896
128	0x3fb52ba2	1.4153941
129	0x3e3b7eca	0.18310085
130	0xbe7b9898	-0.24569929
131	0xbf641acb	-0.8910338
132	0xbe45f032	-0.19329908
133	0xbe6c426a	-0.2307221
134	0xbcc4b89f	-0.024013815
135	0xbf654ea6	-0.89573133
136	0x3e35249e	0.1768975
137	0x3d823ad9	0.063588805
138	0xbea9e15f	-0.33179757
139	0x3ed6aa80	0.41926956
140	0xbfc120cd	-1.5088135
141	0xbf3161d8	-0.6928992
142	0xbdf07afb	-0.11742207
143	0x3f80d52c	1.0065055
144	0xbf394426	-0.7236961
145	0x3f7957e7	0.97399753
146	0x3e9e4c3e	0.30917543
147	0x3f0011c2	0.50027096
148	0x3f47dfce	0.78075874
149	0xbd723c19	-0.059139345
150	0x4018a725	2.3852017
151	0x3ea2ab4e	0.3177132
152	0x3e5bc5f6	0.21462235
153	0xbf6ba108	-0.9204259
154	0x3e860b74	0.26180613
155	0x3f01617d	0.5053938
156	0xbf0f3787	-0.55944103
157	0x3f2f90dd	0.6858042
158	0x3cd3f3b9	0.025873052
159	0x3f1b0783	0.60558337
160	0xbfc02165	-1.5010191
161	0x3f4e7b25	0.80656654
162	0x3f623d00	0.8837433
163	0x3f7d3d3b	0.98921555
164	0x3f9dc7df	1.2326621
165	0xbf03e7c5	-0.5152553
166	0xbdac8682	-0.08424093
167	0xbf294b33	-0.6613037
168	0x3f46ce88	0.7765889
169	0xbf865492	-1.0494559
170	0x3f26fe7c	0.6523206
171	0xbebdc638	-0.3706529
172	0x3fc8682b	1.565679
173	0xbf33d82b	-0.7025172
174	0xbf00758b	-0.50179356
175	0x3f17d52f	0.5930967
176	0x3f4ea4a9	0.8072
177	0xbf9fcc64	-1.248425
178	0x3f4b15f9	0.793304
179	0xbfdcfd09	-1.726472
180	0x3ecb5d40	0.39719582
181	0xbff898f2	-1.9421675
182	0x3e29bd30	0.16576076
183	0xbfba3445	-1.4547201
184	0x3e7787fe	0.2417297
185	0xbf4f6e93	-0.810281
186	0x3ef3c8df	0.4761419
187	0x3eadb69c	0.33928382
188	0xbf771474	-0.96515584
189	0xbeb9376e	-0.36175102
190	0x3ffbd9d3	1.967585
191	0x402c0426	2.6877532
192	0x3fcedde3	1.6161464
193	0x3d14bb0b	0.03631119
194	0xbf1e2327	-0.6177239
195	0xbfd0fc16	-1.632693
196	0x3f9f2c4f	1.2435397
197	0xbdf3f55f	-0.11912035
198	0xbe5a993a	-0.21347514
199	0x3e62ad0c	0.22136325
200	0xbe7fd980	-0.24985313
201	0xbf3ca12c	-0.7368343
202	0xbed6e1fd	-0.4196929
203	0x3fa59d5f	1.2938651
204	0x3e4a2a6c	0.19742745
205	0x3bad2a16	0.005284558
206	0x3ddc9201	0.107700355
207	0x3d37760a	0.044790305
208	0x3d237c71	0.0399136
209	0xbf060cd4	-0.52363324
210	0x3c7d0f47	0.015445537
211	0x3fae99a5	1.3640639
212	0xbfb3bc45	-1.404183
213	0xbf8c745f	-1.0973014
214	0xbdf74ec3	-0.120755695
215	0xbeec8040	-0.46191597
216	0xbfaa4e21	-1.3305093
217	0xbef51052	-0.47864014
218	0xbf82a4e3	-1.020657
219	0xbfd9446e	-1.6974008
220	0x3fff3f64	1.994122
221	0x3f166c28	0.58758783
222	0xbf2a257d	-0.6646345
223	0x3f310a57	0.691564
224	0x3f08719b	0.5329835
225	0x3f7c5925	0.98573524
226	0xbf496955	-0.7867635
227	0xbdd475b6	-0.10374014
228	0xbec868d4	-0.39142478
229	0xbfaf19af	-1.3679713
230	0x3eebd5b1	0.4606147
231	0x3ec3ac25	0.38217273
232	0x3f8184ef	1.0118693
233	0xbd327969	-0.043572817
234	0x3f5c763e	0.86117923
235	0x3f10105c	0.5627496
236	0x3f5a6987	0.8531727
237	0x3f8f8183	1.1211399
238	0xc00695d1	-2.102894
239	0xbe84e445	-0.25955406
240	0xbfbbfc12	-1.4686301
241	0xbeb0d788	-0.34539437
242	0xbee48a87	-0.44636938
243	0xbfda7115	-1.706576
244	0xbfb57fb5	-1.4179598
245	0xbf71f503	-0.94514483
246	0xbfe5a1a6	-1.7939956
247	0x3eb6c2c8	0.3569548
248	0x3f169a01	0.5882874
249	0xbeff85f3	-0.49906883
250	0xbfdca0b6	-1.7236545
251	0x3f4d7a3c	0.8026464
252	0xbec38e52	-0.3819452
253	0x3fc3eae5	1.5306059
254	0xc00f986a	-2.2436776
255	0xbd2179db	-0.03942285

noise f4 [1, 1, 32, 32]
0	0xbf9b7fde	-1.2148397
1	0x3edbcd99	0.42930296
2	0x3f0e8729	0.5567499
3	0x3ff1306a	1.88429
4	0xbe62387d	-0.22091861
5	0x3f63e5aa	0.89022315
6	0xbfd9a4bb	-1.7003397
7	0xc003f971	-2.0620997
8	0x3f399012	0.7248546
9	0x3d90081b	0.07032796
10	0xbf2d5fe2	-0.6772443
11	0xbf0b5e72	-0.5444099
12	0xbf5c2424	-0.85992646
13	0xbf11931d	-0.568651
14	0xbfb5febb	-1.4218363
15	0x3c20e2c4	0.00981969
16	0x3e7a9827	0.24472104
17	0x3f41670b	0.75547856
18	0x3d30c5ba	0.043157317
19	0xbf2680da	-0.6504036
20	0xbf2538a9	-0.6453958
21	0x3ea18918	0.31549907
22	0xbf808cc5	-1.004296
23	0xbfc4d0ae	-1.5376184
24	0xc0193dda	-2.3944001
25	0x3fb74711	1.4318563
26	0x3f10a3db	0.56500024
27	0xbff6a4f8	-1.9269094
28	0x3e4bab32	0.19889525
29	0xbfd42acd	-1.6575562
30	0xc0090d4d	-2.1414368
31	0x3e98de7e	0.29857248
32	0x3ee6ba4c	0.45064008
33	0xbeadcd78	-0.33945823
34	0x3f0592f0	0.52177334
35	0x3f96484f	1.1740817
36	0xbf8529fb	-1.0403436
37	0x3fc0b188	1.5054178
38	0xbf6ad0c1	-0.91724783
39	0xbf0eee54	-0.5583241
40	0x3d0476c4	0.032339826
41	0xbef6157e	-0.48063272
42	0xc01babdc	-2.4323645
43	0x3fd4d4a8	1.6627398
44	0xbf5eac43	-0.869816
45	0x40085ba7	2.130594
46	0x3efc2a6a	0.4925111
47	0xbec1cc1d	-0.3785104
48	0x3e8ea51c	0.27860343
49	0xbf6c3a9a	-0.9227692
50	0xbf449c9f	-0.76801485
51	0xbc0bb3ae	-0.008526726
52	0x3c9d4885	0.01919962
53	0x3e5bdbd6	0.2147058
54	0xbf9a3986	-1.2048805
55	0x3f7b86c5	0.98252517
56	0xbff44bae	-1.9085596
57	0x3f8e5be9	1.1121799
58	0x3ea44788	0.32085824
59	0x3f2e4185	0.68068725
60	0x3d0f1a3c	0.03493713
61	0xbf3b1970	-0.7308569
62	0xbee3528e	-0.44398922
63	0xbfdd3727	-1.7282456
64	0xbf9bcdb5	-1.2172152
65	0xbcd0f52b	-0.02550753
66	0xbefdd282	-0.49574667
67	0x3fe04de9	1.7523776
68	0xbe16f6ec	-0.1474263
69	0x3f80df8c	1.0068221
70	0x3ec498d3	0.38397846
71	0x3f5b5cb6	0.8568834
72	0x3f8f2698	1.1183653
73	0x3f6589f1	0.89663607
74	0xbf119035	-0.5686067
75	0xbf46520d	-0.7746895
76	0x3eb742ef	0.35793254
77	0x3fae87c1	1.3635179
78	0x3e1243c6	0.14283666
79	0xbeddda7d	-0.43330756
80	0x3f1ed84b	0.62048787
81	0xbdc05cd1	-0.09392703
82	0x3f091d36	0.535602
83	0x4007f8c5	2.1245587
84	0xbfa22590	-1.2667713
85	0xbf3ad613	-0.729829
86	0x3f898e1e	1.0746496
87	0x3faf380b	1.3688978
88	0x3f8094c5	1.0045401
89	0x3efadf3c	0.4899844
90	0x3f6ca0ab	0.9243266
91	0xbf0384e6	-0.5137466
92	0xbe22ad5b	-0.15886442
93	0x3f706202	0.9389955
94	0x3fd871e4	1.6909757
95	0xbfa47f60	-1.2851372
96	0x3f1fff6c	0.6249912
97	0xbfbc75e2	-1.4723475
98	0x3d5e84c4	0.054325834
99	0xbdf8a96a	-0.12141688
100	0xbdabe579	-0.08393378
101	0xbf72b099	-0.94800717
102	0x3f76297c	0.9615705
103	0xbfbc19b5	-1.4695345
104	0x3e920d7a	0.28525907
105	0x3f75e3a6	0.9605049
106	0x3febba45	1.841622
107	0x3ed3389d	0.4125413
108	0xbf31c652	-0.6944324
109	0xbf3d8019	-0.74023587
110	0xbfb3cea7	-1.404744
111	0x3f3f0fa9	0.7463327
112	0xbf57d9c9	-0.8431669
113	0x3fd067e3	1.6281704
114	0xbf869c3e	-1.0516431
115	0x4011fb78	2.2809734
116	0x3e121d81	0.14269067
117	0xc024072c	-2.5629377
118	0x3ebf78c1	0.37396815
119	0xc00d6ce0	-2.2097702
120	0xbf760367	-0.9609894
121	0xbee6711e	-0.45008177
122	0xbf9e7ceb	-1.2381872
123	0x3fe14eb7	1.7602147
124	0xbd9c19c5	-0.07622103
125	0x3f99a586	1.2003639
126	0xbf861607	-1.0475472
127	0x3ede15ed	0.43376103
128	0x3f245747	0.64195675
129	0xbf86ee2a	-1.0541432
130	0x3f14ea9e	0.581705
131	0x3f11d158	0.5696006
132	0xbf1d36be	-0.61411655
133	0x40253841	2.5815585
134	0x3f249615	0.64291507
135	0xbf352c97	-0.70771164
136	0xbf03d5fb	-0.51498383
137	0x3e69e826	0.22842464
138	0xbe9171f6	-0.28407258
139	0xbfbc4fe1	-1.4711877
140	0xbe673509	-0.22578825
141	0xbf221ec6	-0.63328207
142	0x3f1b595b	0.6068322
143	0xbead0ccc	-0.33798826
144	0xbf31c71b	-0.69444436
145	0x3e335b86	0.17515382
146	0x3f842924	1.0325055
147	0xbe7573c6	-0.23969945
148	0xbfaf8465	-1.3712279
149	0x3f94f818	1.1638212
150	0x3e58603e	0.21130463
151	0xbf9d5f00	-1.2294617
152	0xbf37d95d	-0.71816045
153	0xc0188099	-2.382849
154	0x3ff8fc82	1.9452059
155	0x3fa88caa	1.3167927
156	0xbfc396d2	-1.5280402
157	0xbfb5e705	-1.4211127
158	0xbdea29a5	-0.11433724
159	0xbed057bc	-0.40691936
160	0x3e3d1458	0.18464792
161	0xbf82fb50	-1.0232944
162	0xbf590e17	-0.84787124
163	0x3f128e3d	0.5724829
164	0x3efa8350	0.48928308
165	0x3f3e410b	0.74318
166	0x3f870815	1.0549341
167	0xbef0ae90	-0.4700818
168	0xbd759b94	-0.059962824
169	0x3e6e1c8c	0.23253077
170	0xbfcc08e3	-1.5940212
171	0xbf049b32	-0.5179931
172	0xbec209e4	-0.3789817
173	0x3fa1162e	1.2584894
174	0xbf1cd3a6	-0.6126045
175	0xbef754bc	-0.48306835
176	0x3f4e9b02	0.80705273
177	0x3fa25b00	1.2684021
178	0xbed471a2	-0.41492945
179	0x3e6af991	0.22946765
180	0x3f636edb	0.8884103
181	0x3f94d35f	1.1627005
182	0x3e0e75f3	0.13912182
183	0x3fdc0c04	1.7191167
184	0xbf6aa978	-0.9166484
185	0xbd5d77cc	-0.054069325
186	0x3ff45af1	1.9090253
187	0x3e05097e	0.12991902
188	0x3ff4b541	1.9117814
189	0x3e365332	0.17805174
190	0x3f9b0b30	1.2112789
191	0xbf039bf8	-0.51409864
192	0x3ef2a844	0.47394
193	0x3e5c3ad1	0.21506812
194	0xbf2de924	-0.6793387
195	0xbd0165e8	-0.031591326
196	0x3ee772f0	0.45204878
197	0x3f712f53	0.94212836
198	0xbf9b1410	-1.2115498
199	0x3f47d7b9	0.7806354
200	0xc0307a57	-2.757467
201	0x4004aba7	2.0729768
202	0xbfbcc3f5	-1.4747301
203	0xbf69a139	-0.9126163
204	0x3f37ec3e	0.7184485
205	0xbf069507	-0.5257115
206	0xbf242e1c	-0.6413286
207	0xbf46f7b3	-0.7772171
208	0xbf039602	-0.5140077
209	0xbccb8b24	-0.02484662
210	0x3f5c05d6	0.85946405
211	0x3e561ea8	0.20910132
212	0xbfee34dd	-1.8609883
213	0x3fafbdea	1.3729832
214	0x3e60279b	0.21890108
215	0x3cf6532f	0.030068962
216	0x3dbdd2d9	0.092687316
217	0xbe0ef1c2	-0.13959411
218	0xbf1838a1	-0.5946141
219	0xbfbbd2ba	-1.4673684
220	0xbf47859f	-0.77938265
221	0xbf065d45	-0.5248607
222	0xbe7dede3	-0.24797778
223	0x3ffa7427	1.9566697
224	0xbf780b08	-0.9689183
225	0x3e7f225c	0.24915451
226	0xbf790549	-0.9727369
227	0x3fc904e1	1.5704614
228	0x3fdb6b22	1.7142069
229	0xbf32f9dd	-0.6991251
230	0xbfa0d8ae	-1.2566125
231	0x3f3579e5	0.7088912
232	0x3e08b3bc	0.13349813
233	0xbe7059e5	-0.23471792
234	0x3eed6df7	0.4637296
235	0xbec20c4f	-0.37900016
236	0x3f85a723	1.0441631
237	0x3f6c5e45	0.92331344
238	0xc00eab58	-2.229208
239	0xbe9dc4be	-0.30814165
240	0xbe0058ed	-0.12533922
241	0xbba8930d	-0.005144483
242	0x3f87578f	1.0573596
243	0xbf165d8c	-0.5873649
244	0xbf41ba06	-0.75674474
245	0xbf4c9c6e	-0.7992619
246	0xc013f7ab	-2.3119915
247	0xbf659c0b	-0.8969123
248	0xc00963bc	-2.1467123
249	0x3d1c3bda	0.038143016
250	0xbba2cde0	-0.00496839
251	0x3f6de774	0.92931294
252	0x3f0cb052	0.54956543
253	0xbf6e5765	-0.93102103
254	0x40271f8a	2.6113
255	0xbf260fe9	-0.64868027

noise f4 [1, 1, 32, 32]
0	0x3f3e712a	0.74391425
1	0x3e8393e5	0.25698772
2	0xbf693cbb	-0.9110829
3	0xbfb8a981	-1.4426728
4	0x3ebc8642	0.3682118
5	0xbeb840d5	-0.35986963
6	0xbdc13946	-0.09434752
7	0x3dcea9a4	0.1009095
8	0xbcc02dc5	-0.023459325
9	0x3fe34d57	1.7757977
10	0x3a6efa29	0.0009116256
11	0x3d5ec270	0.05438465
12	0xbe8888eb	-0.2666696
13	0x3eba3e10	0.36375475
14	0x3ef9a3d9	0.48757818
15	0xbec28226	-0.3798992
16	0xbf2215d0	-0.63314533
17	0x3f8396f0	1.0280437
18	0xbe0f4426	-0.1399084
19	0x3e70e12c	0.23523396
20	0xbe064450	-0.13111997
21	0x3f7728e5	0.96546775
22	0xc011768f	-2.2728612
23	0x403c76a7	2.944742
24	0x3e37da50	0.17954373
25	0xbee723fd	-0.45144644
26	0x3fc40435	1.5313784
27	0x3fac3624	1.3454022
28	0x3ebab61d	0.36467066
29	0x3f9da816	1.2316921
30	0x3edfd4aa	0.43716937
31	0x3f1b8191	0.6074458
32	0xbf6d101a	-0.92602694
33	0xc0059ac9	-2.0875723
34	0x3f5de47f	0.8667678
35	0x3ec4c5e4	0.3843223
36	0xbed2c26f	-0.41163966
37	0x3ea41c57	0.32052872
38	0xbede2ebe	-0.43395036
39	0xbd914837	-0.07093852
40	0x3f0ef799	0.55846554
41	0x3f832805	1.0246588
42	0x3fc28756	1.5197551
43	0x3fc4b268	1.5366945
44	0x3ff93692	1.9469779
45	0xbe8354ad	-0.2565054
46	0x3fca7aa0	1.5818672
47	0xbee087d9	-0.43853644
48	0x3fda466a	1.7052739
49	0x3f14289e	0.57874477
50	0xbfc51c2a	-1.539922
51	0xbe58a2d7	-0.21155868
52	0x3dfab5d7	0.122417144
53	0xbe4e6f06	-0.2015954
54	0xbed99b23	-0.42501172
55	0x3f74fd4f	0.9569902
56	0xbf677f9d	-0.904291
57	0xbe12be40	-0.14330387
58	0x3d98d05b	0.07461616
59	0x3f36a871	0.7135077
60	0xbff1e85f	-1.8899039
61	0xbed69efb	-0.41918167
62	0xbf8d7cd7	-1.1053723
63	0x3f0658ff	0.5247955
64	0xbf0eaf39	-0.5573612
65	0xbf836ca4	-1.026753
66	0xbf2cbda9	-0.674769
67	0x3f348122	0.7050954
68	0xbf895758	-1.072978
69	0x3fa50d54	1.2894692
70	0x3e204465	0.1565109
71	0xbf9abcef	-1.2088908
72	0xbd5d6f0f	-0.05406099
73	0x3e2603b5	0.16212352
74	0x3f885e59	1.0653793
75	0x3ec96208	0.39332604
76	0xbe9a6d41	-0.3016148
77	0x3f751198	0.9572997
78	0x3fbbb220	1.4663734
79	0x3f1089c5	0.5646022
80	0xbf0c11e0	-0.54714775
81	0xbe32801f	-0.17431687
82	0x3edf5496	0.4361922
83	0x3f2063ac	0.6265209
84	0xc00fb9a3	-2.2457054
85	0x3f26347c	0.64923835
86	0x3f57a557	0.84236664
87	0x3d6ba347	0.05752876
88	0x3f7981d9	0.97463757
89	0xbe44ad39	-0.19206704
90	0xbfebee51	-1.8432103
91	0x3ef49361	0.4776869
92	0x3ffbfa37	1.9685735
93	0x3f116229	0.56790406
94	0xbf431f44	-0.7621958
95	0x3f043d70	0.51656246
96	0xbdfad368	-0.12247354
97	0x3eb0825e	0.34474462
98	0x3f02acd8	0.5104499
99	0xbf8eb241	-1.1148149
100	0x3ffd4be7	1.9788789
101	0x3f83c54c	1.0294585
102	0x3f9050a2	1.1274607
103	0x3f5784ba	0.841869
104	0xbf9d5b74	-1.2293534
105	0xbe1e6227	-0.1546713
106	0xbf230a3e	-0.63687503
107	0x3e8a3e05	0.27000442
108	0x3f806519	1.0030853
109	0xc0018790	-2.023899
110	0x3f4e56f5	0.80601436
111	0xbf76f746	-0.9647106
112	0x3df8adbf	0.121425144
113	0xbfab71c3	-1.3394092
114	0x3f6865eb	0.90780514
115	0xbf3a75f8	-0.72836256
116	0x3cac3efe	0.02102613
117	0x400716cf	2.1107671
118	0xbe983c86	-0.29733676
119	0x3fed99fc	1.8562617
120	0x3f7d5649	0.98959786
121	0x3f0252cc	0.5090759
122	0x3df442e7	0.11926823
123	0x3fd1886f	1.6369761
124	0x3fc0bfc2	1.505852
125	0x3df55fb6	0.11981146
126	0x3f22f58b	0.6365592
127	0xbfa95771	-1.322981
128	0xbf64a8d0	-0.8932009
129	0xbf2d3b4a	-0.6766859
130	0x3f3ad67c	0.7298353
131	0xbfb9f794	-1.452868
132	0xbec0cb58	-0.3765514
133	0x3ec397e6	0.38201827
134	0xbf54fdd1	-0.83199793
135	0x3fa12d6f	1.259199
136	0x3f2534de	0.64533794
137	0xbee23be0	-0.44186306
138	0xbfd455dc	-1.6588702
139	0xbf2cd2c5	-0.6750911
140	0xbfdde1b5	-1.7334505
141	0xbf8e84ab	-1.1134237
142	0xc0196462	-2.3967519
143	0x3ea20f5d	0.31652346
144	0x3f13acfc	0.5768583
145	0xbf0a4028	-0.54004145
146	0xbcfeef03	-0.031119829
147	0x3eba839b	0.36428532
148	0x3f9ac9d0	1.2092838
149	0x3edda78f	0.432919
150	0xbf2669e1	-0.6500531
151	0xc0083f4d	-2.1288636
152	0x4027724c	2.6163511
153	0xbefaed05	-0.49008957
154	0xbea3806e	-0.31933922
155	0x3f8abf17	1.0839566
156	0xbeb48ce5	-0.35263744
157	0xbf8662ad	-1.0498863
158	0xbea2f7a8	-0.31829572
159	0xbef4fe44	-0.4785024
160	0xbf31fca4	-0.69526124
161	0x3d2320d0	0.039826214
162	0x3f5c9330	0.8616209
163	0x3f4bfb43	0.7968027
164	0x3d939c3a	0.07207532
165	0x40037f88	2.054659
166	0xbe655dd4	-0.22399074
167	0xbe61eb0d	-0.22062321
168	0xbd9aa943	-0.07551815
169	0x3f0e7dde	0.5566081
170	0x3e94fc65	0.29098812
171	0x3f38923b	0.7209813
172	0x3dee5736	0.11637728
173	0x3c936e06	0.0179968
174	0x4004a7c2	2.0727391
175	0xbf64c5b7	-0.8936419
176	0x3ec31324	0.3810054
177	0xbf73655e	-0.9507655
178	0x3f7ce8c6	0.98792684
179	0xbf38f3bf	-0.7224693
180	0xbf8c214e	-1.0947664
181	0xbe85e4ec	-0.26151216
182	0xbee4a73f	-0.4465885
183	0x3d873f3a	0.066038564
184	0xbe17b195	-0.14813836
185	0xbe9a8fad	-0.3018774
186	0xbf71494e	-0.9425248
187	0xbfa177b2	-1.2614653
188	0xbf038a75	-0.51383144
189	0xbf8ede29	-1.1161548
190	0x3f342696	0.7037138
191	0x3fae6fb8	1.3627844
192	0xbebc3c60	-0.36764812
193	0x401bca40	2.4342194
194	0xbf3710b6	-0.71509874
195	0xbf4b349e	-0.7937716
196	0x402c48c8	2.6919422
197	0x3e132a2b	0.14371555
198	0xbfbb3513	-1.4625572
199	0xbdd92815	-0.10603348
200	0x3f8dced6	1.1078746
201	0x3e5af66d	0.21383066
202	0x3f43a069	0.7641664
203	0xbfcb10fb	-1.5864557
204	0x3f29377f	0.66100305
205	0xbfe19ab7	-1.762534
206	0xbdbbf1d3	-0.09176984
207	0xbed37662	-0.41301256
208	0xbed7b47e	-0.42129892
209	0x3f848636	1.0353458
210	0xbf569f04	-0.8383639
211	0x3f00db4d	0.50334626
212	0xbd7cb209	-0.061693225
213	0x3f8f49b7	1.1194371
214	0xbf8ba65c	-1.0910144
215	0xbe9871b2	-0.29774243
216	0xbf4b1644	-0.7933085
217	0x3f803bdb	1.0018266
218	0x40517313	3.2726486
219	0xbe8d2f15	-0.27574983
220	0xbf259bc0	-0.6469078
221	0x3fc82c5d	1.5638539
222	0x3f27f4fe	0.65608203
223	0x3fc5a2ee	1.5440347
224	0xbf044c1b	-0.5167863
225	0xbf7b42fc	-0.98149085
226	0xbe890733	-0.26763305
227	0xc0237add	-2.554374
228	0x3f9f9a77	1.2469014
229	0x3f13bc87	0.57709545
230	0xbede8077	-0.43457386
231	0x3ff489aa	1.9104512
232	0xbc3d9fa2	-0.011573704
233	0xbf910c55	-1.1331888
234	0x3fb0ad65	1.3802916
235	0x3e9d9d79	0.30784205
236	0x3f745019	0.9543472
237	0xbdd48f2c	-0.1037887
238	0x3f0fc934	0.56166387
239	0xbd907a9c	-0.07054636
240	0xbf196734	-0.599231
241	0xbf3f3f86	-0.74706304
242	0x3fadd20e	1.3579729
243	0x3f21e437	0.63238853
244	0x3e0586b8	0.13039672
245	0xbe0ab1ed	-0.13544436
246	0xbebed0e2	-0.3726874
247	0x3f279518	0.65461874
248	0xbeb08100	-0.3447342
249	0xbe70026c	-0.23438424
250	0xbf84778a	-1.034898
251	0xbeeea31e	-0.46608824
252	0x3f171dd9	0.5902992
253	0xbc7104e2	-0.014710637
254	0x3f0a6e11	0.540742
255	0x4022b908	2.5425434

noise f4 [1, 1, 64, 64]
0	0xbfaad99f	-1.3347663
1	0x3f2f5a87	0.6849751
2	0x3f0563fd	0.52105695
3	0x3e95e3bf	0.2927532
4	0x3fa43baf	1.2830714
5	0xbf61c886	-0.881966
6	0xc004783c	-2.0698385
7	0x3f5e8414	0.86920285
8	0x3e830a11	0.25593618
9	0x3f2ae4b0	0.667552
10	0x3f929f07	1.1454781
11	0x3f672549	0.9029127
12	0x3ecd0a5f	0.40046975
13	0xbebeb05d	-0.3724393
14	0xbd46d9bb	-0.048547488
15	0xbf13f48f	-0.5779504
16	0x40008d06	2.0086074
17	0x3d1920eb	0.03738491
18	0xbeac026e	-0.33595604
19	0x3e7050fa	0.2346839
20	0xbccaec00	-0.024770737
21	0xbea16a7b	-0.3152655
22	0x3eb61b16	0.3556754
23	0x3f5e2baa	0.86785376
24	0x3fd7da95	1.6863581
25	0x3fbb66c1	1.4640733
26	0xbe5889ea	-0.2114636
27	0xbe987d7c	-0.29783237
28	0x3def0807	0.11671453
29	0xbfce8eba	-1.6137307
30	0xbe997623	-0.29972944
31	0x3f18bb5e	0.596609
32	0x3f8bbf75	1.0917803
33	0xbf4d7dee	-0.8027028
34	0x3e6236e8	0.22091258
35	0xbf857afc	-1.0428157
36	0x3f076800	0.52893066
37	0x3f5ee3e3	0.8706648
38	0xc017e6d5	-2.3734639
39	0x3ebff782	0.3749352
40	0xc027c9c7	-2.6216905
41	0xbf7ccddb	-0.9875161
42	0xbfa67266	-1.3003662
43	0x3f25a134	0.646991
44	0xbf682b9b	-0.90691537
45	0x3f39fe05	0.7265323
46	0xbef2f124	-0.474496
47	0xbe586756	-0.2113317
48	0xc0114f75	-2.2704747
49	0x3f8fb917	1.122836
50	0x3e8c53a6	0.2740757
51	0xbfd2f5c6	-1.6481254
52	0xbf00e92a	-0.5035578
53	0xbe8295e3	-0.2550498
54	0xbe7110aa	-0.23541513
55	0xbf881c49	-1.0633632
56	0xbfabfdd6	-1.343684
57	0xbf96f659	-1.1793929
58	0xbf7d45f0	-0.9893484
59	0xbed4aab0	-0.41536474
60	0x3f51472b	0.8174922
61	0x3f41cb77	0.7570109
62	0x3f3725d2	0.71542084
63	0xbec1e560	-0.37870312
64	0x3f943713	1.1579307
65	0x3e09d3d8	0.13459718
66	0xbc081cc6	-0.008307641
67	0xbf3dc4cb	-0.7412841
68	0x3f24a9f6	0.6432184
69	0x3e63057b	0.2217006
70	0xbf23acce	-0.63935554
71	0xbf80c897	-1.0061215
72	0x3e364d1c	0.17802852
73	0x3f7374ff	0.95100397
74	0xbf705109	-0.9387365
75	0xbfa7db69	-1.3113834
76	0x3dd3105d	0.103058554
77	0xbe4a2bdf	-0.19743298
78	0x3f6ecc30	0.93280315
79	0xbf3d9e74	-0.74069905
80	0x3e9f76f2	0.31145436
81	0x400de30b	2.2169826
82	0x3f4bd5f3	0.79623336
83	0x3ed1ddb0	0.40989447
84	0x3f5ec3a1	0.87017256
85	0x3f8352d7	1.0259656
86	0xbdb5d89e	-0.08879207
87	0xbfa63a8d	-1.2986618
88	0x3f4453d1	0.76690394
89	0xbeca69f1	-0.39533952
90	0x40141947	2.3140428
91	0xbf3edc5b	-0.74554986
92	0x3f5c296a	0.8600069
93	0xbf5ec05e	-0.8701228
94	0xbe8ef6d6	-0.27922696
95	0xbf1595ed	-0.58431894
96	0xbea8d6b7	-0.32976314
97	0xbf32f697	-0.69907516
98	0xbd90c837	-0.07069438
99	0xbfa2142b	-1.2662405
100	0xbe858da7	-0.26084635
101	0x3da33d57	0.07970684
102	0xbfd678a5	-1.6755568
103	0x3f941745	1.1569601
104	0x4015c478	2.3401165
105	0xbe6ea960	-0.23306799
106	0x3f28d93d	0.6595648
107	0x3ea14402	0.31497198
108	0xbf19146d	-0.5979679
109	0x3f7aa77b	0.97911805
110	0xbf814b8d	-1.0101181
111	0xbfb00e4b	-1.3754362
112	0x3f36b96e	0.71376693
113	0xbf68618c	-0.90773845
114	0x3f5c2ece	0.8600892
115	0xbf6f0033	-0.9335968
116	0xbfdff56f	-1.7496775
117	0xbf082dec	-0.5319507
118	0x3f4adf2c	0.79246783
119	0xbde8a3a5	-0.11359338
120	0xbd1ae722	-0.03781808
121	0x3f19f788	0.6014333
122	0xbf4883b4	-0.78325963
123	0xbfe9a051	-1.825205
124	0x3f9886c1	1.1916124
125	0xbf3ddaf9	-0.7416225
126	0x3a1a2624	0.0005880317
127	0xbf324ee6	-0.6965164
128	0xbf06a9ce	-0.5260285
129	0xbdeff0d7	-0.117158584
130	0xbd980f49	-0.074247904
131	0xbf6ab312	-0.9167949
132	0xbecef929	-0.4042447
133	0xbf3cb5ea	-0.7371508
134	0x3fb6e743	1.4289325
135	0xbeea046e	-0.45706505
136	0xbeafc919	-0.34333113
137	0xbfa5f312	-1.2964804
138	0x401372cc	2.3038816
139	0x3f301d95	0.6879514
140	0xc009dc2a	-2.1540627
141	0x3fe01633	1.7506775
142	0xc0135fcf	-2.3027227
143	0x3f1ad890	0.604867
144	0xbe77981f	-0.24179123
145	0xbf5618ab	-0.8363139
146	0xbe9de377	-0.30837604
147	0x3de1da28	0.11027938
148	0x3f92e039	1.1474677
149	0xbf06ee26	-0.52707136
150	0x3ea2e3b7	0.31814358
151	0x3dd0de52	0.10198654
152	0x3f2d04cb	0.6758544
153	0x3e6e695d	0.2328238
154	0x3e9a5fba	0.3015116
155	0xbfa47e88	-1.2851114
156	0xbe424901	-0.18973161
157	0x3e304da1	0.17217113
158	0xc00a2610	-2.1585732
159	0xbf3b61a4	-0.7319586
160	0x3f669eb6	0.90085924
161	0xbee19eb8	-0.44066405
162	0x3f26e739	0.6519657
163	0x3f288445	0.6582683
164	0xbe35791e	-0.17721984
165	0xbf82e9c9	-1.0227596
166	0xbee0cb03	-0.43904886
167	0x3f9120b2	1.1338103
168	0x3f03eb32	0.51530755
169	0xbf993aa3	-1.197102
170	0xbecd56c3	-0.40105256
171	0xbf90cf00	-1.1313171
172	0x3f9d11e0	1.227108
173	0x3f8cfbd6	1.1014354
174	0xbe9a65ea	-0.3015588
175	0xbf378eee	-0.7170247
176	0x40334f98	2.801733
177	0xbf006a8c	-0.5016258
178	0x3f0de31d	0.5542467
179	0xbfb551fd	-1.4165646
180	0x3efc509e	0.49280256
181	0x3ec8482b	0.3911756
182	0xbd7ffb75	-0.062495667
183	0x3eaf6334	0.34255373
184	0x3f06fe2a	0.52731574
185	0xbe27510d	-0.16339512
186	0xbf7143c8	-0.9424405
187	0xbfba3a5d	-1.4549061
188	0xbf32e1d6	-0.6987585
189	0x3fb1762d	1.3864189
190	0x3f097074	0.53687215
191	0xbfd285bb	-1.6447061
192	0xbf85b6cf	-1.0446414
193	0x3eae051d	0.33988276
194	0xbf74195d	-0.953512
195	0x3f199f39	0.6000858
196	0x3f71fe50	0.94528675
197	0x3e9a4fab	0.30138907
198	0xbf54ef19	-0.83177334
199	0x3f156ae9	0.58366257
200	0xbf7a8c4f	-0.97870344
201	0x3f0f0e32	0.55881035
202	0x3dafb7be	0.08579968
203	0xbf9e950a	-1.2389233
204	0xbf762b70	-0.9616003
205	0x40180961	2.3755724
206	0x3e289cdc	0.16466087
207	0xbe364c8c	-0.17802638
208	0xbf9ec858	-1.240489
209	0xbf659999	-0.89687496
210	0xbc3badd8	-0.011455022
211	0xbea99ba0	-0.33126545
212	0xbe138127	-0.14404736
213	0x3ef94150	0.48682642
214	0x3ef038e8	0.46918416
215	0x3fe69d09	1.8016673
216	0xbf673539	-0.90315586
217	0xbdfca88a	-0.12336834
218	0xbf761bed	-0.9613636
219	0x3e91e90e	0.2849812
220	0x3ed1cb8f	0.40975615
221	0xbf4d1ded	-0.8012379
222	0xbeea1679	-0.4572027
223	0xbeda7fe0	-0.42675686
224	0x3f15f108	0.5857091
225	0xbfe98599	-1.8243896
226	0x3e98c271	0.29835847
227	0x3fc022dc	1.5010638
228	0xc02a56c0	-2.6615448
229	0x3fa8e4f1	1.3194867
230	0xbf1aa168	-0.60402536
231	0x3d4b93ea	0.04970161
232	0xbebb14f2	-0.36539418
233	0xbf2e02a5	-0.67972785
234	0xbfe5048c	-1.7892013
235	0xbec827bd	-0.39092818
236	0x3f61169d	0.8792513
237	0xbfad51a4	-1.354054
238	0x3e7a0ff4	0.24420148
239	0xbfe9478d	-1.822496
240	0xc01bc957	-2.4341638
241	0x3fc47c03	1.5350345
242	0x3ff81730	1.9382076
243	0xbe19b02b	-0.15008609
244	0xbf64c30d	-0.89360124
245	0xbf168856	-0.5880178
246	0xbf3e77bf	-0.7440147
247	0xbf3bdd88	-0.73384905
248	0xc00fe53a	-2.2483659
249	0xbf893b82	-1.0721285
250	0x3ed4b9c7	0.41547987
251	0x3faa88e5	1.3323027
252	0xbf485c53	-0.78265876
253	0x3db4bf4b	0.08825549
254	0xbf54ea3c	-0.83169913
255	0xbf262f10	-0.6491556
