examples/examples_celeb/samples/3.pt (torch_old, 731568 bytes, 15 tensors)

w f4 [512]
000000 13 4e 38 bd 8d 3b 41 bf d7 47 eb bc 8f dd 04 3f
       -0.044996332 -0.7548149 -0.02872078 0.5190057
000010 7c 82 92 be db a4 74 be e6 51 fa 3d 33 ee 2e bf
       -0.28615177 -0.23891012 0.12222652 -0.68332213
000020 de 6f 5f be 1f 5d 07 bf 6d e2 57 be 68 97 0a bf
       -0.21820018 -0.52876467 -0.21082468 -0.5413728
000030 2e 47 5d 3f f8 5c 15 3e f8 0d ed 3e a4 bb 4e 3e
       0.86436737 0.14586246 0.4629972 0.20188767
000040 8a 53 05 3f a3 d7 da be 1c 40 13 3f 26 c9 0a 3f
       0.52080595 -0.42742643 0.575197 0.5421318
000050 8d fa 91 3e a5 82 50 be 7a e2 29 3d ec fd 62 3f
       0.28511468 -0.20362337 0.04147575 0.88668704
000060 ed db 95 3f be d9 52 3e cc 62 1a 3c af 50 12 3e
       1.1707741 0.20590875 0.009422969 0.14288591
000070 92 d9 93 3e cc 4f 42 be 23 b2 e9 3d 50 27 1b 3e
       0.2887693 -0.18975753 0.1141093 0.15151715
000080 80 70 15 3f 25 b8 00 3e 5e 8e 83 3e 4e 01 85 be
       0.58374786 0.12570246 0.25694555 -0.25977558
000090 67 f7 22 3f 46 2d 33 3f 5d 9a 8a 3d e2 6f f5 be
       0.63658756 0.69990957 0.06767724 -0.47936922
0000a0 f7 0a bd be 36 73 62 bd fc 4a 88 bd 39 56 cd 3d
       -0.36922428 -0.055285655 -0.06654927 0.10026211
0000b0 f6 34 36 be 15 d9 2b be ed e6 54 3f c3 ed 2b 3e
       -0.1779364 -0.16782029 0.83164865 0.16789918
0000c0 e2 4d c6 bc f4 f4 4c 3e 5c 50 17 3e b0 41 70 3d
       -0.02420706 0.20015317 0.14776748 0.058656394
0000d0 d3 9e 0b 3e aa a9 a5 3f ca 64 d7 3e f4 f3 0b 3e
       0.13634805 1.2942402 0.42069083 0.1366728
0000e0 9c 6c 64 3e 0c b1 18 3f de 0b b9 3e 6e eb 0d 3f
       0.22307056 0.5964515 0.36141866 0.5543736
0000f0 c9 74 72 3e 60 8c 33 3e 37 ac 99 3d 11 dc 29 3f
       0.23677363 0.17534018 0.075035505 0.6635142
000100 b5 45 ec 3d a1 64 3e 3f e2 90 2a 3f 77 c1 93 3d
       0.11536733 0.743723 0.66627324 0.07214635
000110 fa 79 b5 3e 19 f2 19 3f 17 09 42 3e 00 a1 03 3e
       0.35444623 0.60135037 0.1894878 0.12854385
000120 ba bc f0 3e 08 a5 aa 3e 9b ee 03 be 2c 1e f4 3e
       0.47018987 0.33329034 -0.1288399 0.4767927
000130 73 cd 5f be fd 45 35 3f 83 b9 61 3e 20 9e 09 3f
       -0.21855716 0.7080992 0.22043423 0.53756905
000140 b4 8d 92 3f d4 21 08 3f ed 53 93 3e ac 3d f2 3e
       1.1449494 0.5317662 0.28774968 0.47312677
000150 e6 61 76 3e c7 95 79 3e b7 9c dd bd 80 3f 96 3f
       0.24060783 0.24373542 -0.108209066 1.1738129
000160 e0 8e a7 be 37 ef 92 be f5 a0 94 bd ca f6 58 3e
       -0.32726192 -0.2869813 -0.072572626 0.21187893
000170 81 0b 7a 3e 73 40 9a bd db 27 ae bc 6a b4 de 3e
       0.24418451 -0.07531824 -0.021259239 0.4349702
000180 3d 00 a1 3e 75 13 db be ab e8 98 3e 18 81 90 3f
       0.31445494 -0.42788282 0.29865012 1.1289396
000190 48 f7 1c 3f fa 38 b9 3e d4 46 9b 3e 35 49 dc 3e
       0.6131482 0.36176282 0.30327475 0.43024603
0001a0 f6 a7 11 3f ab ff 05 be 4e 3b 05 3d 27 1b e0 3e
       0.56896913 -0.13085811 0.03252726 0.43770716
0001b0 a1 d3 fd bd 1f 09 f5 3d dc 81 e6 3d 61 7b 84 3e
       -0.12393881 0.1196463 0.112552375 0.2587538
0001c0 36 91 20 bc 93 cb 75 3f bf ab ce bc 3f bc b6 be
       -0.009800246 0.96013755 -0.02522838 -0.35690495
0001d0 dd 00 c9 bc 2a 38 49 be e0 37 ac 3d 1f 9f 31 be
       -0.024536544 -0.19650331 0.08409095 -0.17345856
0001e0 93 bf 8a be 81 3e 5c 3f 08 3d 1e bd ce 46 c4 be
       -0.27099285 0.86032873 -0.038632423 -0.3833527
0001f0 74 a5 ad 3e 0f 9e ca bd 7b 3d b0 be ea 81 89 3e
       0.33915293 -0.098934285 -0.34421906 0.2685693
000200 47 00 93 be 30 02 6c 3e 39 bc b3 3e 11 45 e5 be
       -0.2871115 0.2304771 0.3510454 -0.44779256
000210 ff 84 84 3e 3c de e6 3e c1 ac 26 3e 94 e4 2d 3f
       0.25882718 0.45091426 0.16276838 0.6792691
000220 da 88 21 3e f9 22 51 3f 24 16 1b 3f 5f e8 83 3d
       0.15774861 0.8169399 0.6058066 0.06440806
000230 18 49 a1 3d a7 55 be 3e 3c 66 7b 3e 55 42 11 be
       0.0787527 0.37174723 0.24550718 -0.1418546
000240 0b 4d 86 be d9 94 4e 3e 37 2b 20 bd de bc ca bc
       -0.26230654 0.20173968 -0.039103713 -0.024748262
000250 ac 1e 53 bd cb 26 11 3f ba f3 29 3f 85 85 14 3f
       -0.051542923 0.5669982 0.6638752 0.58016235
000260 2e a5 d7 3e ce 14 15 3f fa ad 93 be 0a bf 4e 3f
       0.4211821 0.5823487 -0.2884367 0.8076025
000270 07 15 07 bd b2 29 dc bd 58 5f 55 be 27 7c 00 3f
       -0.032979038 -0.1075014 -0.20837152 0.5018944
000280 29 70 28 3e 33 7a 93 3e 81 a3 a5 3e 71 17 e4 3e
       0.16449036 0.28804168 0.32351306 0.44549134
000290 7e 03 28 3f 83 49 73 3e 79 d2 51 be 71 28 37 bd
       0.6563033 0.23758511 -0.20490445 -0.044716302
0002a0 92 49 f7 be d8 e7 a9 be 04 53 96 3d 23 a5 3c 3f
       -0.48298317 -0.33184695 0.07340053 0.7368948
0002b0 a0 d6 af 3e 01 ec d3 3d 88 c6 b6 be 76 f4 d2 3e
       0.34343433 0.103477485 -0.35698342 0.41202134
0002c0 0c e9 e2 bc 35 3f 27 3e bb 60 cd 3c 7c 73 70 3f
       -0.027699016 0.16332705 0.025070539 0.93926215
0002d0 ef 20 0d bf 76 22 95 3f b4 83 c5 3e a6 d2 f7 3e
       -0.5512838 1.1651142 0.38577044 0.484029
0002e0 18 b7 b5 3d 23 a4 2b 3f ec 53 c2 bd 99 ef 8a be
       0.08872813 0.6704733 -0.09488663 -0.27135924
0002f0 5f e5 02 3d 29 df b0 3e bf da 35 3e b7 1c 44 3d
       0.031957027 0.34545258 0.17759226 0.047878947
000300 d6 6c 67 3f 0c bc ce be 38 66 c6 be 1e 9e 24 bf
       0.90400445 -0.40377843 -0.38749862 -0.6430377
000310 13 f9 82 3f 67 f0 da 3e 0d 1e 0c bf c9 a9 d9 be
       1.0232261 0.42761537 -0.54733354 -0.42512348
000320 ad 6b fc bd c9 75 b1 be fc cc f1 bd c7 e9 80 3f
       -0.12325225 -0.34660175 -0.11806676 1.0071343
000330 ca e2 7e 3e 12 2c 9f bc d6 77 18 bf 6b 35 8c be
       0.248912 -0.019430194 -0.59557855 -0.27384505
000340 a6 89 67 3e 56 e8 c0 3c 25 c4 b7 3e db fc 7e bd
       0.22611102 0.023548286 0.35891834 -0.06225286
000350 2d ec 87 be a6 40 65 3f c6 26 03 3f 85 e0 3b be
       -0.26547375 0.8955177 0.5123104 -0.18347366
000360 91 b4 cc 3e cb f2 31 3e 5e b8 22 be e9 93 12 3f
       0.3998151 0.17377774 -0.15890643 0.57256943
000370 63 d6 da be 92 fe ff 3c 8b b9 04 bf 06 61 3b 3f
       -0.4274169 0.031249318 -0.51845616 0.7319492
000380 7c 07 f2 3e b0 11 26 3f 07 31 93 3d 83 c5 28 be
       0.47271335 0.6487074 0.071870856 -0.16481595
000390 e6 1b 24 3f 74 29 cf 3e 3a a9 25 3e d7 d1 86 be
       0.6410507 0.40461314 0.16177836 -0.2633197
0003a0 78 7f d8 3e a4 ac 07 3f 16 a2 fb bd 45 6d be bd
       0.4228475 0.52997804 -0.12286775 -0.09298185
0003b0 35 f0 f8 3e e5 07 8c bd 63 38 66 bd 5c 3f bb 3e
       0.48620763 -0.06837443 -0.05620612 0.36571777
0003c0 ef 71 34 3f c9 d7 97 be c6 07 14 3e 1e f4 04 3f
       0.7048635 -0.29656819 0.1445609 0.51934993
0003d0 89 d1 da 3e 68 fd 26 3f 66 a0 36 3e 31 5b ea bd
       0.42737988 0.6523042 0.17834625 -0.11443175
0003e0 71 82 41 3f 3c 65 53 bd 5d b5 d8 be 4b fb f4 3e
       0.7558966 -0.051610216 -0.4232587 0.4784797
0003f0 ad 52 d2 3e e1 53 f3 bd a2 19 17 3e 8b 8e 37 be
       0.41078702 -0.11881233 0.14755872 -0.1792547

wp f4 [14, 512]
000000 02 b6 7d 3e 15 d5 2f bf ae 3d a0 be 12 09 e0 3e
       0.24776462 -0.6868451 -0.31297058 0.4375692
000010 11 46 a6 be 4e cf b5 be 6e fb cb bd 08 00 3c bf
       -0.3247533 -0.35509723 -0.09960066 -0.7343755
000020 46 9c d1 3d b2 30 3c bf bb 7e 60 bf 8e 65 66 bf
       0.10234885 -0.73511803 -0.87693375 -0.8999871
000030 14 0e 6b 3f d0 7c 5d bd cb 64 22 3f 00 e8 82 3d
       0.91818357 -0.05407411 0.6343505 0.06391907
000040 61 0d 52 3e b5 42 59 be 25 8f 63 3f 96 15 ac 3f
       0.20512916 -0.21216853 0.88890296 1.3444088
000050 64 05 8e 3e 14 70 4a bf 2f 8e 4e bd 45 96 8c 3f
       0.27738488 -0.7907727 -0.050428566 1.0983359
000060 d4 f6 96 3f 9a b3 af 3e 8d a0 aa bc 9f 0b ac bd
       1.1794076 0.34316713 -0.02082851 -0.08400654
000070 c6 1e c7 3d 9a 82 dd ba f9 21 cf 3e 12 df 09 3f
       0.097226664 -0.0016899884 0.40455607 0.53856003
000080 ff 9c 3c 3f 68 a3 32 3f a8 77 f2 3e 45 61 a8 bb
       0.7367706 0.6978059 0.47356915 -0.0051385486
000090 b8 71 06 3f 7c e5 3c 3f 98 d9 07 3e 3b 38 4e bf
       0.5251727 0.73787665 0.13266599 -0.8055455
0000a0 b9 8e 95 bd 39 4f b9 be 31 6f 8d 3e 21 92 9f bc
       -0.07302613 -0.36193255 0.27623895 -0.01947886
0000b0 a2 61 b3 bc 94 b1 6e bd 63 19 0d 3f 15 62 12 3f
       -0.02189714 -0.05827482 0.5511686 0.5718091
0000c0 78 90 39 3e 06 f4 63 3e bf e5 2f 3e 5a bc a4 be
       0.18121517 0.22261056 0.17177485 -0.3217495
0000d0 28 20 36 bd c5 18 db 3f 7e 69 f8 3e cb f8 10 3f
       -0.04446426 1.7116934 0.48517984 0.5662963
0000e0 0b 12 75 3e 94 68 2f 3f b8 67 4b 3f 09 1e 28 3f
       0.23932664 0.6851895 0.7945514 0.6567083
0000f0 68 0c fa 3d 77 5c 49 3d 27 da 1b be 7c a9 63 3f
       0.122093976 0.049160447 -0.15219937 0.8893049
000100 0f ce d2 bd 6b 8f 43 3f ff ac f0 3e dd 05 a1 3f
       -0.10293209 0.76390713 0.47006986 1.2579914
000110 97 ef e6 3e 1e f6 9f 3e a5 ba 75 3e 44 64 a4 bd
       0.45104668 0.3124246 0.2399698 -0.08026937
000120 03 1b fb 3e bf 0e 02 3f 7c d2 02 3e 53 51 2b 3f
       0.49044046 0.5080375 0.12775606 0.66920966
000130 31 5d 23 bf d3 68 ac 3f 1f 1a 65 bd 22 89 e8 3e
       -0.63814074 1.346949 -0.055933114 0.45417124
000140 b9 c0 7b 3f 27 76 f3 3e 85 c1 86 3e 3f 12 5b 3d
       0.98340946 0.4755108 0.2631952 0.053484198
000150 57 db 2a 3e 9d 0e fa 3e b3 e6 c2 3e d1 d0 8d 3f
       0.16685234 0.48839274 0.38066635 1.1079351
000160 39 53 42 3f 67 91 fb 3e 76 06 82 be 2b 89 3f 3f
       0.7590824 0.4913437 -0.25395554 0.74818677
000170 1b 65 47 3e cd 03 11 bf d8 23 9f 3e 6a fd b5 3e
       0.19472162 -0.56646425 0.31082034 0.35544902
000180 9c 07 2f 3f e0 48 57 bf 68 b4 ba 3d 2b 1b 9d 3f
       0.68370986 -0.84095573 0.09116441 1.2273916
000190 6d c3 35 3f 0a 49 78 3e e6 0b 12 3e 3e e0 c8 bd
       0.7100132 0.24246612 0.14262351 -0.09808396
0001a0 5b e7 39 3f 5b 60 0d 3f 14 b7 d6 3e 49 20 e2 3e
       0.72618645 0.5522515 0.41936553 0.44165257
0001b0 c5 83 b6 3d d2 45 2d be 1e 64 35 bd e5 56 9f 3e
       0.08911852 -0.16921166 -0.044284932 0.31120983
0001c0 6b fc 83 bf 81 38 4e 3f c7 78 0c be e3 7e 21 bf
       -1.0311407 0.8055497 -0.13717948 -0.6308424
0001d0 96 66 31 be 6a ac fa be 39 3e e2 be 6b fc 95 be
       -0.1732429 -0.48959666 -0.44188097 -0.29294142
0001e0 7c 61 c1 be 8a 05 47 3f 99 51 05 bf 3c 94 f0 be
       -0.37769687 0.77742827 -0.52077633 -0.46988094
0001f0 c5 06 04 3f c2 cf 8c be 00 52 94 3e 84 89 a2 be
       0.5157283 -0.27502257 0.2896881 -0.3174554
000200 19 b8 1e bf 51 4f 5e 3e 17 23 b1 3e 46 52 5c bf
       -0.6199966 0.21709944 0.34597084 -0.8606304
000210 8a cf b0 3d 24 5d 0b 3f 8e 28 fc 3d aa 1a 2f 3f
       0.08633335 0.54438996 0.12312423 0.6840006
000220 97 93 74 3e c8 39 0e 3f 04 90 08 3f c4 28 84 3e
       0.23884426 0.5555692 0.5334475 0.25812352
000230 e1 fb 83 3e 3d e4 0e 3f df 4b 08 3f 15 30 e0 3d
       0.25778106 0.55817014 0.5324077 0.10946671
000240 1c 47 1b be b8 b7 eb 3d 3d 95 9a bd 26 6f bf bc
       -0.15163845 0.11509651 -0.07547996 -0.02336843
000250 a7 ed 09 bd 85 9c 41 3f 9d 70 07 3f 41 7f 74 3f
       -0.03367391 0.75629455 0.5290621 0.95506674
000260 72 e8 2d bd 83 71 42 3f 7f 09 b9 be a1 b0 4a 3f
       -0.042458005 0.75954455 -0.36140057 0.79175764
000270 10 69 05 3d 34 5b 81 be 7c 9d 56 3e eb 13 80 3f
       0.0325709 -0.25264895 0.20958513 1.0006078
000280 b1 d6 1b bd 86 fa 31 3f 84 62 09 3f 36 4a b6 3e
       -0.038046543 0.69522893 0.5366595 0.35603493
000290 4d ae 62 3f db 7d a4 3d 4e da bc be 99 05 72 bd
       0.8854721 0.080318175 -0.36885303 -0.05908737
0002a0 62 23 4c bf 2f af f5 be 05 9f b4 be 71 36 29 3f
       -0.7974149 -0.47985217 -0.35277572 0.66098696
0002b0 8f 42 58 3e 77 22 b0 bd 98 84 ae 3e 57 e4 8f 3d
       0.2111914 -0.08600324 0.34085536 0.07025974
0002c0 9f bf 32 3e 41 07 5a be 44 7b c2 3e 15 b5 71 3f
       0.1745591 -0.2129183 0.3798467 0.94416934
0002d0 ac 18 a4 bf b5 6b 84 3f fa 01 30 3f ce 01 40 3f
       -1.2820029 1.034537 0.68753016 0.75002754
0002e0 b5 80 03 3f 1a 70 e7 3e 56 2e 0e be d1 bf 7c be
       0.51368266 0.45202714 -0.13884863 -0.24682547
0002f0 8e d0 ec bd 05 a4 35 3f a1 b9 da 3d 3b e5 cc bd
       -0.11563216 0.709534 0.10679937 -0.1000466
000300 21 13 ae 3f 73 8c f2 be 6f 45 9b be a3 f9 06 bf
       1.3599588 -0.4737278 -0.3032641 -0.52724665
000310 56 c8 5c 3f 76 da 95 3e 7a 5b ac bf 05 81 53 bf
       0.8624319 0.29268235 -1.3465416 -0.82618743
000320 51 8c dc be f8 fb bd be 4e 09 81 be 4c 05 84 3f
       -0.43075803 -0.371063 -0.2520241 1.0314116
000330 c3 35 9d 3d b9 b5 87 3e d6 f1 5a bf 11 71 8c bf
       0.0767627 0.2650583 -0.8552526 -1.0972005
000340 e5 73 91 3b 75 a0 ea 3e 65 61 88 3e 06 07 2e be
       0.0044388645 0.45825544 0.26636806 -0.16994867
000350 c0 d8 b9 be b7 46 35 3f 50 46 02 3f d8 fb 35 bf
       -0.3629818 0.7081103 0.5088854 -0.7108741
000360 d9 2f 12 3e 28 4d 18 3d 66 9c 9f 3e 33 42 33 3f
       0.14276065 0.037182957 0.3117401 0.70022887
000370 67 fa 22 bf 4e ca 17 3e e6 dc 7e be a6 f4 8e 3f
       -0.63663334 0.14823267 -0.24888954 1.1168411
000380 61 55 92 3e a6 7d c6 3f 7b 87 18 3e 90 4b ac 3e
       0.28580764 1.5507095 0.14895432 0.336514
000390 85 92 b7 3f 59 fe 3a 3f d9 3d af bd 68 be f1 be
       1.4341589 0.73044354 -0.085567184 -0.4721558
0003a0 73 d2 03 3f 09 f8 5f 3f 6e aa 06 be 8a 62 63 be
       0.51492995 0.87487847 -0.13150951 -0.22205558
0003b0 15 dc 05 3f 19 db 19 be dd 35 0d be 2a e2 e5 3e
       0.52288944 -0.15024985 -0.13790078 0.44899112
0003c0 33 d0 0e 3f 79 3b 1c 3e 11 37 0b 3f ee e9 ee 3e
       0.55786437 0.15257062 0.543809 0.4666285
0003d0 9b ae 55 be ac b8 6d 3f 8d 59 49 bc 4b 65 9e be
       -0.20867388 0.9285991 -0.012289417 -0.30936655
0003e0 2d 60 5a 3f 8b c4 a9 bd 1c 74 18 bf d0 b6 e4 3e
       0.85303 -0.08289441 -0.5955217 0.44670725
0003f0 10 0d 09 3f f6 36 b7 bd 47 b5 0f 3b fa e3 a7 bf
       0.53535557 -0.0894603 0.0021928118 -1.3116448

noise f4 [1, 1, 4, 4]
000000 c5 ec 8c 3f e2 9f fe 3d b2 b4 aa 3f 01 27 37 bf
       1.1009756 0.12432839 1.3336394 -0.7154389
000010 bc 56 57 3f 77 79 d4 3d 32 b6 99 3e 57 92 97 3d
       0.8411672 0.1037473 0.30021816 0.07400959
000020 8b d0 08 bf 59 9b ec bd c7 99 0e bf 55 a3 dd 3f
       -0.5344321 -0.11553068 -0.55703396 1.731547
000030 4f 9a 28 bf 26 e1 20 c0 d9 b1 0d bf b6 49 1e 3d
       -0.65860456 -2.513742 -0.553495 0.038644515

noise f4 [1, 1, 8, 8]
000000 49 53 34 3d fb 3b 6a bf fe 6a 9e 3f 3c 28 95 bf
       0.04402474 -0.9149777 1.2376401 -1.1652904
000010 16 2f d9 bd 9a 38 83 be f6 c4 a6 3e 79 f6 61 bf
       -0.10604684 -0.2562912 0.32572144 -0.8826671
000020 99 f0 40 3f c7 75 89 3f 4a 22 87 ba 1f b4 70 3f
       0.7536712 1.0739068 -0.0010309902 0.9402484
000030 1c 96 17 bd ec bf d9 bf 08 85 e8 3e 03 31 8c 3f
       -0.03700839 -1.7011695 0.45413995 1.0952457
000040 e2 d3 1d bf 6d 36 3b bf 52 3a 28 3f dd 87 31 bf
       -0.6165143 -0.7312992 0.6571399 -0.69347936
000050 04 c0 87 3e 76 c6 01 bd ef 58 73 3f d7 cc 9c 3f
       0.26513684 -0.031683408 0.95057577 1.2250012
000060 ac a7 1c bf bf cd cb be f0 88 f1 be fb 4c 1e bf
       -0.61193347 -0.3980541 -0.47174788 -0.6183621
000070 d4 ab 78 3f 89 53 71 3f 08 d3 e6 bf 6e 2a e2 bf
       0.9713719 0.9426809 -1.8033152 -1.7669199
000080 56 d9 9d bf bf 01 12 40 12 e8 db 3e 3f 5a 17 bf
       -1.2331951 2.2813566 0.42950493 -0.5912208
000090 c1 ae dd be c0 0c 7c 3f 5d f3 ac be b1 da 1a bf
       -0.4329739 0.98456955 -0.3377942 -0.60489947
0000a0 28 b7 e4 be 9b ad ba bc ea 9a 2d c0 95 c7 2d 3e
       -0.44670987 -0.02278786 -2.7125802 0.16970666
0000b0 22 c6 48 3f 8b d8 3c 3f 28 bb 1a 3f ee f1 02 40
       0.78427327 0.7376792 0.6044183 2.0460162
0000c0 ba fe 09 3f cf 7f 6e 3f 40 21 02 c0 ed 40 82 bf
       0.53904307 0.9316377 -2.0332794 -1.0176064
0000d0 8b f2 08 3f eb 69 fb 3e 1f e2 00 40 8f d5 ba bf
       0.5349509 0.49104246 2.0138013 -1.4596423
0000e0 8b 6b 12 bf ca b7 80 bf 40 fe 2c 3e 2f 35 ac 3e
       -0.5719535 -1.0056088 0.16893864 0.33634326
0000f0 b8 59 05 3e eb bd 4b 3f 5b 64 15 3f 6b b6 62 be
       0.13022506 0.79586667 0.58356255 -0.221399

noise f4 [1, 1, 8, 8]
000000 3f 6d 0c 3f 22 6c 5a bf 52 e1 0b bb 11 4f be 3f
       0.54854196 -0.8532125 -0.0021344018 1.4867879
000010 44 62 cc be d6 98 66 3f 81 09 23 3f a2 08 2d be
       -0.3991872 0.9007696 0.63686377 -0.16897824
000020 44 28 eb 3e f2 f0 77 be 0e b8 ff bf c0 b6 2e be
       0.45929158 -0.24213007 -1.9978044 -0.17061901
000030 63 99 6f 3e 51 a5 cf bf d7 00 0c bd 16 05 24 bd
       0.23398356 -1.6222326 -0.03418049 -0.040043913
000040 d8 51 e0 3f 6c 2e 86 bf de fb 84 3f 02 b9 50 3e
       1.7524977 -1.0482917 1.0389364 0.20383075
000050 b0 a8 09 c0 5e a1 8b 3e 6f 87 34 3f 47 48 c2 be
       -2.1509209 0.2727155 0.70519155 -0.37945768
000060 15 a0 fc 3e c2 b5 b6 3d 1a 42 46 3f c1 1e 31 bf
       0.49340883 0.08921386 0.7744461 -0.6918755
000070 b5 57 08 c0 ad 2d 46 3f 69 66 14 3f 4e 3c 0f 3d
       -2.1303532 0.77413446 0.57968765 0.03496962
000080 7c 9e d2 3d 03 e0 30 bf 7c 6d 48 3f ba 3a f9 bd
       0.10284135 -0.69091815 0.7829206 -0.12169404
000090 93 71 bb 3f df b8 c5 bf f4 5e 89 3f 3f c6 33 3f
       1.4644035 -1.5447043 1.0732102 0.70224375
0000a0 98 e5 85 3f 41 58 bb 3e d8 f7 68 3e b7 eb 60 bf
       1.0460691 0.3659077 0.22750795 -0.8785967
0000b0 6b 2b 2b 3f fc de 83 bf cf e3 3c bf 8b 26 2d bf
       0.66863126 -1.0302424 -0.7378511 -0.67636937
0000c0 96 6a c2 3f 56 1b 88 3f a4 a9 21 3e 13 ec 87 3e
       1.5188777 1.0633342 0.15787369 0.26547298
0000d0 d4 8d a3 3d f4 14 cb 3e 3e 60 c6 3f 19 0b 23 3f
       0.07986036 0.39664423 1.5498121 0.6368881
0000e0 84 d1 62 3f cb 90 ad bf d7 98 b0 bf 62 62 34 c0
       0.88600945 -1.3559812 -1.3796643 -2.8185048
0000f0 88 be 76 bf d7 fa 27 3f 7b bd 26 3f e2 63 93 bf
       -0.9638448 0.65617126 0.65132874 -1.1514857

noise f4 [1, 1, 16, 16]
000000 26 f8 f4 3e cb 81 16 3f 3b 34 d0 3f 4e 04 bc bb
       0.47845572 0.587918 1.626594 -0.005737818
000010 d1 43 8d bf 01 8c 06 bf 77 1f 66 3e 3d 5e 6c 3c
       -1.1036321 -0.5255738 0.2247294 0.014426765
000020 89 51 7b bc f9 5e 26 3f 2b 2c 31 bf 14 9c 73 3f
       -0.015339264 0.64988667 -0.6920802 0.9516003
000030 04 41 aa bf f6 72 3d bf dd 63 3f bf 9c 04 08 be
       -1.3301091 -0.7400354 -0.74761754 -0.13283008
000040 be d4 08 3f cf 41 cd 3e 52 f1 9f bf cf e4 c1 3e
       0.5344962 0.4008927 -1.249552 0.3786988
000050 79 6a 6a 3e 38 b7 4a 3f 36 30 da 3e f1 8a 8e 3f
       0.22892179 0.7918582 0.42614907 1.1136152
000060 57 99 dd bf 27 75 73 3f 44 0c 9e 3f ab 49 0b bc
       -1.7312421 0.95100635 1.2347493 -0.0085014505
000070 72 fd d9 3d f4 ae ce 3f ac 98 d5 3f e7 39 84 3f
       0.10644044 1.6147141 1.6687217 1.033017
000080 2b 9d 91 3f 89 41 b3 be ec 99 e1 bf 8e 7f 32 bf
       1.1376089 -0.35010937 -1.7625098 -0.69725883
000090 b7 e5 83 3f 2c 56 c9 bc 2a be 8d 3f b6 88 49 3f
       1.0304478 -0.024577223 1.1073658 0.7872423
0000a0 58 68 57 be 45 db f4 bd a9 43 21 40 fb ba 4b 3f
       -0.21035898 -0.11955885 2.5197546 0.79582185
0000b0 cd a7 87 3f d7 97 a6 bf bd 2c 85 bf 62 cf 9e 3f
       1.0598084 -1.3015088 -1.0404278 1.2407038
0000c0 1e 71 65 be 9d cd 4a bf 65 68 40 bf b8 fe a4 3e
       -0.22406432 -0.7921999 -0.75159293 0.32225585
0000d0 5d f9 83 3f 3d 83 c9 3f 10 93 87 3d 92 85 f5 3e
       1.0310475 1.5743176 0.06619847 0.4795347
0000e0 5f 48 70 3f 64 51 80 bf 50 6a af bf b4 38 fb 3c
       0.9386043 -1.0024838 -1.3704319 0.030666687
0000f0 8d 78 cc bf 61 31 ee 3f f9 87 21 c0 0b eb cd 3f
       -1.5974289 1.8608819 -2.523924 1.6087354
000100 2d 7b 0f 3f 8e 91 cc 3e 02 a5 85 3f 9e 86 86 3d
       0.56047326 0.399548 1.0440981 0.06568645
000110 16 3a ff 3d d2 dc 87 3f db c2 c1 3f ce af d6 bd
       0.12462251 1.0614264 1.513759 -0.10482751
000120 8e 0e 3a bf c1 56 b3 3e 6e 38 ea bd c8 38 e1 3f
       -0.7267846 0.35027125 -0.11436544 1.7595453
000130 26 88 8b 3d 9f 3e 15 bf d2 83 52 bf 91 0f db bf
       0.06813078 -0.5829868 -0.8223239 -1.7114125
000140 00 f6 39 3e 7a 14 f3 3e b0 9e b5 bf 2e d2 b2 bf
       0.18160248 0.4747656 -1.4189053 -1.3970392
000150 5f 66 93 bf 7e 80 a7 bf 54 cd ac bf c6 8b 9d bd
       -1.1515616 -1.3086088 -1.3500161 -0.07692675
000160 4d a7 67 3f 08 d5 6c be e2 6d 5f bf 64 01 81 be
       0.90489656 -0.2312814 -0.8727704 -0.25196373
000170 63 2a 89 3e e0 6a 99 bf b9 7f 29 3f 58 4c e6 be
       0.2679015 -1.1985741 0.66210514 -0.4498012
000180 a8 ac 61 3d 47 ec 0c be ad 64 cf be e7 39 92 3f
       0.0550963 -0.13762008 -0.40506497 1.142392
000190 ef 26 ac 3e 56 b4 15 3e 75 9a af bf 8e 17 cd bd
       0.33623454 0.14619574 -1.3719012 -0.10014258
0001a0 94 3f 22 3f 7b db 9e be 60 12 86 3f a7 b1 83 bf
       0.6337826 -0.31026825 1.0474358 -1.028859
0001b0 6f 99 ae 3f 6e 7c 0e bf 1f ba 19 bf e0 2d 56 bf
       1.3640574 -0.55658615 -0.60049623 -0.8366375
0001c0 26 21 80 3e c3 b2 63 3e 1c 53 7d bf db 2f 85 bf
       0.2502529 0.22236161 -0.9895494 -1.0405229
0001d0 d8 52 68 be 8f 9a c9 be 52 4d b4 be bd 6e 18 3f
       -0.22687852 -0.3937573 -0.3521524 0.59543973
0001e0 93 32 8d 3f a1 a5 34 bf f5 f0 a9 bf 62 20 57 3f
       1.1031059 -0.7056523 -1.3276659 0.8403379
0001f0 af a0 a4 3f af a3 c3 bf 09 a7 ee bf c5 2b 14 be
       1.2861537 -1.5284327 -1.8644725 -0.14469822
000200 3f 6b 95 be 9e ce 43 bf e0 a3 a5 be 50 1f 9b 3e
       -0.29183385 -0.7648715 -0.3235159 0.30297327
000210 ae 6f fa be a7 78 23 3f b2 de 74 bf 2c f9 29 3f
       -0.4891333 0.63855976 -0.95652306 0.6639583
000220 d5 b6 0a 3f 87 af 0e 3f 5b 25 9a 3e d2 59 7a 3f
       0.5418523 0.55736583 0.30106625 0.97793305
000230 fc 13 d8 bf 29 5f 10 bf 39 15 68 bf 57 44 01 40
       -1.6881099 -0.563952 -0.90657383 2.0197961
000240 26 10 da be f8 b4 2c 3e 36 87 97 bf a7 c2 e7 3f
       -0.42590445 0.16865909 -1.1838138 1.8106278
000250 be df ea bf 11 14 da bf a0 bc 4c be da 34 7a 3e
       -1.8349531 -1.7037374 -0.1999383 0.24434224
000260 02 a6 1d 3e e3 30 49 3f 5a 2f 0c bf 5e 09 45 3f
       0.15395358 0.7859022 -0.5475975 0.7696742
000270 b5 df 9f be 51 aa ba bf e2 fe 31 bf db 0a 08 c0
       -0.31225362 -1.4583226 -0.69529545 -2.1256626
000280 f1 07 04 bd 6e fa ca 3f 6d c3 93 3f 46 f5 62 3e
       -0.032234136 1.5857675 1.1544014 0.22163877
000290 c0 81 ac 3f 6d dd 74 bf b7 4f e2 bf 7d 50 a2 3f
       1.3477097 -0.9565037 -1.7680577 1.2680813
0002a0 78 28 a3 3f 84 16 31 bf 45 b4 5c bf f7 6f ba bf
       1.2746725 -0.6917498 -0.8621257 -1.4565419
0002b0 b5 0c d2 3e 1d 7b 01 bf 5a 07 65 be 62 69 68 bf
       0.4102532 -0.5057848 -0.22366086 -0.907858
0002c0 4f bc f4 bf 61 f3 9e be 27 12 97 be 3e 69 43 3f
       -1.9119967 -0.31045058 -0.29506037 0.7633246
0002d0 c2 45 5b 3f 78 de 14 3f 2d 48 a8 3f 07 c1 2e 3f
       0.85653317 0.5815196 1.3147026 0.68263286
0002e0 5d 3a 96 bf 74 99 a0 3e ba e3 b1 bf d5 d9 05 bf
       -1.1736561 0.31367075 -1.3897622 -0.5228551
0002f0 d8 e5 30 3f 10 c8 6e be e1 df a0 3e fd 7f 8e bf
       0.69100714 -0.23318505 0.31420806 -1.1132809
000300 99 f2 9a bf 6e 35 cf bf 19 82 bd 3f 5e af 27 3f
       -1.2105285 -1.618818 1.4805328 0.65501964
000310 fe 43 42 3f da 7f e4 bc a4 ed ce 3e 05 89 b6 3f
       0.75885 -0.027892996 0.4041568 1.4260565
000320 57 f4 8e be 93 17 83 be 9e 13 e1 3e d5 a0 0d 40
       -0.27920792 -0.25603923 0.4396028 2.2129414
000330 a4 9b e8 bd e3 8c 23 bf 5e 92 0b 3f 97 17 87 bf
       -0.11357811 -0.6388685 0.54520214 -1.0554074
000340 ba a0 6c 3f 15 22 e4 bf 14 3c 64 bf 71 28 bd 3f
       0.9243275 -1.7822901 -0.8915417 1.4777967
000350 87 a8 64 bf cb 2c 4f bf e8 82 13 bf 34 ef 12 bf
       -0.8931965 -0.80927724 -0.5762162 -0.57396245
000360 c8 bd 56 bf a6 4d 33 40 70 49 95 3f db f2 8c bf
       -0.83883333 2.8016143 1.1663036 -1.1011614
000370 f5 39 ff 3e 3c fd b7 bf f0 3c b9 3f aa 95 f5 bf
       0.49848905 -1.4374156 1.4471722 -1.9186299
000380 14 a6 61 3f 71 10 99 3b c8 cc 0f 3f d9 6e d8 3f
       0.8814404 0.0046711494 0.56171846 1.6908828
000390 a7 ea 33 3f 56 fc 79 bf 21 46 f2 3e 9b 10 d9 3e
       0.70279926 -0.9765066 0.4731913 0.4239548
0003a0 5d 4b 75 3f 06 f3 e4 be 56 a8 7f 3f e6 e5 dd bf
       0.9581812 -0.44716662 0.99866235 -1.7335784
0003b0 d2 57 ec be 11 bd 84 3f 39 1d 47 bf 64 ea c3 3e
       -0.46160752 1.0370198 -0.77778965 0.38264763
0003c0 63 97 0e bf 29 1c a8 3f 14 96 2c 3f 2a 56 91 be
       -0.5569975 1.3133594 0.674165 -0.2838605
0003d0 06 97 8e be 3e 44 1f 40 43 60 0d bf 27 03 91 bf
       -0.27849597 2.4885402 -0.5522501 -1.1329087
0003e0 d7 41 8d 3e ed 69 0a bf b9 c8 4b bf fb fb 62 3f
       0.27589294 -0.5406788 -0.79603153 0.8866574
0003f0 6a eb b5 be 60 5f aa 3f fa 1b a4 3d 49 5c 97 3e
       -0.3553117 1.3310356 0.080131486 0.29562595

noise f4 [1, 1, 16, 16]
000000 82 5d 09 bf aa 7f 91 be a2 9a 2c bf 85 c1 14 bf
       -0.53658307 -0.28417712 -0.6742345 -0.5810779
000010 c5 f4 88 3f 82 c3 b4 bf 95 76 aa 3e 5c 27 50 3f
       1.0699698 -1.4122164 0.33293596 0.8131006
000020 68 bc ae bf ec 16 a5 be c6 39 09 3f 2b 8f 2e bf
       -1.3651247 -0.3224405 0.5360378 -0.68187207
000030 ee 0f d2 be 3a b6 98 3d 9d d7 1b 40 71 e0 a3 3f
       -0.41027778 0.07456632 2.435035 1.2802869
000040 74 df e5 be dc 83 61 bf 5b d5 0f 3f 37 5b c4 bc
       -0.44897044 -0.88091826 0.5618493 -0.023969276
000050 f0 9a da bd ab ee fe bf fb 2e d0 bd 3a 61 f6 bf
       -0.10674083 -1.9916586 -0.10165211 -1.9248421
000060 1f 9a 60 bf c5 b4 a6 3f d2 75 b9 3e 33 e0 43 3f
       -0.8773517 1.3023916 0.36222702 0.76513976
000070 96 4c 94 3f 40 55 41 bf 06 65 1a bf 4d 26 7d 3c
       1.1585872 -0.75520706 -0.603104 0.015451026
000080 10 fb 38 3f 64 49 59 3f 3a 40 16 be bb 0a c3 3f
       0.7225809 0.8487761 -0.14672938 1.523765
000090 49 5a 08 40 18 e4 a0 3f a4 a2 ed be 41 16 88 bf
       2.1305106 1.2569609 -0.46413147 -1.0631791
0000a0 a4 be 84 3f 63 0e bc bf 86 47 f8 bd 42 fe 1e bf
       1.0370679 -1.469189 -0.12123017 -0.62106717
0000b0 cd 23 0e bf 4b 20 a5 bf a9 dd 95 3f ae 20 39 3f
       -0.5552338 -1.290048 1.170827 0.7231549
0000c0 12 f8 85 3f d5 dc a1 3f 44 c7 93 bf 78 a9 47 be
       1.046633 1.2645518 -1.1545186 -0.19498241
0000d0 ea 67 8b 3e 2c a5 da bf b3 ef 95 bc 68 5b 43 bd
       0.27227718 -1.7081656 -0.018302774 -0.047694594
0000e0 8a 0d cd be be b6 6e 3f 55 34 a1 bf 03 35 cc be
       -0.40049392 0.9324759 -1.2594095 -0.39884195
0000f0 75 f5 08 3f e2 87 38 3f 2f 4b 18 bf e3 9b b1 3f
       0.5349954 0.7208234 -0.5948972 1.3875698
000100 f3 92 0a 3f 8c 44 b8 3e 81 b6 bd bd 23 d6 52 3f
       0.54130477 0.35989797 -0.092633255 0.82357997
000110 48 45 f8 3e e7 02 78 bf 45 bd 16 40 ff 6f e2 3e
       0.48490357 -0.9687943 2.355302 0.4422607
000120 a7 b4 cc 3d f0 17 e8 3d fa 5e 05 3f ed 4b 99 3f
       0.09995394 0.11332691 0.5209805 1.1976296
000130 f5 84 60 3f 23 08 de 3e dc f8 3f 3e 40 0c 1b 40
       0.87702876 0.43365583 0.18747276 2.4226227
000140 a8 42 16 be 8c d7 3e bf bc 80 59 bf e4 7c f6 3e
       -0.14673865 -0.7454765 -0.8496206 0.4814216
000150 af 8b 21 bf e6 10 e7 be 63 27 b9 bf 2e 32 68 bf
       -0.63103765 -0.4513008 -1.4465145 -0.9070157
000160 46 29 d8 bf 9f 4d 23 3f d4 81 78 3e d9 52 aa 3f
       -1.6887596 0.63790315 0.24268275 1.3306533
000170 7a 52 92 bf 30 03 99 bf ac b3 e3 3f 59 16 2e bf
       -1.143142 -1.1954098 1.7789207 -0.6800285
000180 d4 80 e4 3e 90 58 74 bf a6 83 0e 3e ee af 23 bf
       0.44629538 -0.95447636 0.13917407 -0.6394032
000190 ee f5 f7 be 22 99 04 bf e7 4c a2 3f 40 da d8 3d
       -0.48429817 -0.5179616 1.2679719 0.10588503
0001a0 c8 5f 1a 40 c8 82 11 be ab 8b 81 3f d5 ad bd be
       2.412096 -0.14210045 1.0120748 -0.37046686
0001b0 b3 12 ba bf 78 47 ce be 6d 53 ac 3e 76 b2 c8 3e
       -1.4536957 -0.402889 0.336574 0.39198655
0001c0 e6 f5 32 3e 3e 1c 3f 3e 8c e2 3a 3e 42 95 77 bc
       0.17476615 0.18663117 0.18250483 -0.015111269
0001d0 f6 ab ef bc 08 73 9e bf e4 fb 0a be e1 aa 75 3f
       -0.029256802 -1.2378855 -0.13572651 0.95963866
0001e0 6e 69 e9 be 92 9a 5e be af 28 49 bf aa 63 3a 3f
       -0.4558825 -0.21738651 -0.78577703 0.72808325
0001f0 4d 45 8f bf 3b 32 ad bf 9a db cd bd 2d 16 36 c0
       -1.1193024 -1.3530954 -0.10051651 -2.8451035
000200 6a 70 5f bf 2e 4e 3b be 1a 7b a4 bf d0 4f b9 3f
       -0.87280905 -0.18291542 -1.2850068 1.4477482
000210 84 c1 6d bf b6 e0 89 3f 70 f6 02 c0 b0 0c ba 3f
       -0.92873406 1.0771701 -2.0462914 1.4535122
000220 52 10 1e 40 34 48 e6 bc 00 67 d8 3d 5d 1d aa 3f
       2.469746 -0.028110601 0.10566521 1.3290211
000230 c2 6f 77 3e 7a bb f8 be 1e 7f 21 bf 10 fc 15 3f
       0.24163726 -0.48580533 -0.6308459 0.5858774
000240 d4 0a 57 3f ad 0c 86 bf 8a 50 21 3e 24 b3 81 3f
       0.840009 -1.0472618 0.1575338 1.0132794
000250 35 7b c5 bf 12 49 f9 be b0 7e e4 bf 51 32 73 3f
       -1.5428225 -0.4868856 -1.7851162 0.9499865
000260 de d6 4b 3e af 4a fa 3e 52 d4 7c 3f a2 e8 23 3f
       0.19906184 0.48885104 0.98761475 0.64026845
000270 78 71 49 3f bf 43 02 bf 9d b7 44 3f 50 86 d2 3f
       0.78688765 -0.5088462 0.7684267 1.6447239
000280 22 fb 0c 3f 96 ef 18 3f 60 99 81 3f 6a 57 2b 3f
       0.550707 0.5974058 1.0124931 0.6693026
000290 ce fa f8 3e dc b1 8e bf d0 04 e2 3e 51 fd bc 3f
       0.4862885 -1.1148028 0.44144297 1.4764806
0002a0 9a fb 5a bf a7 d3 87 bf 6b 64 20 bf ec d2 c7 3e
       -0.85540164 -1.0611466 -0.62653226 0.39028108
0002b0 32 91 78 bf b5 6c 80 3f 40 77 25 bc c5 86 5c bf
       -0.9709655 1.0033175 -0.010099232 -0.8614314
0002c0 eb 62 0e 3f c2 8b d0 3e f4 16 10 bf 44 3f 13 be
       0.55619687 0.40731627 -0.56285024 -0.14379603
0002d0 51 7f f7 3f 8a 21 3c c0 f8 de 3a 3e 81 85 ae 3c
       1.9335729 -2.939547 0.18249118 0.021303894
0002e0 4e 11 c7 bf 94 78 87 3f 68 c4 31 be 90 3b 39 3f
       -1.5552156 1.0583673 -0.1736008 0.7235651
0002f0 6d 67 ec 3e 7b fc 38 bf 59 e3 6a bf 82 f7 ba be
       0.46172658 -0.72260255 -0.91753155 -0.36516958
000300 a0 75 64 be 9f a3 42 bf db e9 aa 3f ed db 40 bd
       -0.22310495 -0.76030916 1.3352617 -0.047084738
000310 e0 f6 e2 3d e0 e0 c2 3d 55 72 db bf 5a 87 e0 bf
       0.11082244 0.09515548 -1.7144266 -1.7541306
000320 7a a6 af bf 91 a4 3d bf 29 01 a1 bf 10 2d ce bf
       -1.372268 -0.74079233 -1.2578479 -1.6107502
000330 64 c2 de 3f 63 0e 85 3e 05 ad 60 bf c3 f0 e0 3f
       1.7403073 0.2598754 -0.87764007 1.7573475
000340 6b f7 db 3e 2d 9e d9 bc fe 9a dc 3f 4d c6 fb bd
       0.42962202 -0.026564682 1.72348 -0.12293682
000350 3c e2 53 3f 8e d3 88 bf 91 05 c0 3f f2 ed 3e 3e
       0.8276708 -1.0689561 1.5001699 0.18645456
000360 c6 1a 38 3f bd a1 e3 bf b3 5e 62 3f 02 bb 8e 3f
       0.71915853 -1.7783734 0.8842575 1.115082
000370 f0 92 53 3f 26 71 b3 3e 1b 91 e4 3e aa 3c a1 be
       0.82646084 0.35047263 0.44641957 -0.31491596
000380 aa 3f 94 be d9 2e 2f bf 24 20 fd 3d f2 3f 93 bf
       -0.28954822 -0.6843086 0.12359646 -1.150389
000390 f1 74 27 3f 8b 72 f8 be f8 07 3f bf 1c 62 90 bf
       0.65412813 -0.4852489 -0.74621534 -1.1279941
0003a0 80 d7 91 be aa 19 76 3e 04 80 a6 3d 79 85 e0 3f
       -0.28484726 0.24033228 0.08129886 1.7540733
0003b0 fe 75 30 be 77 19 66 bf 33 7d 5f 3f 90 7a cb 3f
       -0.1723251 -0.89882606 0.87300414 1.5896778
0003c0 8e 4c ea 3f e2 f3 1c be 78 c6 74 bf 4c b1 b1 3e
       1.8304613 -0.15327409 -0.9561534 0.3470558
0003d0 86 9f 20 3f b3 18 a6 bf fa d0 6f be 08 bf 40 bf
       0.62743413 -1.2976288 -0.23419562 -0.7529149
0003e0 38 b4 b9 bf d4 6d c5 3e 7f 73 8c bf de 91 db bf
       -1.4508123 0.38560355 -1.0972747 -1.715389
0003f0 f6 cf bd bf 0a 6d 2c 3f bb 28 4f 3f 62 89 b4 be
       -1.482909 0.6735388 0.80921525 -0.35261065

noise f4 [1, 1, 32, 32]
000000 74 46 77 3e fd 73 29 be b6 6d 7d be 8a 8b 6b 3f
       0.2414797 -0.16548152 -0.24748883 0.92009795
000010 40 ff 99 bf 7e 4e 54 3e 3c 47 9b 3e e1 a2 19 40
       -1.2031021 0.20733067 0.30327785 2.4005663
000020 5a e6 87 bf 21 aa a0 be 48 4e 08 c0 cc 51 c8 bf
       -1.0617173 -0.31379798 -2.129778 -1.5649962
000030 b0 ad f8 bf e3 a6 cc be 44 20 4c bd fc 19 86 be
       -1.9428005 -0.39971074 -0.04983546 -0.261917
000040 c8 2a b2 3f bc d9 9d 3f e1 8c 26 be 3d e4 db 3e
       1.3919306 1.2332072 -0.16264679 0.4294757
000050 94 f9 02 c0 38 45 0f bf f6 0f 2d c0 61 e1 3a bf
       -2.046483 -0.55964994 -2.7040992 -0.7300015
000060 c4 55 09 c0 a5 2c 99 3f 6d 9f eb 3f 2b d6 89 bf
       -2.1458597 1.196675 1.8408028 -1.0768484
000070 60 17 5d bf b6 d1 89 3e 3b 4c 25 be c3 17 c9 bf
       -0.8636379 0.2691781 -0.16142361 -1.5710377
000080 2e 82 cd be fd 6e c7 3f 0e cc 57 3c ff 42 a4 be
       -0.40138382 1.5580746 0.013171209 -0.32082364
000090 00 b7 34 3f 62 4f 28 3f bd 04 26 3f bf 35 f8 be
       0.70591736 0.6574613 0.6485098 -0.48478505
0000a0 7a 9d 4d bf 8f c0 1b bf df b9 90 bf 6f e3 0d be
       -0.80318415 -0.60840696 -1.1306723 -0.1385629
0000b0 ee 2e 85 3e a3 e4 e8 3e a8 87 aa 3f 29 c7 4c 40
       0.26012367 0.45486936 1.3322649 3.1996558
0000c0 b1 b1 88 bf 6f 5a d1 be 24 2d 49 bf 60 d9 67 3f
       -1.0679227 -0.40889308 -0.78584504 0.9056606
0000d0 95 b8 ec be 63 77 e3 3f 51 38 96 bf 38 94 f0 3c
       -0.46234575 1.7770809 -1.1735936 0.029367551
0000e0 4a 41 7b bf b5 ce 84 3f 0d 04 05 3f e0 95 44 3f
       -0.981465 1.0375582 0.51959306 0.7679119
0000f0 bd f6 26 bf cf 56 0c 40 09 f0 f2 3e d3 8c cc bf
       -0.6522024 2.1927984 0.47448757 -1.5980476
000100 44 14 c1 3e ce a6 6e 3e ce 30 8b 3e 23 31 cf bf
       0.37710774 0.23305818 0.27185673 -1.618687
000110 96 08 13 3e 0b df 01 be f4 42 a9 3e f4 67 60 bf
       0.14358744 -0.1268274 0.33058894 -0.8765862
000120 b6 4a 1a c0 e1 6f 2f 3f f4 a7 4a 3f a4 f6 2a 3f
       -2.41081 0.6853009 0.79162526 0.66782594
000130 d0 4b 01 3f 56 98 ec 3d 95 0f 4e 3f 0e 9a 22 3f
       0.50506306 0.11552493 0.80492526 0.6351632
000140 95 a7 c8 bf 4a 59 48 bf eb 9e f8 3e e3 c7 27 c0
       -1.5676142 -0.78261244 0.48558745 -2.621575
000150 64 3d 49 3f 9f cb 8c bb 70 e2 89 3d 3d 16 89 bc
       0.786093 -0.0042967345 0.06732643 -0.016734237
000160 64 c3 85 bd 65 18 61 3f d5 54 8c be bd 00 7d 3d
       -0.065314084 0.8792785 -0.27408472 0.061768282
000170 66 c6 c4 3e 24 15 3b 3f 23 07 2b 3f 3d 9c 98 3f
       0.38432616 0.73079133 0.66807765 1.192268
000180 55 23 ba 3e da c9 51 be 51 a7 96 bf 20 40 88 3e
       0.3635508 -0.20487157 -1.1769811 0.26611423
000190 f1 34 0c 3f c5 df 17 40 88 1f 8b 3f 21 6a 1f 3f
       0.5476828 2.3730328 1.0868998 0.62271315
0001a0 04 ca 71 3e 63 b0 87 3f 6c 09 0f 3f 84 6d 3e bd
       0.23612219 1.0600704 0.5587375 -0.04649116
0001b0 60 d0 00 bf 05 5e a7 3f a6 91 c6 3f f4 e7 4d bf
       -0.50317955 1.3075567 1.5513198 -0.8043206
0001c0 85 4b 5d 3f 78 41 aa bf 36 67 5f bf 67 ad 4e be
       0.8644336 -1.330123 -0.8726686 -0.20183335
0001d0 e1 9b a4 3e 2d 5d 0c c0 f0 c8 42 be af 0a c7 3f
       0.32150176 -2.193187 -0.19021964 1.5550135
0001e0 28 eb ba 3e a7 57 77 bf 3f 73 cf 3c 0b c4 03 3e
       0.36507535 -0.9661812 0.025323508 0.12867753
0001f0 33 aa 7c 3f ad c9 bd bd 8a 29 88 bf a2 7d 7e bf
       0.98697203 -0.09266982 -1.0637677 -0.9941045
000200 f2 76 ad 3e 22 6b d8 bd ee 35 8e 3f 9f fa b1 3e
       0.3387981 -0.10567309 1.1110208 0.3476152
000210 56 f5 0f be c9 67 80 3f 5e 16 d7 bf ba 59 48 c0
       -0.14058432 1.0031673 -1.6803701 -3.1304765
000220 d7 58 61 3f 41 c8 ad 3f b3 70 58 bf 84 48 8d 3f
       0.88026184 1.3576738 -0.84546965 1.1037755
000230 d6 19 8d 3f f4 f4 07 3e f6 9c 9a bf 8e 5c 16 3e
       1.102351 0.13277036 -1.2079151 0.14683744
000240 be 4a 47 bf 1c 29 35 bf 45 c3 a5 3e a0 79 9d be
       -0.7784842 -0.7076585 0.3237554 -0.30756855
000250 84 4f 8e bf 3c a4 9d 3e 6c 15 39 bb 4e cc 3b be
       -1.1118016 0.30789363 -0.0028241528 -0.18339655
000260 e0 8e 5f 3d a8 2c cb 3f 9f 32 63 bf 73 8b 2b 40
       0.054579616 1.5873003 -0.88749117 2.6803863
000270 e2 ee 35 bf f0 c4 8e 3e 11 1a 4f bb 4a ea 50 bf
       -0.7106763 0.27884626 -0.003160123 -0.81607497
000280 a5 5b 85 bf 03 36 30 be 05 74 3f bf c1 bc 3e bf
       -1.0418593 -0.17208104 -0.74786407 -0.74506766
000290 d3 2e 58 3f 93 83 aa 3c 67 61 4a 3f 28 8c 62 3e
       0.8444645 0.020814693 0.79054874 0.22123778
0002a0 1e 8e 64 3e 85 4d 14 bf 41 fe 17 3f 2c 43 21 3f
       0.22319838 -0.57930785 0.59372336 0.6299312
0002b0 ed 68 77 3f bc e7 a8 bf d0 6f 33 3f ad c4 94 bc
       0.9664448 -1.319572 0.7009249 -0.018160189
0002c0 18 92 65 3e 1b 23 42 c0 ad 7b 0c c0 b8 9a 8f be
       0.22419012 -3.0333927 -2.1950486 -0.2804773
0002d0 f5 49 22 3f 92 7c 64 bf e2 22 a9 be 36 f6 02 be
       0.633941 -0.8925258 -0.33034426 -0.12789235
0002e0 54 e5 b9 3e f9 3a 5f 3f 82 85 0b bf 4d cd 87 bf
       0.36307776 0.8719936 -0.5450059 -1.0609528
0002f0 cc 47 02 c0 fc f9 a0 3f 87 d6 5f 3f ef 91 19 3f
       -2.0356321 1.2576289 0.8743672 0.599883
000300 7f 7b 04 3e fa 78 09 bf ca 51 37 bf af 09 4c 3e
       0.12937735 -0.5370022 -0.71609175 0.19925569
000310 58 bf 70 3e 1f b9 73 3f 7d 3e 95 bf 5f b5 09 3f
       0.23510492 0.9520435 -1.1659695 0.53792375
000320 26 b1 e8 be e9 fb cc 3d 7e 16 9b be 4e a7 93 bf
       -0.45447654 0.100089855 -0.30290598 -1.1535432
000330 fc ee 0d 40 50 72 1e be 35 f1 5c 3f 3b 98 c3 bf
       2.2177114 -0.15473294 0.8630555 -1.5280832
000340 eb 63 10 3d a7 5a ea be 4b ef 17 c0 1f e9 06 bf
       0.03525154 -0.45772287 -2.3739803 -0.52699465
000350 d9 13 78 be 66 f7 b0 3e c5 58 bd 3e e1 ae fd be
       -0.24226321 0.3456375 0.36981788 -0.49547485
000360 da e7 64 bc 17 12 e5 3f 53 c0 69 3f 06 13 b3 3e
       -0.013971293 1.7896146 0.9130909 0.3497545
000370 e2 a9 33 bf 9b 83 88 bf 69 14 de 3f 42 e4 8a 3f
       -0.70181096 -1.0665163 1.7349979 1.0850909
000380 d9 26 e9 3f 55 41 d8 bf 4d 8f 0e 40 cd af a5 3f
       1.821498 -1.6894938 2.2274964 1.2944275
000390 7e f8 f6 bf 3f 6d 0c 3f b7 f9 bf bf 4d a1 06 3f
       -1.9294584 0.54854196 -1.4998082 0.52589875
0003a0 87 5e 1b 3f cc f2 cd bc fa c3 04 3f c2 26 4c be
       0.6069111 -0.025140189 0.51861537 -0.1993666
0003b0 4e ae 1d bc b5 a1 a6 bc 8a ab ad 3e ae 77 25 3f
       -0.009624077 -0.02034078 0.33919936 0.6463574
0003c0 f4 7b 63 3e 04 0a 20 3f fd ce 1e bf fd f3 32 bf
       0.22215253 0.6251528 -0.6203459 -0.69903547
0003d0 ff df b4 3e 82 6f d2 be 4c 61 c4 bf e1 fb 92 3d
       0.35327145 -0.411007 -1.5342193 0.07176948
0003e0 80 c8 23 bf 79 37 62 3f 0b 10 b0 3e ac f4 29 3e
       -0.63977814 0.88365895 0.3438724 0.16597241
0003f0 a1 22 6f 3f d3 67 b1 bf 82 d3 dd bf 63 89 db 3f
       0.93412215 -1.385981 -1.7330172 1.7151302

noise f4 [1, 1, 32, 32]
000000 22 bc cc 3e 85 61 52 bf 46 ed 96 bd 24 bb 1a 3e
       0.39987284 -0.82180053 -0.07369475 0.15110451
000010 f8 dc 15 bf b3 4c db be 1b ba 47 bf 93 ef 45 3f
       -0.58540297 -0.42831954 -0.7801835 0.77318686
000020 c6 7d 29 3f 5d b4 17 bf 40 0f b1 3f 26 12 1c 3f
       0.6620754 -0.5925959 1.3832779 0.6096519
000030 28 a6 12 3e 43 b7 51 3e a3 22 01 bf 31 86 90 bf
       0.14321196 0.20480065 -0.50443476 -1.1290952
000040 9c aa cb 3f e5 6d 4a be f7 20 4d 3d 95 14 df be
       1.5911441 -0.19768484 0.050080266 -0.4357039
000050 27 4b 33 3f 80 31 5d bd f5 02 82 3e 15 57 53 3e
       0.7003655 -0.054002285 0.2539288 0.20638688
000060 53 2c e2 3e d2 f3 28 bf 3b 0f 67 bf cd 23 17 bf
       0.44174442 -0.6599704 -0.90257615 -0.59039
000070 63 18 f6 bf ea 95 17 40 b9 0d 62 3f 93 17 92 3e
       -1.9226192 2.368525 0.8830219 0.2853361
000080 da 36 05 3e ab 37 9b 3e e5 f6 0d 40 38 d5 7d bf
       0.13009205 0.3031591 2.2181942 -0.9915347
000090 25 f4 6d 3f ba 84 c8 3f 4a bf e6 bf 51 8c d1 bf
       0.9295066 1.5665505 -1.8027127 -1.6370946
0000a0 de 49 28 40 95 e8 8b 3f 87 9c 5e 3f 60 38 0b 3f
       2.6295085 1.0930353 0.8695759 0.54382896
0000b0 91 e0 fb 3d e5 df 68 3d 9b 2c 63 bc b8 df 96 3d
       0.12298692 0.056854147 -0.013865615 0.0736689
0000c0 f6 fe c4 be 1d e6 19 bf f7 89 52 be 1c 8a 2c 3f
       -0.3847577 -0.6011675 -0.20560442 0.6739824
0000d0 a6 c7 43 40 75 b9 3f bf 00 7e 29 c0 e8 81 72 be
       3.0590606 -0.7489236 -2.6483154 -0.23682368
0000e0 d6 0b 5f 3d a4 ec 77 bf 3b 00 38 3f d2 8f 6e 3e
       0.054454647 -0.9684546 0.7187535 0.2329705
0000f0 b1 68 5f 3f 0c 3b bc 3c b9 05 35 bf 8e d3 e2 be
       0.8726912 0.022977374 -0.7071186 -0.44302028
000100 a9 c4 9c bf bd 15 bb 3f d6 22 1d 3f 30 8a 8e bf
       -1.2247516 1.4616009 0.6138128 -1.1135921
000110 8d 75 eb 3e 15 51 d2 be 68 bc 2c 3f f8 f9 8c 3e
       0.45988122 -0.41077486 0.67474985 0.2753446
000120 a9 9d 8b be 78 70 97 be 13 66 88 be 6d 92 d9 bf
       -0.27268723 -0.29577994 -0.26640376 -1.6997811
000130 ae 42 14 3f c4 a7 f7 3e e9 3c 45 3e b7 c0 d0 bf
       0.57914245 0.48370183 0.19261517 -1.6308812
000140 ba 04 9b bf 4b 82 83 bf f6 02 73 bf 32 72 ec 3d
       -1.2110817 -1.0274137 -0.94926393 0.115452185
000150 7c a3 c6 be eb 2c 38 bf a5 ba f5 bd 4a f8 d5 bf
       -0.38796604 -0.7194354 -0.1199849 -1.6716397
000160 57 28 8f 3f a8 96 28 3f a2 c6 f9 bf 8a da 7e 3f
       1.1184186 0.65854883 -1.9513743 0.99552214
000170 b3 f7 21 3f d0 42 57 bc 29 58 e2 3e 8a 56 64 3f
       0.63268584 -0.013138488 0.44207886 0.8919455
000180 d1 f1 ae 3f 0d 6b bc 3d a8 11 5d 3f 4a 82 0d bf
       1.3667547 0.09200106 0.86355066 -0.5527693
000190 23 4b 89 3f 89 56 38 3f ef d6 b2 3e cc f5 29 bc
       1.0726055 0.7200704 0.34929606 -0.010373544
0001a0 d4 30 0d be 85 66 3e 3e 20 25 18 c0 9e 41 69 bf
       -0.13788158 0.18593796 -2.377266 -0.9111575
0001b0 40 5a 1f 3e a6 94 96 bf bf b7 78 3f 49 8a 03 40
       0.15561771 -1.1764114 0.97155374 2.0553153
0001c0 9c 61 f8 bf 1e b8 02 be f0 db 60 3f 9d 0a 06 bf
       -1.9404788 -0.12765548 0.878356 -0.52359945
0001d0 bf 55 1d bf 1e 71 8b be b7 a4 d2 3f bf 87 b0 be
       -0.61458963 -0.2723474 1.6456517 -0.34478566
0001e0 d0 f2 0a c0 3e d6 6b bf c4 83 98 3f 6b e6 62 bf
       -2.17107 -0.9212378 1.1915212 -0.8863284
0001f0 98 19 95 3f 48 6a 69 bf 14 b8 68 be a3 e2 37 3f
       1.1648436 -0.911778 -0.2272647 0.71830195
000200 e1 1e 5a 3f f4 dc 9b 3e 06 e2 24 bf 06 d1 16 bf
       0.8520337 0.3044201 -0.64407384 -0.58912694
000210 31 cd 46 bf 9a 91 e8 be 33 f9 77 3d c4 9b 8c bf
       -0.7765685 -0.45423585 0.06054039 -1.0985036
000220 37 0d a2 3e db 99 ae 3e 5b bc 24 3e 7e 51 9d 3f
       0.31650707 0.34101757 0.16087477 1.2290494
000230 6d 81 a6 bf dd 0b 7f 3d 30 c7 65 bf 27 b7 8e 3f
       -1.3008248 0.062267173 -0.8975706 1.1149644
000240 97 e9 8b be 5a 98 93 3e 7c d8 40 3f 25 12 01 c0
       -0.27326652 0.28827173 0.7533033 -2.0167325
000250 3d 78 25 bd b6 f7 ba 3f 27 05 45 3f f0 fe 49 3d
       -0.04039787 1.4606845 0.76960987 0.049315393
000260 97 f7 c1 3f 98 ed f0 3f 99 26 7f 3f 3c 80 f1 be
       1.5153683 1.8822508 0.9966827 -0.47168148
000270 2e cb a2 bd 98 11 86 3f 06 29 70 3e 01 2f 8a 3e
       -0.0794891 1.0474119 0.23453149 0.26988986
000280 32 29 8e bf 54 14 4f bf ac 37 a9 3e 95 7f 52 3f
       -1.1106322 -0.80890393 0.33050287 0.82225925
000290 60 3e 38 bf 20 5c 9c 3d 8f 10 cf 3f 46 b1 a2 be
       -0.71970177 0.07634759 1.6176928 -0.31775874
0002a0 f0 f7 85 3e a6 e5 7b be 53 85 91 3f 26 d5 0e 3e
       0.26165724 -0.24599323 1.1368812 0.13948497
0002b0 3c 75 e5 bf 01 93 dc 3e be 1d cd bf 00 cb f4 3e
       -1.7926402 0.43080905 -1.6024702 0.47811127
0002c0 45 70 b8 3e 1c ab a2 bf d9 af 75 bf 14 57 17 3f
       0.36023155 -1.2708468 -0.9597145 0.59117246
0002d0 97 55 c3 bf d0 21 dc bf 18 6f 4b 3f c4 6a 74 3f
       -1.5260495 -1.7197819 0.7946639 0.9547541
0002e0 0b 76 7b bd ac 2e 8d be 26 52 3a 3f c6 8d ba be
       -0.06139187 -0.2757467 0.727816 -0.3643629
0002f0 46 3a 38 3d f8 0c 2c bf 55 ba 23 3f 0e 22 83 3d
       0.04497745 -0.6720729 0.63956195 0.0640298
000300 b0 55 80 be e2 47 b2 bf cf 2a a4 3e dc dd 0f 3e
       -0.25065374 -1.3928187 0.3206391 0.14049476
000310 4c cf 0b c0 63 1d 2d bf 56 8f 10 be 0f cf a8 bf
       -2.1845274 -0.67622966 -0.14117178 -1.3188189
000320 93 21 11 3f 81 44 05 3f b6 9d e7 3e 22 22 3a bd
       0.56691855 0.52057654 0.4523751 -0.045442708
000330 c1 0a d9 3f 20 de 87 3f ee b7 f6 bf 15 cb 45 3f
       1.6956407 1.0614662 -1.9274881 0.77263004
000340 05 cd a1 3f c4 d6 c1 bf cc 1f 51 3f e5 7c 84 be
       1.2640692 -1.5143666 0.81689143 -0.25876537
000350 db 81 ba bd 89 3a 45 bf 59 a9 cb bf 94 32 c1 bf
       -0.09106799 -0.7704244 -1.5911056 -1.509356
000360 1e 8b a1 bf 7f de 90 3f a6 8d a5 bf 27 61 00 40
       -1.262058 1.13179 -1.2933853 2.0059297
000370 25 97 3e 3e 33 2b d9 bf 01 a6 93 be b1 42 13 3f
       0.18612345 -1.6966308 -0.28837588 0.5752364
000380 e7 98 30 bf 45 e6 4c bf 06 3d a6 bd 72 9e 24 40
       -0.6898331 -0.80038863 -0.08117108 2.5721707
000390 fe 6e 3d 3f 83 a4 37 3f 71 1c 83 be 4a b6 d9 bf
       0.73997486 0.717354 -0.25607637 -1.7008755
0003a0 b6 e1 b0 3d 0e 56 d6 bf 3d fa 2a 3f 5f 61 17 c0
       0.08636801 -1.6745012 0.66788083 -2.365318
0003b0 a1 57 88 3e e6 96 55 bf 32 2e 03 c0 c9 4c d9 bf
       0.26629356 -0.8343338 -2.0496945 -1.6976558
0003c0 51 36 a6 3b 27 0d 55 3f 8b 35 c5 bf 99 cd b0 3e
       0.005072393 0.83223194 -1.5406965 0.3453186
0003d0 dd e4 57 be 71 67 bd bf d8 5f 61 3e ff 56 f2 bd
       -0.21083398 -1.4797193 0.22009218 -0.118329994
0003e0 f3 94 b3 3e f0 b1 26 3f 0f 3f 56 3f c3 94 c3 3f
       0.35074577 0.6511526 0.8368997 1.5279773
0003f0 59 be ac bc e3 75 92 bf a9 17 09 3f 29 e9 c1 be
       -0.021086859 -1.1442226 0.5355173 -0.378732
